weights/face_attr00/best.onnx (onnx, 927566 bytes, 59 tensors)

dec1.conv.weight f4 [32, 32, 4, 4]
000000 97 3f 62 bc 14 e3 51 bb 65 ee 8a 3d 18 4a 8a 3d
       -0.013809106 -0.0032026218 0.067837514 0.067524135
000010 da b7 e2 3c 6a 48 c0 bd 31 6a be bc 33 be 17 bd
       0.027675558 -0.09388812 -0.023243995 -0.037046622
000020 c1 14 8f 3d 8f 5b d2 3d 4d 22 e4 3d c4 9a de bb
       0.0698638 0.1027137 0.11139355 -0.006793352
000030 20 9d 9b 3c 19 f6 4b bd f5 2e 05 3d e1 ed cb bc
       0.018995821 -0.049795244 0.032515485 -0.024893703
000040 3d 29 87 bb 76 4f 81 bd dc 45 13 bd 3a fb 8c 3c
       -0.004124789 -0.06313984 -0.035955295 0.017209638
000050 d4 ed 6d 3c ca c4 3b bd ac 12 21 bd 4c b6 68 3d
       0.014522035 -0.04584197 -0.039324448 0.056814477
000060 f1 4d 42 3d 5d 65 a1 bc 89 fd 61 bc 20 ee cf 3c
       0.047437612 -0.019701654 -0.013793358 0.025382102
000070 19 18 29 3d f1 7f 96 bb 8a f2 1a 3d 18 db 2a bc
       0.041282747 -0.0045928885 0.03782896 -0.010428213
000080 b9 5a 15 3c 5a 58 54 bd bf 07 42 3c 42 16 21 bc
       0.009115868 -0.05184207 0.011842667 -0.009831967
000090 89 6d 2f 3c c4 d2 89 bd 59 22 a4 bc 14 6e 0c 3d
       0.010707268 -0.067296535 -0.02003591 0.034284666
0000a0 96 ea f6 bb 12 68 94 bd 32 bc 1c bd 1e b9 32 3b
       -0.007535289 -0.07246412 -0.038265415 0.0027270983
0000b0 49 a5 0e 3c 38 94 ea 3c 9e 00 bc 3c 26 e0 a3 3d
       0.008706399 0.02863513 0.022949513 0.08001737
0000c0 18 66 97 bd 0a b5 e2 3d a7 4a a6 3d 6d dc c1 bc
       -0.0739252 0.11069687 0.081197076 -0.023664678
0000d0 15 7b 26 3b e0 54 b5 3d 3b 2c a4 3d 92 65 d1 3c
       0.0025402952 0.08854079 0.08016249 0.025561128
0000e0 c1 f9 9a 3b 07 38 bc 3c cd 31 08 bd e3 7c d4 3c
       0.00472948 0.022975935 -0.03325062 0.025938457
0000f0 d5 e3 c1 bb 01 62 19 bd 0c 9a d2 bc 31 68 64 bd
       -0.0059170523 -0.03744698 -0.02570822 -0.055763427
000100 a5 61 21 bd c5 87 01 3d 77 7e 4c bd 6e b8 8f bc
       -0.03939976 0.03162362 -0.049925294 -0.017543998
000110 40 07 9e bc 25 81 97 3c e3 37 66 ba b2 69 83 bc
       -0.019290566 0.018494198 -0.00087821315 -0.01604161
000120 ce 36 02 3c 46 d2 9c 3c 0c 71 4a 3b a7 1f ee ba
       0.007947637 0.019143235 0.0030890135 -0.0018167392
000130 20 c0 78 3c c6 24 04 bc e2 61 10 3d 8d 77 e9 bc
       0.015182525 -0.008065408 0.0352496 -0.028499389
000140 2a 5a 9e bd ff 70 dd 3c e8 1b c0 bc 7a c9 2c 3d
       -0.07732041 0.02703142 -0.023450807 0.04218433
000150 72 75 1b bd de 11 47 3c 72 af b1 bc 85 ae 9a 3d
       -0.0379538 0.012150256 -0.021690104 0.07552818
000160 9f 16 34 3d 83 d2 c7 ba a7 47 4a bd 4e a7 4d 3d
       0.043966886 -0.0015245232 -0.04938474 0.050208382
000170 f0 26 c0 3d c0 9a 3a 3d 16 aa a0 3c 41 2e dd ba
       0.09382427 0.045557737 0.019612353 -0.0016874747
000180 00 99 91 bc d7 5c 5c bd 37 32 20 bc 7d 1b 9d 3c
       -0.017773151 -0.053799476 -0.009777597 0.019178146
000190 31 33 38 bd fb 0d 90 3c 87 24 a7 3c b4 88 35 3d
       -0.044970695 0.017584791 0.02040316 0.044319823
0001a0 bb db f6 bc 7d 09 29 3d 13 9f 4c 3d 69 8c d4 3d
       -0.030134073 0.041268814 0.049956392 0.103783436
0001b0 12 0a fc bb d9 86 4f 3c da 01 28 bc 3e 52 8c 3d
       -0.00769163 0.0126664275 -0.010254348 0.06851624
0001c0 3e f2 5b 3d 90 b9 81 3c a2 d5 c3 3c 58 db 08 bd
       0.053697817 0.015835553 0.023905579 -0.033412308
0001d0 eb fa 1b bc 9d f4 60 3a 98 87 f6 bc 2a 86 8f bc
       -0.009520273 0.0008581372 -0.030093953 -0.01752003
0001e0 d4 71 12 3c fa c2 23 bc 68 ec 9a 3b 12 88 14 bd
       0.008938272 -0.0099952165 0.004727889 -0.03626258
0001f0 d2 c7 c4 bc 0f 73 22 bb b6 9a 91 3b 7f 74 39 bc
       -0.024021063 -0.0024787819 0.004443492 -0.011319279
000200 e1 4c 7b bd d5 89 b6 3b e3 7a fc bb b1 0c 49 bb
       -0.061352614 0.00557063 -0.007705079 -0.003067773
000210 81 ef 84 bd e2 0f 28 3d d9 6a 8b 3c af ad 83 3c
       -0.06490994 0.041030772 0.017018722 0.01607403
000220 fa e7 24 bd 89 6a 35 bc 43 23 27 bd af 87 e7 3c
       -0.040260293 -0.011072763 -0.040805113 0.028262941
000230 d8 4e af 3b 5f 19 91 3c 03 20 f4 3c 69 96 ca 3d
       0.005349975 0.017712293 0.02980042 0.0989197
000240 a2 83 e8 bb 72 3a b5 bc b5 77 06 bb c5 20 d9 bb
       -0.00709577 -0.022122595 -0.0020518128 -0.006626221
000250 22 60 e5 bc 37 7e 60 3d 0c 73 53 3b bf 0c 7e bd
       -0.027999941 0.054807868 0.0032264618 -0.062023874
000260 fa 55 9b bd e7 1f 08 bd 48 8c ea bc 23 0e e5 bc
       -0.07584758 -0.03323355 -0.028631344 -0.027960842
000270 21 ca 5c bd b3 d2 c0 bc 11 e2 cf 3c 13 10 42 ba
       -0.053903703 -0.02353797 0.025376352 -0.0007402908
000280 41 8a 52 bc d3 75 89 3d 13 7e 4a 3d e8 a3 82 3c
       -0.012850345 0.06711926 0.04943664 0.015947297
000290 ff 3c 18 3d a7 f0 b8 3b 8e a0 53 3d dc a7 35 3d
       0.037167545 0.0056439224 0.05166679 0.044349536
0002a0 1d 51 be bd d2 ad 7b bd 8a 94 97 3c df 62 4e 3d
       -0.09292815 -0.061445065 0.018503446 0.05038726
0002b0 43 ce bd bc de 06 b4 3c c1 0c 91 3c 25 1f c9 ba
       -0.023169642 0.02197593 0.017706277 -0.0015344365
0002c0 b0 c7 62 bd 57 b6 93 bd c3 0e b6 bd b4 19 af bd
       -0.055366218 -0.07212513 -0.08889534 -0.08549824
0002d0 a6 88 97 bc 88 0c ac bc 64 24 ec bc 05 98 f1 bb
       -0.018497776 -0.02100207 -0.028825946 -0.0073728585
0002e0 a6 6a 8e 3c 68 c2 36 bc 0a 28 d1 bc e6 f4 1f 3c
       0.017384838 -0.0111547485 -0.025531787 0.009762978
0002f0 2b 73 d1 3c b2 bb f7 bc 9e f7 bb bc dc 90 0b bd
       0.025567612 -0.030240867 -0.022945222 -0.034073696
000300 1c e2 fe 3a 9f 38 45 3d 28 87 5a bd 64 c5 b2 3d
       0.0019446048 0.0481497 -0.05335155 0.087290555
000310 15 6b 15 bd 77 07 cf 3c b3 31 79 bc 00 29 6a 3c
       -0.036479075 0.025272114 -0.015209603 0.014292002
000320 83 dc 02 bc 21 6e 3c 3d 42 b8 ef 3c 9f 05 00 3c
       -0.007987144 0.046003465 0.029262666 0.00781384
000330 80 25 94 3c 36 9e 21 bd 1d 94 7a bd be 3c 94 bd
       0.018084288 -0.039457522 -0.061176408 -0.07238148
000340 f1 b8 dc 3c a7 10 75 bc 76 6c 51 bd c2 da 71 3c
       0.026943656 -0.0149575835 -0.051128827 0.014761629
000350 9f c9 b3 3c 5f 7c 4e 3d 4e 55 fd 3c d9 bc ad 3d
       0.021946726 0.05041158 0.030924466 0.084832855
000360 40 d9 3e bd 8c ee 7b bd 54 9d b0 bb 32 d8 90 3d
       -0.046593904 -0.061506793 -0.0053898487 0.07072486
000370 41 e6 2e bd 8e 72 5d bd 57 0e ae bc 3c b5 9d bc
       -0.042700056 -0.054064326 -0.021247072 -0.019251458
000380 4d a5 56 bc d7 f9 2f bd 33 78 bc 3c b8 17 a6 bb
       -0.013100934 -0.042962875 0.023006534 -0.0050687455
000390 ee 87 3d bd be 05 5b bd 61 b4 ce bc 7b 3c 2e bd
       -0.04627221 -0.053472273 -0.025232496 -0.042538147
0003a0 7a f1 d9 3c 7d 08 91 bc f9 70 da 3b 1b 79 67 bc
       0.026604403 -0.017704243 0.0066662994 -0.014127995
0003b0 11 c5 f9 3b 0d a1 c0 bb 0a 08 4a bd 0c 5d 46 bd
       0.007622369 -0.0058785737 -0.049324073 -0.04842858
0003c0 09 21 ae bd 5f 13 c6 3c 19 e5 22 3c dc db bf 3c
       -0.08502395 0.024179159 0.009942316 0.023420267
0003d0 cc 8c fa bc 8b 36 49 3d d8 38 31 3d b5 7e 20 bb
       -0.030584715 0.04912428 0.0432671 -0.0024489586
0003e0 a2 e0 9f bd 4f 26 a3 bd 96 7b 91 bb a2 23 55 bd
       -0.07806517 -0.07966291 -0.0044397814 -0.052035935
0003f0 45 26 fa 3c 97 55 da bc 71 be 20 bb 88 b8 a2 bd
       0.030535826 -0.02665214 -0.0024527574 -0.07945353

dec1.conv.bias f4 [32]
000000 ea c1 99 bc a9 47 b6 bc a9 15 bf bc 09 af bc 3b
       -0.018769223 -0.022250967 -0.023325758 0.0057581705
000010 ae ac a2 bc 8e da df bc 55 b5 11 bc 41 0f 02 3d
       -0.01985773 -0.027325895 -0.008893331 0.03175283
000020 22 c1 36 bb 70 24 d8 bc 30 1e a6 bc 30 79 af bc
       -0.0027886112 -0.026384562 -0.020278066 -0.021420091
000030 c1 86 34 3c c8 60 1a bd ea 7d b9 3c 20 ba 32 3c
       0.011018456 -0.037689954 0.022643048 0.0109086335
000040 e9 65 fe bc 53 56 03 3d f5 44 b2 bc fb 6f 27 3c
       -0.031054454 0.032064747 -0.021761397 0.010219569
000050 30 1d 3c 3c f3 fc 65 3a f2 37 a1 3c c4 25 9b ba
       0.011481568 0.0008773349 0.019679997 -0.0011836817
000060 22 31 01 bd d3 e1 37 bc df ce 16 bd 99 b8 05 3c
       -0.031540997 -0.011223274 -0.03681838 0.008161687
000070 fc 1c 17 3d 8d 16 c5 3c 64 23 d4 3c d0 83 70 bc
       0.036892876 0.024058605 0.025895782 -0.014679864

dec1.bn.weight f4 [32]
000000 cf 15 97 3f f3 b3 c6 3e b7 d0 10 3f c8 10 19 3f
       1.180353 0.38809165 0.56568474 0.5979123
000010 ef 13 cb 3e 11 f3 de 3e 00 b9 23 3f 20 4a e0 3e
       0.39663646 0.4354482 0.6395416 0.43806553
000020 ef fd e0 3e fb 70 e2 3e 8b bc 1b 3f b8 ce cc 3e
       0.43943736 0.44226822 0.6083457 0.40001464
000030 b5 4a 28 3f 95 c6 f0 3e 69 6c 17 3f da cb 14 3f
       0.65738994 0.47026506 0.59149796 0.5812355
000040 3d a5 01 3f 50 27 08 3f 3e 84 94 3f 19 91 d8 3e
       0.5064276 0.53184986 1.1602857 0.422982
000050 33 9d 25 3f c2 cb 83 3f 29 39 d0 3e 6c c4 2b 3f
       0.6469299 1.0296557 0.4066861 0.6709659
000060 9d d8 e4 3e e5 a0 d2 3e 31 ea 1b 3f c2 0e 35 3f
       0.44696513 0.41138378 0.6090422 0.70725644
000070 09 68 88 3e 72 2d ca 3e 89 96 91 3f 6c f2 27 3f
       0.26641873 0.39487797 1.1374065 0.6560428

dec1.bn.bias f4 [32]
000000 6a c5 06 bf 54 28 86 3e eb 7d f4 bd 0a ca d5 3d
       -0.5264498 0.26202643 -0.119380794 0.104389265
000010 70 d0 8b be 83 64 f1 bb 93 bc 72 be 32 4c 84 be
       -0.27307463 -0.0073667183 -0.23704748 -0.25839382
000020 a6 c4 93 3d 50 a3 dd be cf d5 8e 3d c9 97 d2 be
       0.07215242 -0.4328866 0.069743745 -0.41131428
000030 08 b5 a8 be 98 d1 46 be 2c 71 95 be 0c dd cc be
       -0.32950616 -0.19415891 -0.29187906 -0.40012395
000040 18 d5 92 be 26 8a dd be 62 79 b6 bd e3 f7 ec be
       -0.28678203 -0.4326946 -0.08909871 -0.46282873
000050 b2 b0 dc bd 64 29 15 be 8b bc b4 be e2 16 b1 be
       -0.107758895 -0.1456657 -0.35300097 -0.3458777
000060 5e 59 05 bf ef 7b ee be b7 30 06 bf d8 a5 0c bf
       -0.5208949 -0.4657893 -0.5241808 -0.5494056
000070 22 d8 9b bd ea 17 cd be ba 58 02 bf ab 80 c5 bc
       -0.076095834 -0.40057307 -0.50916636 -0.024109205

dec1.bn.running_mean f4 [32]
000000 a0 c2 73 3f 26 20 c1 3e 94 f2 ee bd 86 53 25 3e
       0.9521885 0.3771984 -0.11667362 0.16145143
000010 aa 3e 84 3e a2 95 e9 be 8b 1e bc 3d 5d 0e 26 bf
       0.2582906 -0.45621973 0.09185513 -0.64865667
000020 7e 2d 47 bd 3a c3 e9 3d 57 09 9f bd fb 8f 40 3f
       -0.04862737 0.1141419 -0.07765453 0.75219697
000030 dd aa 70 3f f6 91 62 3c f9 da dd be c1 b5 83 3e
       0.94010717 0.013828745 -0.43331125 0.25724605
000040 0a 59 f6 3e 35 aa db 3e 7a 59 c8 be 42 2e 6a 3f
       0.48114806 0.42903295 -0.39130765 0.91476834
000050 90 50 8c 3e 1f 33 c7 3f ee d8 6c be 39 3d 9c be
       0.27405214 1.5562476 -0.23129627 -0.3051546
000060 e2 9a 31 bf ae 4c 84 3d 9e d7 3e 3d 28 ee 90 bd
       -0.6937696 0.06459938 0.046592347 -0.07076675
000070 9d 7c 0d bf c5 5a 2a bf 10 d9 4c 3e e7 40 b9 3e
       -0.5526827 -0.66544753 0.20004678 0.3618233

dec1.bn.running_var f4 [32]
000000 e6 e7 7d 3f ed e9 b9 3e f0 60 b9 3e a0 f7 ff 3e
       0.99181974 0.36311284 0.3620677 0.4999361
000010 77 32 98 3e 9a a1 97 3e c7 4b 00 3f 4e b5 c7 3e
       0.29726002 0.2961548 0.5011563 0.39005512
000020 7c dc a5 3e ab 01 8f 3e 8d 64 ce 3e 08 2c d3 3e
       0.3239478 0.2793096 0.4031109 0.4124453
000030 b3 e7 30 3f cf a3 9c 3e 65 4b 02 3f f0 e6 d9 3e
       0.69103545 0.30593726 0.5089629 0.42559004
000040 49 8b c0 3e aa 44 05 3f 58 f4 a4 3f b6 ca d5 3e
       0.37606266 0.520579 1.2887068 0.4175622
000050 6f 0c eb 3e 6a 34 80 3f 32 21 a1 3e 70 69 e5 3e
       0.45907924 1.0015996 0.3147064 0.44807005
000060 64 76 a7 3e 27 0f 91 3e bb c7 fe 3e f5 88 ee 3e
       0.32707512 0.28331873 0.49761757 0.46588865
000070 c7 45 99 3e 0a 00 ad 3e 61 62 87 3f de 20 01 3f
       0.29936048 0.33789092 1.0576898 0.50440776

fc1.fc.weight f4 [64, 64]
000000 b4 56 39 3b f7 e9 e7 3c b0 c8 07 bd 70 d8 c4 bc
       0.002828044 0.028309805 -0.033150375 -0.024028987
000010 a8 3c 5b 3d 7d db 20 bd be 11 00 3d cd 2c ea ba
       0.053524643 -0.03927182 0.03126692 -0.0017866135
000020 f8 10 d3 bc 24 08 9c 3c da 3b a0 bd 21 43 0a bd
       -0.025764927 0.01904685 -0.07823916 -0.033755425
000030 30 86 1f 3e 8c ad 3c 3d 15 f5 b2 3d 47 50 03 be
       0.15578532 0.046063945 0.08738152 -0.12823592
000040 d7 10 7d 3c f7 b7 4e 3d e1 3f 28 3c e6 a5 f0 3c
       0.015445909 0.05046841 0.010269136 0.029375982
000050 4a c6 57 3d fa 2f 67 bd 8f 7d ef bb e2 43 de 3c
       0.052679338 -0.05644224 -0.007308669 0.027131978
000060 dd 36 67 3d 66 9d 02 bc e1 9a 48 bd 8b f2 d6 3d
       0.056448806 -0.007972097 -0.04897583 0.1049548
000070 bd 58 34 be e6 4d c3 3c eb cd 77 3d 84 67 dc 3d
       -0.17611976 0.023840856 0.060499113 0.107619315
000080 a6 d5 e0 bd 44 5f 81 3d 4f 5a 3e bd 5a 50 ee 3b
       -0.1097825 0.063169986 -0.046472844 0.0072727622
000090 9d b9 2b bc 0d 70 eb 3c 65 5d 75 bd a5 ef 32 bd
       -0.010481265 0.028739953 -0.05990352 -0.043685574
0000a0 55 b6 3a 3e 84 4b 21 3e 6d 97 b3 3d 3f 46 a3 bd
       0.18233617 0.15751463 0.087691166 -0.07972383
0000b0 51 05 85 3c 42 37 85 3c 12 d7 2d be 7b 89 b0 bd
       0.016237887 0.0162617 -0.16976574 -0.08619972
0000c0 7a 0d 0e be 04 1c fd bc e2 f3 38 bd 25 55 15 be
       -0.13872328 -0.030897148 -0.04515446 -0.14583261
0000d0 da 76 2c 3d a6 78 63 bd 76 e5 4a 3d b1 ea e9 bd
       0.042105533 -0.05553498 0.049535237 -0.11421717
0000e0 a4 da a6 bd 57 5e af 3d 98 68 8a bc cd 89 b4 3c
       -0.08147171 0.08562916 -0.016895577 0.022038365
0000f0 5a 6f ed bc d3 c0 04 3c a7 05 bb bc bf 7b aa 3d
       -0.02898376 0.0081026135 -0.022829844 0.08324384
000100 50 b8 69 bd 11 7a 1f be d8 06 af bb ca f5 da bc
       -0.05706054 -0.15573908 -0.005341392 -0.02672853
000110 5b ab 65 be 14 f6 ce 3c 24 ee 2e 3e 21 50 18 3e
       -0.22428648 0.025263824 0.17083031 0.14874317
000120 b5 5b 7f 3d f6 81 b3 bc c7 56 8e 3c 25 7a ac be
       0.062343318 -0.021912556 0.017375363 -0.3368694
000130 08 bb af 3d ae 13 d0 3d 8b 01 7e bc 6c 1c 93 3c
       0.08580595 0.101600036 -0.015503298 0.017957889
000140 b6 8e d9 bc 1e 61 af 3d a7 bb 1d be a6 f6 8b 3c
       -0.026557308 0.085634455 -0.15403615 0.017085385
000150 54 f3 03 3e 16 86 d7 3c d7 de 98 bb bf 18 a8 bd
       0.12885791 0.026309054 -0.0046652365 -0.08207845
000160 c0 aa 06 bc 13 67 8a bd 3a 0e 33 3d 76 00 97 be
       -0.008219421 -0.06757941 0.04371474 -0.2949254
000170 c8 4c 8b 3d a6 f1 b6 bc 29 76 27 be 0d 6b 1d 3b
       0.06801754 -0.022332024 -0.16353668 0.0024020106
000180 01 4d 96 3d d8 7a c8 3a a2 8b 0d 3d 72 14 8f bc
       0.07338906 0.0015295399 0.034556992 -0.017465804
000190 85 dd b1 3d 3b c7 ad bd 9a ee 7e bc 72 65 36 bd
       0.086848296 -0.08485266 -0.015559817 -0.04453034
0001a0 af dd 9a bd 62 fb c8 3b 91 f4 83 bd 62 7a 68 be
       -0.07561814 0.006133483 -0.06443132 -0.22702935
0001b0 db 29 05 3e 6b 72 ad 3c 26 a7 13 3e 91 2b eb 3b
       0.13004248 0.021172723 0.14419231 0.0071768244
0001c0 c2 58 9d bb f9 83 48 bb 9c ed 2d bd f3 36 5d be
       -0.0048018405 -0.003059624 -0.04246293 -0.21602993
0001d0 c2 3e 15 bc 38 45 c5 bc a5 59 58 bd cd c3 ae 3d
       -0.009109201 -0.024080858 -0.052819867 0.0853344
0001e0 e6 94 0f 3d 08 dd db 3d 94 9f 03 3e 31 34 45 3e
       0.03505411 0.10735518 0.12853843 0.1925819
0001f0 9d 56 33 bc 2e aa 6c bd 36 06 08 be 08 23 6a 3d
       -0.010945943 -0.057779483 -0.1328362 0.057162315
000200 03 f3 70 b6 fc bc 7f 36 bc 39 7a b6 35 a4 81 b6
       -3.5904238e-06 3.8107964e-06 -3.7286509e-06 -3.863616e-06
000210 21 81 08 b6 12 a7 0f b6 51 3d b1 34 c2 34 03 b5
       -2.0340742e-06 -2.1405908e-06 3.3013433e-07 -4.8878076e-07
000220 e5 4a 13 b5 12 c6 d6 b5 78 f7 ab b5 75 23 51 b6
       -5.4870753e-07 -1.6001889e-06 -1.2812516e-06 -3.1164066e-06
000230 61 7a 5e b6 39 91 37 b6 18 93 5c b6 48 9a 9c 35
       -3.3151812e-06 -2.7353656e-06 -3.2868174e-06 1.1667807e-06
000240 aa 16 cd 34 e1 e8 56 b6 cb f8 83 b6 b0 31 6d b6
       3.8200716e-07 -3.2024038e-06 -3.9330675e-06 -3.5344674e-06
000250 ca 42 d5 b5 2e dc c6 b5 72 60 4e b6 9d cf 2d b6
       -1.5889175e-06 -1.481623e-06 -3.075253e-06 -2.5899856e-06
000260 08 a6 83 b6 cf fd a1 b4 39 2d 87 35 83 2a 3a b4
       -3.923433e-06 -3.0173257e-07 1.0071445e-06 -1.7338066e-07
000270 9d 2b a0 b4 8b 2f 90 35 a5 f0 23 b5 7e f0 1b 35
       -2.9834055e-07 1.0742673e-06 -6.1072416e-07 5.809196e-07
000280 b7 69 03 b5 41 5b 55 34 ae bb 76 b5 40 02 c9 b5
       -4.895514e-07 1.9870369e-07 -9.191525e-07 -1.4976322e-06
000290 9a 59 58 b5 5b 71 d4 34 65 cc e7 b4 bf de 26 b6
       -8.059666e-07 3.9570554e-07 -4.317582e-07 -2.4865583e-06
0002a0 65 6e 45 b6 3a 22 84 36 12 92 c3 34 b9 c5 35 b6
       -2.9419546e-06 3.937891e-06 3.642786e-07 -2.7086191e-06
0002b0 8b a4 7c 36 f3 69 4f b6 2f eb 67 36 39 a3 44 b6
       3.7646703e-06 -3.0907074e-06 3.4558577e-06 -2.9301284e-06
0002c0 8a ea 74 b4 90 91 2f b5 40 34 41 b6 4e 7c e8 b5
       -2.2809596e-07 -6.54044e-07 -2.8789655e-06 -1.7321524e-06
0002d0 b7 72 46 36 61 36 24 36 80 df b0 b5 9b 26 90 b6
       2.9571072e-06 2.4469557e-06 -1.3178069e-06 -4.2960287e-06
0002e0 99 59 14 b6 80 d2 4f 36 e7 e0 83 36 f4 0b 0d b6
       -2.2105871e-06 3.096793e-06 3.9302863e-06 -2.1017595e-06
0002f0 0a ba 45 36 59 71 1a b6 79 d6 52 b6 d9 9a 2e 35
       2.9463577e-06 -2.3013765e-06 -3.1417278e-06 6.5045384e-07
000300 87 d4 a6 bc 4a d7 57 bd 96 11 8b 3d 8c 12 1d be
       -0.020365013 -0.05269555 0.067904636 -0.15339106
000310 7d 50 c4 3c 19 3b c2 bd eb 4d 7c be c4 52 85 3d
       0.023964161 -0.09483928 -0.24639098 0.06509927
000320 0a 7b 80 bd 37 9e b6 3c 03 a9 75 bd 46 02 31 bd
       -0.06273468 0.02229224 -0.059975635 -0.04321506
000330 3b e0 8e 3c 72 d9 de ba 8c e3 ba bd 0f b8 36 3c
       0.017440906 -0.001700206 -0.09125432 0.011152281
000340 79 6f a5 bd b2 67 a4 bd ed 15 10 be 98 dc cd bc
       -0.08077902 -0.08027591 -0.14070864 -0.025129601
000350 83 7e 97 bd b5 5b a5 be 4a dc ab 3d 25 60 83 bd
       -0.07397177 -0.3229653 0.08391626 -0.064148225
000360 5b 46 4d 3c 1e 6c e2 bd 82 8b 90 bd f4 a8 be 3c
       0.012528981 -0.11055778 -0.07057859 0.023273923
000370 ff 87 75 bd 00 04 b8 3d 32 48 4c bd 92 0b a0 3d
       -0.05994415 0.08985138 -0.04987354 0.07814707
000380 ae 6b 0e ba e2 4c c7 bd 82 8d 10 3e b0 e7 32 bd
       -0.00054329156 -0.09731461 0.14116481 -0.043677986
000390 65 e6 25 3d ba de c1 bd e6 a8 1e bd 29 9e da bd
       0.040502924 -0.0946631 -0.038735293 -0.10674698
0003a0 95 16 93 3d 70 91 49 3e 70 40 da bd f2 25 0b 3d
       0.071820416 0.19684386 -0.10656822 0.033971734
0003b0 88 e8 66 3c 8e f2 a2 bd d5 89 d6 bc 80 1e 4e 3c
       0.014093526 -0.0795642 -0.02618877 0.012580514
0003c0 d6 1a d3 bd 9c 53 04 be 67 76 0a 3e ed 43 16 3e
       -0.10307853 -0.1292252 0.1352173 0.14674349
0003d0 e8 a9 98 bd 43 8f a5 bc 07 65 15 be d1 e9 22 3d
       -0.07454282 -0.020209914 -0.1458932 0.039773766
0003e0 a8 ce 7d bc bc 11 da 3c 67 bd bf bc e5 32 b5 3d
       -0.015491165 0.026619785 -0.023405744 0.08847598
0003f0 24 16 51 3c 9e a9 32 be 5c 8d 65 bc 9f 29 97 bd
       0.012761626 -0.17447516 -0.0140107535 -0.073809855

fc1.fc.bias f4 [64]
000000 24 e2 e6 3b dd e2 b1 3e 1a e2 cd bd 8b 35 ca 3e
       0.007046001 0.34743395 -0.10052891 0.39493975
000010 b6 2a 42 3d 4c 83 2e 3f 4f 6f b4 bd 13 7b 49 3f
       0.047404014 0.68169093 -0.08810293 0.7870342
000020 e8 77 0c 3f 39 04 b7 be 27 75 87 be 4e c9 ec bd
       0.5487046 -0.3574541 -0.26456568 -0.11561833
000030 95 96 d8 3f d2 a5 0e 3e ca 33 e0 3e 5d 78 90 3e
       1.6920954 0.13930443 0.43789512 0.2821683
000040 d2 29 e0 bb 83 ad e4 3e 52 4b 4c 3e 4b 6e 91 3e
       -0.006840923 0.4466363 0.19950607 0.2840446
000050 f2 ef c7 3e 2c e0 de 3e 99 f8 20 3e e9 0d 8b 3e
       0.3905025 0.43530405 0.15719832 0.2715905
000060 0a 80 9d be 52 15 dd 3e f1 c8 a4 3e ee a9 5b 3f
       -0.3076175 0.4318033 0.32184556 0.8580617
000070 44 73 5f 3e 6b c7 d5 3c 07 0c 4d 3f f5 e8 20 be
       0.21821314 0.026096066 0.8009648 -0.15713866
000080 83 b1 e6 3e 9c c8 38 3e 01 8a c0 3d 1c c7 3d 3e
       0.45057306 0.18045276 0.09401322 0.18532985
000090 c8 0f 3a 3f 9d 56 ac 3c 55 bf 27 bf 7a 09 e0 3e
       0.7268033 0.021037394 -0.65526325 0.4375723
0000a0 0c c8 54 3f 52 a3 dd bd 58 2e d4 3e b4 5f 31 3e
       0.8311775 -0.108221665 0.41441607 0.17321664
0000b0 58 f7 93 be 80 97 b2 bd 6c 83 bc bd 22 f9 9f 3e
       -0.28899646 -0.087203026 -0.09204754 0.3124476
0000c0 5c 65 bf 3f 31 41 ac 3e dd e0 ba 3e bf 20 2b 3e
       1.4952807 0.33643487 0.36499682 0.1671171
0000d0 61 1f 13 3f ee 59 9a 3c 59 d4 8b 3e b6 7f 7b 3e
       0.57469755 0.01884171 0.27310446 0.24560437
0000e0 b1 69 38 3f 2f 15 85 3e b5 50 26 3f 39 92 6f 3e
       0.7203627 0.25992724 0.649669 0.23395623
0000f0 20 4f bf 3d 04 ff 3b bd 1a b7 30 bf 63 a6 23 3f
       0.09341264 -0.0458975 -0.6902939 0.6392576

fc2.fc.weight f4 [1, 64]
000000 b3 a1 be bc 7b 9c 9b 3e 53 51 b5 b5 fb 66 22 3e
       -0.023270464 0.30392823 -1.3509219e-06 0.15859596
000010 16 f9 9b 3e 59 e6 3d 3e ef 5e ef 3b e0 90 7b 3e
       0.30463475 0.18544902 0.007305018 0.24566984
000020 f5 79 dc 3e 40 89 0d 3d 5f 33 28 3e f0 69 81 3e
       0.43061796 0.03455472 0.16425847 0.25276136
000030 e7 80 9e bf 88 28 d4 3d ec e6 1a bd 9e da 2b bd
       -1.2383088 0.10359293 -0.03781788 -0.041956536
000040 7d 23 2a 3f c0 d1 f9 bc d2 39 1d 3f bc 84 13 3e
       0.664604 -0.030495524 0.6141635 0.14406103
000050 f0 6d 2f bf 3e 11 69 3e b6 87 e7 3d 5d 88 ee bd
       -0.68527126 0.22760484 0.11305182 -0.11647103
000060 31 b3 9e 3d 59 f2 90 3c d2 34 d2 3e 78 fd 67 be
       0.07749022 0.017693685 0.41055924 -0.22655284
000070 fa 99 18 3e 5b 92 4d 3c d3 c8 cc bd c1 cc a8 3e
       0.14902487 0.012547101 -0.09999242 0.32968715
000080 70 0a bf 3d b7 3f 11 3e c4 e0 78 3d 00 2f 2f 3f
       0.09328163 0.14184462 0.06076123 0.6843109
000090 a2 df 68 bf d4 61 1b 3e 32 eb 08 3f c3 83 b0 3d
       -0.90966237 0.15174037 0.5348388 0.086188816
0000a0 3c 38 12 bf 4d fe 68 3e c9 4e 5b 3d 7d e4 16 3d
       -0.57117057 0.22753258 0.053541932 0.036838997
0000b0 1a ec 72 3e 4e f2 48 3e 8b 01 c6 3c 0d 07 98 3e
       0.23722878 0.19623682 0.024170658 0.2969288
0000c0 90 71 6c bf 4d 15 a3 3e cd ec 08 bf 27 cd 6f 3e
       -0.9236078 0.3185219 -0.5348633 0.23418103
0000d0 ff f9 ec bd 0a c5 24 3d 85 f0 66 3d c7 30 13 3d
       -0.115711205 0.040226974 0.05638172 0.03593519
0000e0 c8 2a 5c 3e c1 5e 82 3e f4 67 cd bd 9e a8 4a bd
       0.21500695 0.25462916 -0.10029593 -0.049477212
0000f0 0b 15 42 3e 1f ff 5a 3f c2 02 9c 3c 6e 75 c9 3e
       0.1895334 0.85545534 0.019044284 0.39347404

fc3.fc.weight f4 [32, 64]
000000 7d 3f 3a bb c8 03 a0 3b f6 ca 7c 36 1a 1d 84 b9
       -0.002841919 0.0048832633 3.7669065e-06 -0.00025198684
000010 64 2f 01 ba bf 4d 2e 3b 3f f1 9a 39 8a b0 d2 3a
       -0.0004928021 0.0026596633 0.0002955291 0.0016074341
000020 9d 1f 83 3a 77 81 36 39 f8 a6 00 b9 e4 46 30 3b
       0.0010003928 0.00017405102 -0.00012269232 0.0026897723
000030 db 51 cc 3a 97 1c 79 b9 07 18 86 ba 51 9c f7 ba
       0.001558836 -0.00023757141 -0.0010230549 -0.001889119
000040 d2 70 80 3b 56 79 91 3b 38 19 a9 ba ba 86 cb 39
       0.003919699 0.004439513 -0.0012901193 0.00038819556
000050 af 0b ff 36 9b 8f 17 bb a6 cd 87 3b 32 e5 33 ba
       7.6009524e-06 -0.0023126367 0.0041443883 -0.0006862461
000060 54 98 96 39 a7 fc 85 b9 7d ed 84 3b 40 f2 94 3b
       0.00028723723 -0.00025555977 0.004056631 0.00454548
000070 6c fc b3 3a 9a 01 3e 3b 3c 1f b1 3a 3d 8e be 3a
       0.0013731844 0.0028992654 0.0013513337 0.001453824
000080 1e f6 37 bb 4e 6c c0 ba 5d 9e cc ba 60 95 96 ba
       -0.0028070281 -0.0014680715 -0.0015611161 -0.0011488609
000090 56 eb 61 ba 3e 4e 71 3b 3d a8 fc 3a b9 c1 04 3b
       -0.00086181366 0.0036820318 0.0019276213 0.002025707
0000a0 ae 38 b9 3a 34 05 75 b9 2b c7 86 bb e7 64 20 bb
       0.0014131272 -0.00023366959 -0.004113098 -0.0024474205
0000b0 a1 e3 93 3b 36 d2 ee 3a 8b db 8c 3a 94 14 29 bb
       0.0045132195 0.0018220607 0.0010746581 -0.002579962
0000c0 ae ff 66 bb a7 bd eb 39 01 a3 d9 ba 37 6b 43 b7
       -0.0035247612 0.00044963995 -0.0016604365 -1.1647869e-05
0000d0 65 4c 43 bb 99 f7 8b 39 62 d6 18 ba a7 fe 33 b9
       -0.0029800173 0.0002669662 -0.00058302854 -0.00017165636
0000e0 ac 73 ab 3a f6 54 03 ba 37 62 b5 39 40 58 09 bb
       0.0013080738 -0.00050099136 0.00034596186 -0.0020957142
0000f0 94 3e ef 39 89 66 7e bb 34 21 1e b8 13 ff be 3b
       0.00045632257 -0.003881844 -3.770106e-05 0.005828747
000100 8f c6 16 ba 3a 5c 59 bb ae 1d 18 b6 65 39 40 39
       -0.00057516334 -0.0033166544 -2.266704e-06 0.00018331928
000110 53 ac 84 ba 48 89 e1 ba a2 25 10 3b f6 3b ab ba
       -0.0010122157 -0.0017207051 0.0021995087 -0.0013064134
000120 3c 53 29 3b 5b 64 71 ba d6 4a 81 ba e9 cd 4e 3b
       0.0025836965 -0.00092083745 -0.0009864222 0.0031555837
000130 a4 35 b9 ba f4 06 b1 3a ca d8 56 ba ae e7 02 bb
       -0.0014130366 0.00135061 -0.0008195756 -0.0019974518
000140 52 be 03 b8 6a 9f 0d ba 62 a2 cc ba 29 ba d1 ba
       -3.1410083e-05 -0.00054024777 -0.0015612359 -0.0016000915
000150 61 23 90 39 a4 6e 41 ba be 0a 04 3b ee f7 16 bb
       0.0002749218 -0.00073788525 0.0020148004 -0.0023035961
000160 0a 21 15 ba 09 82 a3 ba c1 34 42 ba d9 d9 29 bb
       -0.0005688822 -0.0012474667 -0.00074083736 -0.00259172
000170 ed 57 1a bb 70 35 60 ba 0a 1c a9 ba 7e 6d f9 3a
       -0.0023550943 -0.00085528847 -0.0012902033 0.0019029824
000180 e5 8d 30 b9 38 4a 4e bb 25 63 85 bb ed 3a c4 b9
       -0.00016837528 -0.0031477343 -0.004070657 -0.00037427936
000190 22 bc 18 3a b5 42 a1 3b 6d e6 23 bb 71 00 da ba
       0.0005826374 0.004921282 -0.002500917 -0.0016632212
0001a0 ba 9c 52 3a e4 9a 9c 3b b6 aa 8e ba 1f c0 ce ba
       0.00080342183 0.0047792066 -0.0010884616 -0.0015773809
0001b0 8a 9b 16 3a 98 36 7b ba 55 0d 24 3a 3e 22 58 3b
       0.0005745223 -0.0009583025 0.000625809 0.0032979394
0001c0 0e 7e f2 ba 76 a7 8f 3b d2 58 af ba 69 0a eb ba
       -0.0018500702 0.0043839766 -0.0013377911 -0.001793218
0001d0 e2 c2 a7 39 71 4b 6d ba 4e 70 b0 b9 df d3 28 3b
       0.0003199792 -0.0009052074 -0.0003365301 0.002576105
0001e0 f1 b7 0c 3b 8e a7 92 3a 65 5c c7 ba 17 6d 3e ba
       0.0021471942 0.0011188851 -0.0015210031 -0.00072641805
0001f0 d8 19 08 3b 52 75 aa 3b 3b 2a e8 b8 fa 1b bf bb
       0.0020767357 0.005201974 -0.00011070488 -0.0058321925
000200 56 f8 7a bc ee 9c fd bb 5c c5 63 35 1c d1 31 bb
       -0.015317997 -0.0077396547 8.4851285e-07 -0.0027132696
000210 65 b2 44 bc df a1 73 3b fb 16 00 3c f9 48 ce 39
       -0.012005423 0.003717534 0.007817979 0.0003934575
000220 74 82 c3 bb b6 7b a7 ba d9 f3 a6 39 8b 70 f5 3b
       -0.005966479 -0.0012777958 0.00031843668 0.007490223
000230 a2 80 48 bb 13 98 af 3b 83 66 38 3b c2 ed 8b bc
       -0.003059425 0.005358705 0.0028137274 -0.017081145
000240 03 d4 a1 bb be d9 81 bb 66 42 4d bc 70 65 a6 ba
       -0.004938604 -0.0039627245 -0.012528038 -0.0012695026
000250 47 5d a2 3a a1 df ce bb 78 6b 2f bb bb 41 c0 bb
       0.0012387418 -0.0063132797 -0.0026766937 -0.0058672107
000260 6a b2 17 3b d4 f8 5b 3b b1 66 ab 3b 18 98 0e bc
       0.0023147115 0.0033565061 0.0052307476 -0.008703254
000270 8b 29 f4 3a c7 43 1c 3b a0 91 be bb ef ce da bb
       0.0018628103 0.002384411 -0.0058156997 -0.0066775004
000280 b3 b2 81 bc 01 a4 b8 bb fc 48 88 3b 12 78 7b 3a
       -0.01583228 -0.005634785 0.004159091 0.0009592782
000290 fe 01 18 ba d5 83 a4 3b 08 20 8f 3b e3 6f 50 bb
       -0.00057986367 0.0050205984 0.004367832 -0.003180497
0002a0 ed 31 19 b9 9e 8f 3e 37 2c 90 9d 3b 79 1d bf bb
       -0.00014609816 1.1358321e-05 0.0048084464 -0.005832371
0002b0 1c 71 92 3a f4 77 8c bc 75 1d be 3a c6 f5 a7 3b
       0.0011172625 -0.017147042 0.0014504628 0.005125734
0002c0 ac 5a 07 3c f3 e3 33 3c ec 96 c0 3b 64 60 cb bb
       0.008261364 0.01097964 0.0058773663 -0.006206559
0002d0 c5 8b d6 39 12 34 3a bb a2 15 1e ba f7 5d a8 3b
       0.00040921397 -0.0028412384 -0.0006030445 0.0051381546
0002e0 dd 7b 96 bb ca e6 1e bc fb 8a eb b9 8f 7b 89 3b
       -0.0045924024 -0.009698579 -0.0004492624 0.0041956375
0002f0 ac bd 0e ba e9 12 3f 3c fa 26 ca ba 8a a2 3a bc
       -0.00054451334 0.011662223 -0.0015422993 -0.011391291
000300 fa b3 07 be 8f 0d 07 bd 52 97 86 b4 53 4b b8 bc
       -0.1325225 -0.032971915 -2.5069545e-07 -0.022496855
000310 a2 be 8b bd a9 0a f3 3c 8e b6 82 3d 23 1c 4a 3b
       -0.0682347 0.02966817 0.06382476 0.0030839525
000320 4a 05 b5 bc 4b 24 ea bb 9a 7e 36 3b ff 6c 82 3d
       -0.022097249 -0.0071454397 0.0027846457 0.063684456
000330 0a 30 af bc e4 b4 60 3d 11 8e c4 3c c1 7b 07 be
       -0.021385211 0.05486001 0.023993524 -0.13230802
000340 fe 99 81 bc 38 9c 00 bd 0c 3c b2 bd 7c d0 2c bc
       -0.0158205 -0.03139898 -0.08702859 -0.010547753
000350 12 37 74 3c d6 f6 69 bd 59 9c b0 bc eb 0c 3d bd
       0.014905708 -0.057120167 -0.021558927 -0.046154898
000360 81 d2 9a 3c 60 c7 eb 3c 99 fc 3b 3d 1b 24 9a bd
       0.018899204 0.028781593 0.045895193 -0.07526418
000370 ed 63 98 3c 38 21 db 3c d5 f7 f3 bc 79 9a 90 bc
       0.018602336 0.026749238 -0.029781261 -0.017651783
000380 12 85 f1 bd ec 1c 48 bd ae 72 13 3d f1 42 9f 3a
       -0.11792959 -0.048855707 0.03599804 0.0012150687
000390 a1 08 6a bc 38 02 2c 3d 8f c6 bc bc e8 d1 af bc
       -0.014284284 0.041994303 -0.023043899 -0.021462396
0003a0 fe 57 bd 3b ae b8 e5 3b 3d b4 97 3c 9f ba dd bc
       0.0057783118 0.007010541 0.018518561 -0.027066527
0003b0 de ba 6d 3c b7 7f 00 be c9 1e 6d 3c 03 45 5e 3d
       0.014509885 -0.1254872 0.014472672 0.054265033
0003c0 9c ff af 3d fa 29 c4 3d d9 86 70 3d 92 b7 c7 bd
       0.085936755 0.09578319 0.05872235 -0.0975181
0003d0 f5 ee 2d 3b 20 79 f6 bc c6 00 4c bc 58 32 3b 3d
       0.0026540135 -0.030087054 -0.012451356 0.04570231
0003e0 5d 10 3b bc 83 8a 85 bd 7b 2a 8e ba fe e0 d4 3c
       -0.0114174755 -0.0652056 -0.00108464 0.02598619
0003f0 28 34 e0 3b 8f 8e de 3d 19 ae 2f bc 4a dd b1 bd
       0.006842155 0.10867035 -0.01072266 -0.08684786

fc3.fc.bias f4 [32]
000000 1b a3 6e bc 57 5b 26 37 b1 35 c5 3d bd 55 21 3f
       -0.014565255 9.915638e-06 0.096293814 0.6302145
000010 25 7d 8e 3d 56 58 d2 3e 5c de 5f 3e 4d 42 93 3a
       0.06957463 0.4108302 0.21862167 0.0011234969
000020 21 67 22 3f 93 d8 15 3e ca 85 39 3f b7 7b 20 3d
       0.6343861 0.14633398 0.7246977 0.039180484
000030 c1 65 32 3d cf 11 cd 3c 7d fd be 3d c6 11 0f 3c
       0.04355407 0.025032906 0.09325693 0.008732265
000040 31 80 19 3e 54 d8 c5 3d 6e 41 46 3f 8b a0 a4 3d
       0.14990307 0.09660402 0.7744359 0.08038434
000050 69 6f 96 3d c0 a0 87 3e ef 53 b5 3d 1e f6 5e bd
       0.073454686 0.2648983 0.088539 -0.054433934
000060 4e 4a 24 bd cf 44 cc 3b a5 73 09 3e 51 4e 64 3f
       -0.040109925 0.0062337886 0.13423021 0.89182
000070 1a c8 89 3e d1 e6 c3 3d 8b 47 1b 3f df e2 1a 3f
       0.26910478 0.09565509 0.6065604 0.6050243

fc4.fc.weight f4 [1, 32]
000000 ab 3b 97 3c 87 0f 8b bc 12 a2 5e bd 27 77 de be
       0.01846107 -0.016975177 -0.05435378 -0.4345028
000010 cb c7 a0 be 88 71 d3 be e9 ea ad be 10 c2 9c bc
       -0.3140243 -0.41297555 -0.33968285 -0.019135505
000020 29 e9 07 bf eb 12 d4 3e 77 77 3b bf e0 d4 4f 3e
       -0.5309015 0.41420683 -0.73229164 0.20296049
000030 2a 2e 12 3d 1a 62 d5 be 3f 44 bb 3d 77 3c e5 3d
       0.035688557 -0.41676408 0.09143876 0.111931734
000040 03 a8 54 3e bc 57 4b bf 5c d5 2d bf be 9e fa 3e
       0.20767216 -0.7943075 -0.67903686 0.48949236
000050 03 c1 f9 3e 6a 2a 23 3f 19 4c 16 be 1d 07 33 bd
       0.4878007 0.63736594 -0.14677466 -0.043707956
000060 ed 20 0d bd bc 39 2e bc 81 cb 60 be 43 15 80 3f
       -0.03445523 -0.010633882 -0.2195263 1.0006489
000070 79 ee 31 bf 5f 25 27 be 9e f6 ef be 3d 08 3e 3f
       -0.69504505 -0.1632285 -0.4686784 0.7423132

fc5.fc.weight f4 [128, 64]
000000 a4 c7 5b bc 69 50 d3 bd db 13 8a 35 85 e1 c1 bd
       -0.013414297 -0.103180714 1.028758e-06 -0.094668426
000010 50 3a 0a bd 33 f3 ea 3d 3a 27 9f bd 32 4e 5d 3d
       -0.033747017 0.11472168 -0.07771154 0.05402965
000020 73 c8 a0 3d 4f ec cd bd 1b cf 57 3d b8 41 d7 bc
       0.07850733 -0.10054838 0.052687746 -0.026276454
000030 ef 3a 56 3c 4d d0 c5 3c 80 3d 34 3c 13 fd 0f ba
       0.013075574 0.024147177 0.011000991 -0.0005492728
000040 5b ac 6b 3d 4c e0 91 3d dc 42 41 bc c5 32 8b 3c
       0.057537418 0.07122859 -0.011795726 0.016991982
000050 71 b5 f8 3a 0f a9 7a bd 73 06 c0 ba 90 1b 46 bc
       0.0018974972 -0.061196383 -0.001465036 -0.012091532
000060 97 b4 42 3d a5 11 16 bd f8 3e 47 bd 32 14 4c 3d
       0.047535505 -0.03663792 -0.048644036 0.049823947
000070 49 30 9b 3d 81 c0 b3 ba f3 1c 7b 3d 60 ac 71 3c
       0.07577569 -0.0013713987 0.061306905 0.01475057
000080 5e 5e 01 bd d5 69 c3 3d b1 8a 91 bd 84 aa 0d 3d
       -0.031584136 0.0954167 -0.071065314 0.034586444
000090 a7 26 0b bd 84 92 91 3c 5b e4 3a 3d 41 30 6c 3d
       -0.03397241 0.01777006 0.045627933 0.057663206
0000a0 e2 e3 2f bb b4 ea 4b bd b8 f9 3d bb 25 39 05 be
       -0.002683871 -0.049784377 -0.0028987955 -0.1301008
0000b0 3c 72 98 bc f9 99 47 3d 24 25 c8 bd b9 cc cc 3d
       -0.018609159 0.048730824 -0.09772709 0.09999985
0000c0 0d bf c5 3c dd 26 33 3d df 85 07 bd 08 a9 39 3c
       0.024138952 0.043738235 -0.033086654 0.011331804
0000d0 fb 97 16 3d a0 17 d8 bd 3b 56 fd bd 77 f0 97 bd
       0.036766034 -0.10551381 -0.12369963 -0.07418912
0000e0 34 ae 16 bd 4e 3b 82 3c 85 27 6d bb bd d5 ec bd
       -0.036787227 0.01589742 -0.0036186886 -0.11564205
0000f0 b7 1e 80 bd dc 28 08 3d 81 33 88 bc 38 ae ad bc
       -0.062558584 0.03324209 -0.016626121 -0.021201238
000100 fa 10 24 bd 3e 1e f8 3c 1c 5e 3a b6 f7 66 c0 3c
       -0.040055253 0.030287858 -2.7770939e-06 0.023486597
000110 4f 61 86 3c af 0b 76 3c 86 25 66 3d 9c 41 30 bd
       0.016403822 0.015017434 0.05618813 -0.04303132
000120 27 f4 86 bc 88 aa 69 3c 6a dc 02 3c b0 7a fd bb
       -0.016473843 0.014261849 0.007987121 -0.0077355728
000130 32 82 a8 bc f7 aa 49 3d c1 a1 c2 3c 44 b9 96 ba
       -0.020569894 0.04923531 0.02375877 -0.0011499305
000140 8e 0e 50 3b f6 89 15 3c 16 e5 5a 3c b6 c9 f0 3c
       0.0031746957 0.009127131 0.013360282 0.029393058
000150 d1 c0 44 3d f0 9a b9 3c 46 62 5c bd 3e 82 e3 bb
       0.048035447 0.022656888 -0.05380466 -0.0069430163
000160 0b fe b2 bb 9d a4 35 3d 15 59 9b 3c c3 47 51 bb
       -0.005462413 0.04434644 0.018963376 -0.0031933642
000170 50 9e cb bb 66 d2 c8 bc 14 82 0e bd 54 47 1f bd
       -0.0062139407 -0.024514388 -0.03479202 -0.038886383
000180 a4 b2 35 bd f4 85 a5 ba 10 89 38 3d a1 cd 9b 3c
       -0.044359818 -0.0012628422 0.045052588 0.01901895
000190 8f 2f b7 3c b1 2c 7b bd a2 46 84 bd c7 55 1b bc
       0.022361545 -0.061321918 -0.06458785 -0.0094809
0001a0 84 63 4f 3c e5 4c de 3a 71 91 3f 3d d9 c5 03 3d
       0.012658004 0.0016960172 0.046769563 0.032171104
0001b0 5a 9e 21 3c 6f 5d 93 bd fb 68 5d 3b e9 79 f7 3a
       0.009864414 -0.071955554 0.0033784497 0.0018880937
0001c0 d2 55 31 bd 9e 96 92 bc b2 9c 00 3b 81 fa aa bc
       -0.043294735 -0.017894085 0.0019624648 -0.020871403
0001d0 f9 4a 8a 3c bf 76 08 3d dc d4 7a bc 08 40 b2 3b
       0.016881453 0.03331637 -0.015309539 0.005439762
0001e0 ba 42 57 bc 38 05 21 bc 63 23 0e 3d a3 f5 43 bc
       -0.013138467 -0.009827904 0.034701716 -0.01196042
0001f0 2c ea c2 bc a6 4e 28 bd 0f 55 69 3d 03 c3 8a bb
       -0.023793302 -0.04109063 0.056965884 -0.004234673
000200 55 e7 50 b6 0d af 05 b6 ea 3c 97 b5 e7 79 ef b4
       -3.1129068e-06 -1.9920437e-06 -1.1268105e-06 -4.4605915e-07
000210 c4 c8 b9 b5 d3 2c 09 b6 32 bf b2 35 df 5c 8c b6
       -1.3842005e-06 -2.0440682e-06 1.3317679e-06 -4.1831368e-06
000220 d4 05 84 b6 43 db 6f b6 69 9f 5f b5 75 b8 91 b5
       -3.934585e-06 -3.5741402e-06 -8.3305946e-07 -1.0857026e-06
000230 d6 56 ef 34 85 0f 74 b5 80 9b 51 b6 7c fa 0c 34
       4.45804e-07 -9.091967e-07 -3.123394e-06 1.3129642e-07
000240 11 4b 6a b6 d6 80 df 32 bb d4 1d 36 49 69 1c b5
       -3.4912412e-06 2.6019205e-08 2.3518649e-06 -5.826774e-07
000250 50 85 40 36 af b8 0a 35 57 72 04 32 d6 4a 8b b6
       2.8687828e-06 5.1677756e-07 7.709409e-09 -4.151235e-06
000260 77 80 65 36 7f 3c 33 b5 17 67 86 b5 d7 ca 3e b6
       3.4198436e-06 -6.677073e-07 -1.0013781e-06 -2.8430275e-06
000270 a9 5a 4b b6 45 89 6c 33 b7 6d 77 b6 d0 46 5a 36
       -3.0302128e-06 5.5072878e-08 -3.686973e-06 3.252575e-06
000280 c0 d1 4e 36 40 f4 af b5 22 35 f0 b3 be 6b 69 36
       3.0818483e-06 -1.3109602e-06 -1.1185536e-07 3.478242e-06
000290 fa 9a ce 35 07 87 a1 b5 5e 6e 44 36 c1 fc 67 36
       1.53933e-06 -1.2034733e-06 2.9270518e-06 3.4568804e-06
0002a0 b8 66 3c 36 a6 6e 6c b4 bf 68 2f 36 33 2d d2 b5
       2.8073973e-06 -2.2019466e-07 2.6138002e-06 -1.5659374e-06
0002b0 02 7e ce b5 7b 7a 54 b6 36 82 60 b6 c2 73 d6 b5
       -1.5384869e-06 -3.1661755e-06 -3.3454394e-06 -1.5977932e-06
0002c0 21 4e a3 35 87 b5 64 b6 9c 31 59 35 cb 2a 5b 36
       1.2167185e-06 -3.408031e-06 8.091099e-07 3.2658452e-06
0002d0 54 eb bc 33 5d b2 5a b6 6c 3b 00 36 2c 41 36 36
       8.797238e-08 -3.2588352e-06 1.9108074e-06 2.7158048e-06
0002e0 d9 94 6d 36 41 f8 30 34 c9 a0 d4 b5 2f 6d 0d b6
       3.5402393e-06 1.6481592e-07 -1.5842026e-06 -2.107419e-06
0002f0 22 74 02 b5 38 8e f3 b5 35 58 41 36 99 df 82 36
       -4.859777e-07 -1.8146302e-06 2.8810584e-06 3.900332e-06
000300 fd 36 39 b6 5a f4 0d b6 7f dd 54 b5 fc 00 4d b6
       -2.7599156e-06 -2.1152869e-06 -7.9298474e-07 -3.0547953e-06
000310 fd bc 55 36 1b 9a e3 35 fd f5 4d b6 c6 98 1c b7
       3.184948e-06 1.6957669e-06 -3.0690564e-06 -9.333895e-06
000320 ba 1f 91 b6 dc 63 24 36 38 3b a8 b5 eb c8 41 36
       -4.32503e-06 2.449603e-06 -1.253421e-06 2.887619e-06
000330 45 d0 d1 35 00 c4 39 b6 67 6b 0d 36 8a 74 50 34
       1.5632328e-06 -2.7681235e-06 2.1073154e-06 1.9413906e-07
000340 b3 ae 9f b6 54 6f 8c b6 bf ee cc b4 35 fe 0d b6
       -4.758907e-06 -4.1852854e-06 -3.8171672e-07 -2.1158605e-06
000350 ae e4 36 b6 b6 b1 55 b6 4d 19 2c 37 a0 91 77 b6
       -2.7253222e-06 -3.1842915e-06 1.025789e-05 -3.6890633e-06
000360 2b b2 57 36 63 13 e8 b6 62 a4 49 b5 8d 6b 54 32
       3.2141204e-06 -6.9163957e-06 -7.5117543e-07 1.2364478e-08
000370 cb e0 b3 35 85 83 a8 b6 1d 3a 38 35 ef 6d 23 b4
       1.3401963e-06 -5.022101e-06 6.862991e-07 -1.5220552e-07
000380 b3 e2 ba b4 ee 46 52 36 eb 98 a6 b4 19 4b c4 36
       -3.4810145e-07 3.1333725e-06 -3.1031172e-07 5.8499977e-06
000390 f0 f6 a4 b6 50 48 ee 35 5c 2c dd b5 04 31 e0 34
       -4.916328e-06 1.7753428e-06 -1.6478693e-06 4.1758915e-07
0003a0 80 d4 0a 36 68 9d 85 36 0e 4e 83 b6 81 0f 17 b6
       2.0687294e-06 3.9820334e-06 -3.913191e-06 -2.2509778e-06
0003b0 00 99 fb b5 f5 a3 65 36 a3 a9 26 b7 22 04 74 b4
       -1.8745486e-06 3.4219095e-06 -9.933868e-06 -2.2725774e-07
0003c0 01 a0 41 36 03 66 3e 36 34 89 4d 36 d0 30 8d b6
       2.8852376e-06 2.8371585e-06 3.0627243e-06 -4.20781e-06
0003d0 74 bb 13 b4 69 34 9c 36 66 d9 8e 36 55 20 06 34
       -1.3758637e-07 4.6552636e-06 4.2572383e-06 1.2491485e-07
0003e0 db 58 39 37 2a 16 8d 36 99 2e 08 b6 62 3c f4 b6
       1.1047548e-05 4.2047077e-06 -2.0292703e-06 -7.278796e-06
0003f0 dd af 77 37 2f 89 17 37 ec ab 6d b6 ce 6b 68 b6
       1.4763294e-05 9.032242e-06 -3.5415824e-06 -3.4633445e-06

fc5.fc.bias f4 [128]
000000 d0 2e b0 3e c5 30 7c bd 6e ba bb bd af 1c 0e be
       0.34410715 -0.061569948 -0.09166418 -0.1387813
000010 d3 d3 48 bf a9 ee 8f bd 42 ba bc 3e 16 2e 74 be
       -0.7844822 -0.07027943 0.36860853 -0.23845705
000020 4d 73 af be fd 25 2f bd 0f e8 07 3e 73 b2 5b 3e
       -0.34267655 -0.042760838 0.13272117 0.21454792
000030 77 00 1b bd 69 90 ab 3e f1 89 c1 3e 41 62 12 be
       -0.03784224 0.33508614 0.37800553 -0.14295293
000040 a1 0f 17 3b a2 23 62 bd f0 cd ed be a4 26 64 3a
       0.0023050087 -0.055209763 -0.4644618 0.00087032677
000050 ea 63 81 3b 3e c2 02 be 5e 9f 87 3b e1 24 24 be
       0.0039486783 -0.1276941 0.004138871 -0.16029693
000060 06 bf 6d 3d c4 41 c1 3e 42 b9 d1 bd 37 b8 48 3e
       0.058043502 0.37745488 -0.10240413 0.19601522
000070 e2 bb 92 3e ca 44 0d 3e 71 13 5b be d4 31 14 be
       0.28658968 0.13795772 -0.21394135 -0.14472133
000080 2a c6 18 3d 42 d6 1a 3e ff db ba 3e 00 f6 ed bd
       0.03729836 0.15120795 0.3649597 -0.116191864
000090 d6 21 da be 47 c7 16 3e 90 35 e4 3b 46 bc a6 be
       -0.4260394 0.14724456 0.006964393 -0.32565516
0000a0 dd 1b ed 3d 6f 35 16 3c 79 ef c8 3c 07 a4 12 bd
       0.1157758 0.009168013 0.024528252 -0.03580096
0000b0 d0 56 7d 3d 05 07 8f bd a5 0e f0 bc 42 41 30 be
       0.06185037 -0.06983761 -0.029303858 -0.17212394
0000c0 7c 5f aa 3e 54 bd cd bd 20 f3 f5 3d 25 8e 29 3d
       0.33275974 -0.10045877 0.12009263 0.041395325
0000d0 47 50 6c bd 7e eb 8c 3e ef 43 1e 3e 19 d0 3a be
       -0.057693746 0.27523416 0.15455602 -0.18243445
0000e0 69 2c d7 bc f4 97 d2 bc 51 f5 cf be d1 a5 b2 bc
       -0.026266294 -0.025707223 -0.4061685 -0.021807583
0000f0 4c 63 b0 3e 73 06 9b b8 a5 78 6c 3e ad be d6 3b
       0.34450758 -7.392177e-05 0.23092897 0.006553492
000100 53 b3 66 bb b6 ca 80 be 5d b0 92 bd 1f fe a4 bb
       -0.00352021 -0.25154656 -0.07162545 -0.0050351764
000110 fe e3 d4 be aa 25 89 3e a7 51 a4 bc a9 9c 97 bd
       -0.41580194 0.26786548 -0.020058466 -0.074029274
000120 e7 b4 f6 bb 67 3b 54 be c4 aa 99 3d 86 01 18 3e
       -0.0075288895 -0.20725785 0.07503274 0.14844331
000130 b8 6e 4f bd 66 01 ab 3c 1d b6 76 3e 1a 8d 29 3e
       -0.0506427 0.02087469 0.24092908 0.16557732
000140 ea 5b 60 3d a0 04 57 be 75 b3 00 3f 93 a1 81 3c
       0.054775156 -0.20997858 0.5027383 0.015824115
000150 1f 2f 77 be 6f b6 9b be c7 c1 fa bc ec 73 84 3e
       -0.24139069 -0.30412623 -0.030609978 0.2586969
000160 26 04 96 bd 41 bc da bc 42 73 1d be 8f 63 87 bd
       -0.0732501 -0.026701095 -0.15375999 -0.06610786
000170 cd 29 86 bd 3a d7 b2 bd 46 6a 9c bc 4a cc 0d bf
       -0.065509416 -0.087324575 -0.019093644 -0.55389845
000180 58 e7 5d 3e af a1 05 3f ca 79 aa 3e 0c 34 07 3c
       0.21670282 0.52199835 0.33296043 0.008252155
000190 4d c2 0f be 39 a6 a7 3c dd 85 ed bd d8 fe aa bd
       -0.14038964 0.020465003 -0.11597798 -0.08349389
0001a0 5e e5 3f bd 73 cd 71 be 47 54 82 3e 9a a4 b1 bd
       -0.0468496 -0.23613529 0.25454924 -0.086739734
0001b0 90 33 7a be b3 22 be 3c af 0b 2c bc f6 fb ba bd
       -0.24433732 0.023209905 -0.010500832 -0.09130089
0001c0 bb dc 5e 3e b6 53 2a 3e f2 16 5b be 0d f1 06 be
       0.2176389 0.16633496 -0.21395472 -0.13177891
0001d0 b5 9a 36 bd d1 b6 db 3b c5 b5 88 bd c3 72 0c 3d
       -0.044581134 0.006705143 -0.06675295 0.034289133
0001e0 89 31 08 3e c9 22 c2 bd 6c d8 cc 3c c9 c7 87 bd
       0.13300146 -0.09479291 0.025005542 -0.06629903
0001f0 5d 9c dc 3d f2 82 f0 3e fe cb 8c 3e 36 30 ce bd
       0.107720114 0.46974903 0.27499384 -0.10067789

fc6.fc.weight f4 [1, 128]
000000 0a 75 15 be 48 18 f1 3d 4a bc 88 35 78 23 0b 37
       -0.14595428 0.117722094 1.0187589e-06 8.293304e-06
000010 75 71 bc 3e cf 29 fa bc 11 28 ac bd 9a 7f 04 3e
       0.3680531 -0.030537514 -0.084060796 0.12939301
000020 b8 5f 31 3e 95 fe 13 3e d2 87 c9 bd 19 77 e0 bd
       0.1732167 0.14452584 -0.09840359 -0.10960216
000030 06 c9 1a 3e c8 dc 92 3e cb 3b e6 bd 07 e8 04 36
       0.15115747 0.28684068 -0.11241873 1.980459e-06
000040 64 04 a9 3d 04 18 5e be 62 44 0a 3f 10 bc 1e 3e
       0.082527906 -0.21688849 0.54010594 0.15501428
000050 75 a2 f7 bd 8c 7b b0 b5 b8 d3 23 be 26 08 46 be
       -0.12091533 -1.3148979e-06 -0.15998733 -0.19339046
000060 0e 66 8d be 0e 9f d7 bd 2e e4 1b bd 9f 02 38 be
       -0.27616924 -0.10528384 -0.038059406 -0.1796975
000070 f4 ae e0 bd 3d da 33 be 1e ae a8 bd 9e bf 80 3e
       -0.1097087 -0.1756372 -0.08236335 0.25146192
000080 91 f0 eb bd df 34 e4 bd 6e 75 10 be ca 86 34 3e
       -0.11520494 -0.11142897 -0.14107296 0.17629543
000090 6a dd 82 3e 70 a3 93 be fc b5 9a 3c 64 dd 96 3e
       0.2555955 -0.2883563 0.018885605 0.29465783
0000a0 9a 95 d4 bd dd c7 5c be ca e0 d2 bd 79 4b 75 3e
       -0.10380097 -0.21560617 -0.10296781 0.23954572
0000b0 6c 06 f4 bd f7 97 21 b7 09 82 00 36 20 23 48 3e
       -0.119152874 -9.63173e-06 1.9149177e-06 0.19544649
0000c0 54 34 27 3e 3c 97 75 3e 35 a4 43 be 38 73 7d 3d
       0.16328555 0.23983473 -0.19105609 0.06187746
0000d0 96 58 04 3e 38 6c 2e 3e 9e fb e9 bd 25 4f 7c b6
       0.12924418 0.1703347 -0.11424945 -3.7596994e-06
0000e0 1a 80 0a be c9 33 b7 be 53 5b 4b 3e 38 0f 66 be
       -0.1352543 -0.35781696 0.19859056 -0.22466743
0000f0 bb d6 eb be db 6b ac bd 2b 4a 2c be c3 47 50 be
       -0.46062264 -0.08419009 -0.16825168 -0.20339875
000100 6f cb 7b be 11 74 98 3e 38 ea 1f b6 1e da 79 be
       -0.24589323 0.29776052 -2.382918e-06 -0.24399611
000110 1a 41 96 3e 08 fe 49 3e 4a 4e 0e be 16 42 01 be
       0.29346544 0.19725811 -0.13897052 -0.12622866
000120 0d 53 b7 bd 76 c5 9e 3e 5c d7 ba bd c3 65 a5 be
       -0.089513876 0.31010026 -0.09123108 -0.323042
000130 e6 3c d6 be a4 40 e6 bd 1e dc 77 be ff 15 43 be
       -0.41843337 -0.11242798 -0.24205062 -0.1905136
000140 ad 6e 82 be e1 f4 a8 bd d6 6c 71 be dc 18 1e 3e
       -0.25475064 -0.08249832 -0.23576674 0.1543917
000150 b2 2f 6c 3e 98 90 49 3e c4 29 10 be b3 38 07 be
       0.2306507 0.19684064 -0.14078432 -0.13205223
000160 22 86 35 3e 47 ec 0e 3e 08 84 55 3e c4 dc 5d 3e
       0.17726949 0.1395732 0.20851147 0.21666247
000170 12 19 ec be f7 a5 3a be 67 b4 61 3d f0 aa 50 3e
       -0.46112877 -0.18227373 0.055103686 0.20377707
000180 bf b5 11 be fa 90 01 be 10 86 1f be ca fb 3c be
       -0.14229487 -0.1265296 -0.15578485 -0.18455425
000190 a3 23 36 3e 7a 87 9b 3d 9c 2f 4a 3e 99 e5 e1 bd
       0.17787032 0.075941995 0.19744724 -0.110301204
0001a0 bb 69 98 bd 1d 14 9a 3e f5 f0 e6 3d 29 6f 59 be
       -0.074420415 0.3009347 0.11276428 -0.2123381
0001b0 96 66 2d 3e 4b 89 8f be 5e e9 fb 3d b7 f4 8d 3d
       0.16933665 -0.28034434 0.12300371 0.06931441
0001c0 9c 17 76 be bf d0 bb bd 48 52 92 3e 17 6a 0d 36
       -0.24032444 -0.091706745 0.285784 2.107239e-06
0001d0 18 de 16 3e b0 ff 81 3d ea ed 58 be 07 d6 18 3e
       0.1473316 0.06347597 -0.21184507 0.14925395
0001e0 32 db ed bd d2 3f cd b4 d0 d9 cb 3d 10 92 0c 3e
       -0.11614074 -3.823066e-07 0.09953654 0.13727593
0001f0 0b 6f f0 bd f3 3b 50 be d2 60 04 be 3b 7e b0 b5
       -0.1173993 -0.20335369 -0.12927559 -1.314976e-06
