weights/face_attr00/best.pt (torch, 969118 bytes, 98 tensors)

conv1.conv.weight f4 [16, 3, 5, 5]
00000000: 5b34 92bd af05 02be 8276 ae3d 430a a83c
00000010: b722 4d3c 5e5c a0be ae4b d9bc 7e7c fb3e
00000020: 0eed b03e f3cf 473b 8a64 df3d 6eff 13be
00000030: 7b29 e4be 08bb 14be 24d7 213e 5fad 35be
00000040: 2039 16bf 47c0 f1be 3e4e 253e 4797 943e
00000050: 807e a83c cc9c a33e 2600 e03e 8ea4 613e
00000060: 4b8e d13d 117e 893e 0b48 0e3e aa84 9b3d
00000070: c429 ecbd 2210 d6bd 3cc7 d93d b964 843e
00000080: 73c5 f13e 8aa1 1f3e 48f1 26be 01d9 c63e
00000090: 8399 a9bb b0e0 04bf f2ed cbbe 8108 36be
000000a0: 96c6 2dbc 017e febe 392b 1cbf 7e45 25be
000000b0: c4fd 3dbd ac14 cb3d 7b99 9a3e aef1 963e
000000c0: 90b5 dbbb 4ec3 25be 6a7b 9cbd 81a3 a0bd
000000d0: e27b 92bc c32b 54be bf2d 00be c43c 02be
000000e0: 4f88 873e a0fc 233f 4f98 973e c434 1abd
000000f0: 91a0 723e 9a37 833d d14b a3be 6eb2 5bbe
00000100: fced 7f3c 7e73 0ebe 8271 f0be 2354 dfbe
00000110: c0e1 4bbb 2f9d aa3d b0c5 39bd d500 b43e
00000120: e74a 033f 2d0b f23d e775 8cbd 4af8 9e3d
00000130: 6a84 0a3e 52e3 90bd 2387 39be 6523 003e
00000140: eb55 893e 4805 763e 619c e3bd e7e6 ffbe
00000150: b17d 53be 8c89 323f 479c 0a3f 0b5d 423d
00000160: 8f00 31bf 2a8b e1be b4b6 063f cb9b 0a3f
00000170: 5f6c 3b3e a277 ffbe 12ad a5be 4e06 29bd
00000180: cc61 023e 3fd6 89bc 52c1 99be 2bab 9dbd
00000190: f2c2 163e aa83 3e3e 1210 69bd 32d1 4abe
000001a0: 1e08 bdbc 570c b83e b24c ab3e f139 1ebd
000001b0: 755b e4be 8547 8cbe 14d2 313f 08bd 0b3f
000001c0: dee3 3b3d 3aed 36bf 6215 13bf 598d 143f
000001d0: f4a0 133f f5df 493e 6f5d 05bf 8e11 eabe
000001e0: 8859 313d 9a79 3b3e 0e09 a93c 8bbc 91be
000001f0: bf09 1cbe a034 d53d 173d 083e 796d 9dbd
00000200: 8fc5 3dbe fa8d 72bc b380 853e dea4 763e
00000210: 27ba 7fbd ee16 d0be 86c9 6dbe 33c9 0e3f
00000220: 6391 dd3e 6543 233c ff9f 2bbf d930 03bf
00000230: 5e5d f13e de50 f93e 0459 313e 71dd f6be
00000240: f473 d1be 5793 403d 5984 2d3e e122 473d
00000250: b431 68be 7c14 dfbd 25b1 2dbf e0e3 15bf
00000260: c23a fcbe 5ee8 21bf 198e 02bf 79e8 f7be
00000270: 933f d2be 8846 0dbe 1773 24be 092e a6bd
00000280: 17e0 82be 5842 f6bd cb21 e73c 548b 113d
00000290: 7fdc 2b3e 85c5 16bc 3a44 5c3e 2880 ea3e
000002a0: 760f fb3e 2173 e33e 73c3 3a3e 726b b13e
000002b0: 2a38 0a3f 2e27 3f3f f1e4 363f 1c88 003d
000002c0: d94d 323e 6a58 8c3e 1ca8 a73d 60ec e93d
000002d0: 876b a1bd 800d e4bc 4d75 403e 3ded b23d
000002e0: d0d9 dd3d 1ea7 24bd 074f 62bd 0216 86bd
000002f0: f5b1 0ebe 7886 1ebc 65af 1bbb f9a4 5dbc
00000300: e531 de3a 6643 04bd 57cc 1dbc 6eca 57bd
00000310: 33ee 17be 5466 3ebe ffd3 05bd 3404 083d
00000320: 52f7 283f 154e 253f 48bd 1b3f 32da 963e
00000330: 182c 873e 2eb4 a83e f4fa 763e d99b a13e
00000340: b964 cd3d 0891 683d ed6f 853e fd78 dd3d
00000350: 7050 9fbd 9f3e 8cbe 8ee8 59be d40c 233e
00000360: c432 c4bc 3529 58be 59d5 c4be 8f69 dabe
00000370: 7ded 82bc e863 a3be 7937 18bf 2968 18bf
00000380: d90f 18bf 9817 e9bd efe3 313e 7073 84bd
00000390: eaa2 a3bc 18ab 6abc 6bd1 76bd 6639 bb3d
000003a0: da4e 9ebe 2a4f cbba 4dda f23d 4954 52be
000003b0: 5b8a 07be bf45 1ebf 27ae cf3e 9423 223f
000003c0: b31e 42be af43 cbbd 471e f4be 8fbc 1c3f
000003d0: 68f7 603f 0fb7 f9bd 988f c73d 1763 d7be
000003e0: 7ab2 04bb 8bde 523e 431c 1b3d caa9 413d
000003f0: 28cc 573c edc0 a9bb 8bb3 963b 7c6e cb3d
-0.07138892 -0.1269748 0.08518697 0.020512706 0.012520484 -0.3132047 -0.026525345 0.49118418
0.34555858 0.0030488938 0.10907848 -0.14452907 -0.44562897 -0.14524472 0.15804726 -0.17741917
-0.58680916 -0.47217008 0.16143128 0.29021665 0.020568132 0.31955564 0.43750113 0.22035429
0.10232218 0.26853994 0.1389467 0.07593663 -0.11531404 -0.10452296 0.10633704 0.25858095
0.47220954 0.15588966 -0.16302979 0.38837436 -0.0051757707 -0.51905346 -0.39829975 -0.17776681
-0.010606429 -0.49705508 -0.6100345 -0.1613979 -0.046384588 0.09916052 0.3019522 0.29481262
-0.0067049935 -0.16187784 -0.07640727 -0.07843686 -0.017881338 -0.20719819 -0.12517451 -0.12718493
0.26471183 0.6405735 0.2960839 -0.037647977 0.23694064 0.064070895 -0.3189378 -0.21454784
0.015620705 -0.13911244 -0.469616 -0.4361888 -0.00311099 0.08330762 -0.045354545 0.35156885
0.51286167 0.11818538 -0.068584256 0.07762201 0.13527074 -0.07074608 -0.18117957 0.12513502
0.26823363 0.24025452 -0.11113811 -0.49980852 -0.20653416 0.6974113 0.5414471 0.047452014
-0.6914148 -0.44051486 0.5262253 0.5414397 0.18303059 -0.4989596 -0.32358605 -0.04126578
0.12732619 -0.016825793 -0.30030304 -0.07698663 0.14722803 0.18604913 -0.05690009 -0.19806364
-0.02307516 0.35946915 0.3345695 -0.038629476 -0.44601026 -0.27398315 0.6946118 0.54585314
0.045871608 -0.7145573 -0.574545 0.5802818 0.5766747 0.19714339 -0.52095693 -0.45716518
0.043298274 0.18308106 0.0206342 -0.2846416 -0.15238093 0.10410428 0.13304554 -0.07686896
-0.18532394 -0.014804358 0.26074752 0.2408633 -0.062433388 -0.40642494 -0.23221406 0.55775756
0.43274984 0.009964799 -0.6704101 -0.5124641 0.47141546 0.4869451 0.17319113 -0.4821582
-0.40908778 0.047015514 0.16945018 0.048617247 -0.2267521 -0.10892579 -0.67848426 -0.58550835
-0.4926358 -0.6324519 -0.50998074 -0.4841955 -0.41064128 -0.13796437 -0.16059528 -0.08114249
-0.25561592 -0.12024373 0.028214356 0.035533264 0.16783331 -0.009202366 0.21510401 0.458009
0.49035233 0.44423774 0.1823862 0.34652287 0.5399195 0.7466916 0.71443087 0.031379804
0.17412509 0.27411205 0.08186361 0.11422038 -0.07881837 -0.027838469 0.18794747 0.08736656
0.1083256 -0.040198438 -0.055251148 -0.065471664 -0.13935073 -0.009675615 -0.0023755666 -0.013528102
0.0016952126 -0.03229084 -0.009631238 -0.052683286 -0.1483696 -0.18593723 -0.03267288 0.033207133
0.6600238 0.6457227 0.60835695 0.29463345 0.26400828 0.32949966 0.24119169 0.31564215
0.10028977 0.056778938 0.26061955 0.10814092 -0.07779014 -0.27391526 -0.21280119 0.15922862
-0.023949988 -0.21109469 -0.3844402 -0.4265866 -0.015982384 -0.3191216 -0.59459645 -0.59533936
-0.5939918 -0.11381453 0.17372106 -0.064673305 -0.019975144 -0.0143230185 -0.06025831 0.09141807
-0.30919534 -0.0015511264 0.11858044 -0.20539965 -0.13236372 -0.61825174 0.40562555 0.6333554
-0.18957023 -0.09925019 -0.4767935 0.6122522 0.8787751 -0.12193119 0.09744185 -0.42067787
-0.0020247982 0.20592706 0.03786875 0.047281064 0.013171233 -0.0051804692 0.00459904 0.099331826

conv1.bn.weight f4 [16]
00000000: afac c63f 5ed2 ca3f a028 143f 4c6d a43f
00000010: 849e 913f fac3 a740 bb64 e33f 9eef 583f
00000020: c32d 8c3f 9bd4 cf3f ba25 0c3f 6bca 0940
00000030: 2b7b 383f d4f0 9b3f 2bee f83f 8e4b 4740
1.5521449 1.5845449 0.5787449 1.2845855 1.13765 5.242673 1.7765115 0.84740627
1.0951465 1.6236757 0.54745066 2.1529796 0.7206294 1.218287 1.9447683 3.1139865

conv1.bn.bias f4 [16]
00000000: d9f0 733f 232d ba3e b663 c93e db61 3c3f
00000010: 65c7 c43f c6f5 13c1 0c50 9c3f ac52 4d3e
00000020: 7b05 623e b337 9d3e ab8c bc3f 292e 99bf
00000030: c963 b43f b0d2 6cbe 5d82 b6bf dd5b 55c0
0.9528938 0.36362562 0.39333886 0.73586816 1.537335 -9.247503 1.2211928 0.20051068
0.22072403 0.30706558 1.4730428 -1.1967212 1.4092952 -0.23127246 -1.4258534 -3.333732

conv1.bn.running_mean f4 [16]
00000000: 6790 11bc 80b2 5abd 1c7e ce3d 20b7 a73d
00000010: abd8 4a3b 0a59 423f 32fc aabc 59df a0be
00000020: 6e6a 583d b775 d1bd 6112 7d3d 10ef 98bd
00000030: f70e d23d e86f b7be 4c0e a8bd 3dc1 4bbf
-0.008884526 -0.053392887 0.10082647 0.08189225 0.0030951898 0.7591711 -0.02087221 -0.314204
0.052835874 -0.102275304 0.061785106 -0.074674726 0.102567606 -0.35827565 -0.08205852 -0.79591733

conv1.bn.running_var f4 [16]
00000000: b032 d63d e7cd b43f a1d0 873d 866a 633e
00000010: aa93 4b3d e8b5 2b3e 5685 e13d 76a2 783e
00000020: d0b0 d73f 0ae6 a03f e33f d73d fd0c 2c3e
00000030: a1b0 643d 1465 e73d 220e 0a3e a9d8 843e
0.104588866 1.4125336 0.0663159 0.22208604 0.04970137 0.1676861 0.1101176 0.24280724
1.6850834 1.2570202 0.10510232 0.1680183 0.05583251 0.11298576 0.13481954 0.2594655

conv2.conv.weight f4 [32, 16, 3, 3]
00000000: d7dd 663c 7610 ecbc 6669 1d3e 9241 debd
00000010: 2257 d4bd 35bc b6b9 bc9e d0bd 0f4e 303d
00000020: a5f7 313e b645 d53d f519 b73c f24e 8bbd
00000030: 16d5 b73c c5f5 b73c 6b35 a73d e381 e2bd
00000040: 6da0 77be 5df2 f93b 0c91 8bbe ae88 bdbe
00000050: 6282 69be a980 1abe e040 a8bd ef4b d23c
00000060: 0c12 e5bc 04ad 793e df2f b53e 0c3a 1dbe
00000070: e3b7 943c b4f4 2b3e 673b 03bd 2fc4 88bd
00000080: 2ff7 67bc 6ccd 33ba e6f1 f7bc 49cd 1bbd
00000090: 2c74 d1bd f2dd b1bc 6171 023c 69ea 92bd
000000a0: 20f2 4a3e 07ad c23c 4e4b 4dbd 23b9 c6bd
000000b0: ec3c 963d 1972 a93d fef0 853d 4574 f13d
000000c0: 63dd 33bd b961 c5bd a938 4d3b da4f 54bd
000000d0: 46c0 11be 9f8b 8a3c a9c1 27bc a03c 96bc
000000e0: 024c 3abc 1539 783d 1a8e d13d 356c babd
000000f0: d3b4 b13c b9df 953c 7459 1cbe 32ec a93d
00000100: 23ed 153e 8da1 d4bd 933a 853e b2e8 c63e
00000110: df0d 5a3e 346e ca3c 14a4 9d3d 7f32 6bbd
00000120: 2de0 9c3c f293 b23c 1b88 053d 169d 763b
00000130: 3b4a 843d 4546 953d 0040 59bd ec7a a03c
00000140: 30b9 8b3d 957a 2c3d 6b0b c33d e407 443d
00000150: 4334 423d 21b6 1cbd bcd6 abbc d801 a6bc
00000160: f268 12be 40fe 2fbe 6b5e 4fbe 864c 0abe
00000170: bb17 14be 6e90 b3bd 3e30 d7ba cef9 703c
00000180: 753d 653e 100c 7f3e fa3a 8e3e 31b7 3cbd
00000190: 4f2b 973d a3e7 123d 1a7c b0bc bb83 f53c
000001a0: 2c44 483e 8573 273e 4109 e0bc 4539 8a3c
000001b0: 1b42 38bc b05d 273e 29cf 5d3e 55e1 013d
000001c0: 97a4 c73d 804c 743e 4bf9 babd 4d65 abbe
000001d0: 3fcb 17be d96c 983d e31e 143e 6330 893e
000001e0: c98e c83d 4b2a 2b3d 718a 9abd ddd9 013e
000001f0: afc6 0dbe 80c4 c6be 8b8c 8cbc e3c5 f0bc
00000200: 09cd 283b a432 393d 15f1 f7bc f776 94bd
00000210: 9db1 e03c 2039 bebd f37c 06be 05af ebbd
00000220: 048a f2bb 3737 7f3d 2d7b cfbd e53c 3abd
00000230: 2bec 413e a7af e93c 67d9 97bd 3801 b9bd
00000240: 7ee2 08bc abba 943d 875c 2a3e 8678 a73c
00000250: ca45 183e 4c5f 4c3d d3c1 a2bd ccdb 81bd
00000260: f8b5 2dbe 0d09 a2bc e523 243e dd15 2b3d
00000270: 0bc9 57bd ea34 4a3e 8f2d 20bc 012c a8bd
00000280: 3203 2e3d ab97 a739 7907 d0bd 41f1 f9bd
00000290: cfd9 c6bd 9896 723d 0375 d93d 353c 773d
000002a0: 7a73 e8bc 1f6d 74bd 057c 11be 6e96 1e3e
000002b0: 3cd1 483e 2ac1 a9bd 2b4b b9bd b56a 503e
000002c0: 22f9 a13d c1a9 7fbc 87d3 1c3e 95fa 6abd
000002d0: d097 8dbd d08d 08be 98e0 96bc 9e3f 823e
000002e0: d27c 423e 4587 23bd d5d0 53bd a58a f53d
000002f0: 9db5 0a3d 6c60 8bbd 3139 20bd 58b6 39bd
00000300: 4f68 5ebc 0dab c0bc 0054 35bc bedf 5ebd
00000310: e3c6 0a3c 6928 963c a77c 6c3d 33b2 c93c
00000320: 987a b1bc e197 173d 8674 863e 8641 9abc
00000330: 8413 163d 0f4e 2abb e641 c2bb 3e52 05be
00000340: cfc6 b3ba 6007 c23d 13b9 67bd 4919 6b3d
00000350: 0125 2a3e a3b6 ef3c 79ae df3d f1ec 593e
00000360: 9346 77bd a9ad 2b3d abcb 7f3d ebba d1bd
00000370: 72e9 1d3e 089c d73d ff9b 2abd f2f0 f4bc
00000380: 5bfb abbd 40e6 8fbd d4cd 77bd a8a5 4ebd
00000390: 5c51 063c fe79 843e ad65 bd3d eace 843d
000003a0: a88b 7b3d f8ea f63c 6b3d bcbd fe30 20bd
000003b0: 7dff 393d ce81 72bc c958 733d 0796 bb3d
000003c0: dd3a 123d 8041 eb3d 7e0c 153e b958 ddbd
000003d0: e2c0 9bbd 8e6f d2bc 18a1 02bd 0ee9 523e
000003e0: 5b0d 1f3e 930f 23be a692 47bd d66d 7c3c
000003f0: 9bb6 bb3c 0a54 8d3d 06a5 5e3d 55ca 323d
0.014090977 -0.028816443 0.15372238 -0.1085235 -0.10368182 -0.0003485397 -0.10186526 0.043043192
0.17379625 0.10413687 0.022351244 -0.06802167 0.022440474 0.02245606 0.081644855 -0.1105993
-0.24182291 0.007627769 -0.272591 -0.3701834 -0.22803643 -0.15088142 -0.08215499 0.025670974
-0.027962707 0.24382406 0.35388085 -0.15354174 0.01815409 0.16792566 -0.032039072 -0.06678044
-0.014158054 -0.00068589184 -0.030266713 -0.038037572 -0.10227236 -0.021712277 0.007961602 -0.071736164
0.19818926 0.023764146 -0.050120644 -0.09703281 0.07335839 0.082737155 0.06540106 0.11789755
-0.043912303 -0.0963778 0.003131429 -0.051833965 -0.14233503 0.01691228 -0.010239043 -0.018339455
-0.011370661 0.060601313 0.10232182 -0.0910267 0.021692669 0.018295156 -0.15268499 0.08297004
0.14641242 -0.10382376 0.2602125 0.38849407 0.21294354 0.024710752 0.07697311 -0.057421204
0.019149864 0.021799061 0.032600503 0.0037630252 0.06459471 0.072887935 -0.05303955 0.019589864
0.06822431 0.04210909 0.09523662 0.047859088 0.047413122 -0.03825963 -0.020976417 -0.020264551
-0.14297846 -0.17186832 -0.20250861 -0.13505754 -0.14462177 -0.08767782 -0.0016417576 0.014707996
0.22386725 0.24906945 0.2777937 -0.046073142 0.07381307 0.035865437 -0.021543551 0.02997004
0.19557256 0.16352661 -0.027348163 0.016873011 -0.0112462295 0.16344333 0.21661057 0.031709034
0.0974819 0.23857307 -0.0912958 -0.33475724 -0.14823626 0.07442636 0.14464907 0.2679473
0.09792859 0.04178838 -0.07545937 0.12680764 -0.13845323 -0.38821793 -0.01715686 -0.029391235
0.0025756976 0.04521431 -0.030266324 -0.07249253 0.027428443 -0.092882395 -0.13133602 -0.11507992
-0.0074017067 0.062308516 -0.10130916 -0.04546823 0.18937747 0.02852614 -0.07414513 -0.090334356
-0.008354781 0.072621666 0.16636859 0.020443212 0.14870372 0.04989557 -0.07947125 -0.06340751
-0.16963947 -0.019779706 0.16029318 0.041768897 -0.052681964 0.19746748 -0.009776487 -0.08211518
0.042483516 0.00031965724 -0.10157675 -0.12204219 -0.097095124 0.05922565 0.10618021 0.060360152
-0.028375376 -0.05967438 -0.14207466 0.15487072 0.19611067 -0.08288796 -0.0904754 0.20353206
0.079088464 -0.015604437 0.15315066 -0.05736788 -0.069137216 -0.13335347 -0.018417642 0.2543916
0.18992928 -0.039923925 -0.05171283 0.11989335 0.033864606 -0.068055004 -0.039117042 -0.045339912
-0.013574674 -0.023519063 -0.01106739 -0.054412596 0.00847027 0.018329816 0.057736065 0.024621105
-0.021664903 0.037010077 0.26260775 -0.018830072 0.036639705 -0.0025986468 -0.005928266 -0.13019654
-0.0013715866 0.09474063 -0.056572985 0.05739716 0.16615678 0.029261893 0.1092195 0.21281792
-0.06037004 0.041913662 0.062450092 -0.1024073 0.15421084 0.105278075 -0.041652676 -0.029900048
-0.083975516 -0.070263386 -0.060499027 -0.05045095 0.0081981085 0.25874323 0.09247909 0.06484778
0.061412483 0.030141339 -0.09191402 -0.039109223 0.04540967 -0.014801456 0.059410844 0.09159475
0.035700668 0.114871025 0.14555547 -0.10807938 -0.07605149 -0.025687959 -0.031891912 0.20596716
0.15532438 -0.1592391 -0.04872384 0.015407046 0.022914222 0.06900795 0.054356597 0.04364999

conv2.bn.weight f4 [32]
00000000: 6109 df3f 0a5e 1440 723e da3f 7a6f 0540
00000010: 6054 0a40 0c2b 0640 7f67 0640 e056 cf3f
00000020: 8cd1 d33f c480 1640 2d11 1d40 2b4e 1840
00000030: d25f bd3f 0998 0a40 8d09 1b40 e10e 1d40
00000040: 32a7 0d40 56d9 0d40 eeb1 1d40 f3cc f93f
00000050: f675 0f40 4334 3940 57e0 cc3f 7cec 1540
00000060: 663d ce3f 7e75 1940 a098 eb3f d16c 2940
00000070: f8cd 1340 0b05 0d40 e7aa 0140 3a5a fb3f
1.7424737 2.3182397 1.7050307 2.084929 2.1613998 2.0963774 2.100067 1.6198387
1.6548324 2.3516092 2.4541733 2.379771 1.4794867 2.1655295 2.422458 2.4540331
2.2133298 2.2163901 2.463985 1.951567 2.2415748 2.8938148 1.6005963 2.3425589
1.6112487 2.3977962 1.8405952 2.6472666 2.3094463 2.2034328 2.026056 1.963691

conv2.bn.bias f4 [32]
00000000: 77c8 e1be d06f 36c0 bd13 3c3f ba91 05bf
00000010: 1da8 e4be 10c6 cebe 55aa 83be 84a3 e63e
00000020: bfc7 513e 081a 55bf ca82 dcbe 5f40 a53e
00000030: 07b0 033f c134 ccbe 36e3 d9bf 146b dbbe
00000040: e280 12be 203e 12bf 741b 69be 4a3c 5a3c
00000050: bce6 2fbf 412b 88bf bddd 0a3f c396 2dbe
00000060: bd19 863f fb8c ecbe 3134 413e 933b a6bf
00000070: c1aa 7c3e 658f 77be f35b 82bf 9e4e abbe
-0.44098255 -2.8505745 0.7346762 -0.52175486 -0.4465951 -0.40385485 -0.2571589 0.45046628
0.20486353 -0.83242846 -0.43068534 0.32275674 0.5144047 -0.39883998 -1.7022464 -0.42855132
-0.14306977 -0.57126045 -0.22764379 0.013320038 -0.6871145 -1.06382 0.54244596 -0.16952042
1.0476605 -0.4620131 0.18867566 -1.2986931 0.24674512 -0.24175794 -1.0184311 -0.33458418

conv2.bn.running_mean f4 [32]
00000000: cd63 cc3e fd67 4d40 1d82 2ec0 427d 48bf
00000010: f634 80bf ef60 babe 1caf debe ed2d 133f
00000020: 58f0 12bf 89e3 c5bf 4767 21bf de32 dfbf
00000030: 63fe b1be b188 05c0 2d65 64bf 5f01 bebf
00000040: c84c 3ebf 0533 61bf 405e 92be fca7 88bf
00000050: 54e5 0bbf 1e84 cabf d1fc 873f a7c0 2abe
00000060: 0419 f6bf a17e 63bf 5173 31bf c821 8abd
00000070: 2512 c5bf ea40 30bf 0f86 a7bf 5320 48bf
0.39919892 3.209472 -2.7266915 -0.7831613 -1.0016162 -0.3640208 -0.43492973 0.5749195
-0.57397985 -1.5460063 -0.63048214 -1.7437398 -0.34764394 -2.086468 -0.8921688 -1.4844168
-0.7433591 -0.87968475 -0.28587532 -1.0676265 -0.546468 -1.5821569 1.0624028 -0.16675054
-1.9226384 -0.88865095 -0.69316584 -0.067447245 -1.5396162 -0.6884905 -1.3087786 -0.7817432

conv2.bn.running_var f4 [32]
00000000: 5d78 aa3f 66b9 8d3f 3559 da3f fb22 d33f
00000010: 8e89 2c40 353c f03f f148 5740 def7 f83f
00000020: 7f85 853f 3ebe 2f40 7fd5 fe3f 8a96 7840
00000030: 6dad cd3f ba1c eb3f f0b8 d13f 4d3d 2a40
00000040: ab49 5c40 3ea8 d23f b2c7 8540 3c23 3040
00000050: 01e0 f53f 3801 fe3f d86b 8f3f 62a2 1340
00000060: 0de8 0f40 9ce5 6440 d8ad 623f 053a bd3f
00000070: bf54 8740 4b3b 7040 bd81 613f 8cef a63f
1.3317982 1.1072204 1.7058474 1.649505 2.6958957 1.8768374 3.363827 1.9450643
1.0431365 2.7459865 1.9908904 3.8841882 1.606855 1.8368142 1.6384563 2.6599915
3.4419963 1.6457593 4.180627 2.7521505 1.9208986 1.9844122 1.1204786 2.306786
2.2485383 3.5765142 0.88546515 1.4783331 4.229095 3.753619 0.8808859 1.3041854

conv3.conv.weight f4 [32, 32, 3, 3]
00000000: 017d 05be 13f0 b9bd acd0 8abd 5d39 47be
00000010: 958a 25be 3b57 18ba fe0a cabd 0a0d c3bd
00000020: 084c 0b3c 1040 8a3c 15bf 943d 49cd a23d
00000030: 56f2 253d 2eb6 81bc 39b3 d8bc 42b2 dbbd
00000040: 2743 d8bd 1338 b0bd 0c75 033d c2a5 d53d
00000050: 39c4 383e 1ee7 a83d e461 ba3d d1c7 fc3d
00000060: 9ad0 1cbd daca 1ebc 0e36 16bb 4025 513d
00000070: f2fa 933c 8afe 82bd 0b22 fc3d 0e60 42bb
00000080: 6bb6 febd 9d31 9a3d 8795 593d e62b 19bc
00000090: ee5a 94bc 9a2f fc3c f7f6 bc3d 656c 8fbd
000000a0: e402 a93d 715d 3e3e 195c 413d b155 273e
000000b0: 70d7 4b3e 9a46 1bbe 2fec 56be 123d 9fbd
000000c0: 6309 1abe 082d 24be b277 043c 6e04 cebc
000000d0: 8974 733d b1de 0d3e 7198 c43d 34f0 923d
000000e0: 04f6 f23c 74bf b63c c1e8 013d 3c4c d13b
000000f0: f40d 09bd 4d7d 933d 8f36 ae3d f6b4 4ebc
00000100: e2f9 2ebd 363a f2bc 8f72 97bd cb94 2fbe
00000110: ad42 2ebe 9440 173d 8907 febd eaa6 42be
00000120: 5de9 2bbd e2f4 da3c 488d 9e3d aef6 1cbe
00000130: 7f55 74bd ff01 43bd 579c 5ebe c890 26be
00000140: c345 b2bd b254 2c3d c82d aa3d e015 37bd
00000150: bbbe 4fbb 5a44 82bc b68a 243d 70d2 0bbd
00000160: 28d3 c53b 978e ab3d 8dc2 fbbd 0278 5dbe
00000170: 8e78 e4bd e19e acbd e867 53be 2963 babd
00000180: df68 963d 9d12 b53c a5de 9bbc 4eff a33c
00000190: db31 e53b b71d 5ebd 86e8 783c ac9c 9c3d
000001a0: eaf1 ef3d c6ad febd 3711 50bd a03d 303e
000001b0: 23b5 273e 3f7b 393e 8c38 85bc a900 1ebc
000001c0: 78c5 973d 2f20 31be da57 21be 2ace d1bd
000001d0: 2197 31be 1e35 16be 01d9 f8bd 886d ce3b
000001e0: 7e3c eebd c4d4 7dbd caa0 403d 1e33 93bd
000001f0: ac50 9ebc cb7b 733d e067 27bc a515 8abd
00000200: 9760 0ebe dfb9 c6bd 0d9c 09be 8ffb bbbd
00000210: d2fc 2ebd 22c0 b4bd bd8d 3d3b 606e e6bc
00000220: 163f 8bbd 7acb 523d 39be 16be a4c6 38be
00000230: c05f a3bd 97ec b9bd 8399 bebd 254c ca3c
00000240: bb4e 803d c6b5 ac3d ec09 0c3d 4857 ca3d
00000250: bc21 5b3d 30eb bc3b ed8d 013e 6bc3 4d3d
00000260: 2f5e c33a 6e5d b43d fe3c 1d3e c7d0 913d
00000270: 5136 143e c1dd 323e ea02 933d 7a59 083d
00000280: fdf0 893d b54b be3c f374 5dbd e011 38be
00000290: ef5c 04be e2b9 0bbd 9d5b 41be ae70 18be
000002a0: 3bd8 e23d 938b bc3d c7de 4bbc 9e9f ebbc
000002b0: db85 0dbd b02d 4cbd be9a 45bd a5c2 c3bc
000002c0: 865c d3bd 7847 663d 82d1 43bc 7f1b 04be
000002d0: eeb5 803c c502 653d 9f33 103d f716 983d
000002e0: 0537 063e 31d7 b53d de56 bf3d e438 2b3e
000002f0: 3126 af3d a9f3 f33d 2176 bf3d d574 533c
00000300: cf03 e83d 61e4 133e e688 0c3e 5139 d13c
00000310: 7edd c53d 2dfd 233e 7d2e bebd f7b5 dcbd
00000320: 5058 c13c a5a3 27be 2eb3 84be d152 10be
00000330: 2d52 c9bd 4af6 55be 7d67 07be 24d7 193b
00000340: 5d4e 26bd a2ff 273b b9f0 eabd 41b7 a7bd
00000350: 2c31 fcbc dc9e e1ba af84 32bd 4794 2abd
00000360: 67f5 9bbd 4ea5 8fbd 2b4f babd 154f 123d
00000370: 9acc 743d 0a88 7cbd 5d47 64bd d6ab 6b3b
00000380: 6b2b 8cbc d81d 463d bb7d 833d 6887 8b3d
00000390: f5d9 003d de41 173e fc95 393e 5ff0 5f3d
000003a0: c1e2 4d3e eb96 253e 2b11 de3d e802 e33a
000003b0: 9143 07be 54d9 103d baa6 5ebd 01be 45be
000003c0: 93a0 7c3d ffae 12bd 2a46 7fbe bc60 c6bd
000003d0: acca 3fbe 65a9 a9bd da15 44bd eef5 2cbe
000003e0: 7be5 50bd 23ed 5f3d 2aa8 29bc 66d3 2b3d
000003f0: d6e1 f0bc 0909 e23c 1950 bd3d c101 36be
-0.13035966 -0.09078994 -0.06778082 -0.19455476 -0.16166146 -0.0005811338 -0.09865378 -0.095239714
0.008502014 0.01687625 0.072630085 0.07949311 0.040514313 -0.01583394 -0.026452648 -0.10727359
-0.10559683 -0.08604445 0.032094046 0.104320064 0.18043603 0.08247207 0.091007024 0.123427995
-0.038284875 -0.009691918 -0.0022920403 0.051060915 0.018063996 -0.06396206 0.12311181 -0.0029659304
-0.12437137 0.07528994 0.053121116 -0.009348845 -0.018109765 0.030784417 0.09226792 -0.070030965
0.082525045 0.18590333 0.04720697 0.16341282 0.19906402 -0.15163651 -0.20988534 -0.0777532
-0.15042643 -0.16032803 0.008085178 -0.025148597 0.05943731 0.13854481 0.095993884 0.07174721
0.029658325 0.022308089 0.031716112 0.0063872617 -0.033460572 0.072016336 0.085065 -0.012616387
-0.042718776 -0.029568773 -0.07394897 -0.17146604 -0.17017622 0.03692682 -0.12403781 -0.19008985
-0.0419706 0.026728097 0.07741791 -0.15328476 -0.059651848 -0.047609325 -0.21739326 -0.16266167
-0.08704712 0.04207296 0.08309513 -0.044698596 -0.0031699378 -0.015901733 0.040171348 -0.034136236
0.0060371347 0.08376806 -0.12292967 -0.2162781 -0.111558065 -0.08428741 -0.20645106 -0.091009445
0.07344221 0.022103602 -0.019027064 0.0200192 0.0069944686 -0.054227557 0.015192157 0.0764707
0.11716063 -0.124354884 -0.050797667 0.17211008 0.16377692 0.18113421 -0.016262315 -0.009643712
0.07410711 -0.17297433 -0.15756169 -0.10244401 -0.17342807 -0.146687 -0.12150765 0.0062996782
-0.11632632 -0.061970487 0.04702834 -0.07187484 -0.019325577 0.05944423 -0.010217637 -0.067424096
-0.13904034 -0.09703421 -0.13438435 -0.0917884 -0.042721577 -0.08825709 0.0028923594 -0.028128803
-0.06799142 0.05146358 -0.14721002 -0.18044525 -0.07977247 -0.09078329 -0.09306624 0.024694512
0.06265017 0.08433108 0.03418915 0.09879929 0.05349897 0.005765341 0.12651797 0.050235193
0.0014905388 0.08806883 0.15355298 0.07119899 0.14473845 0.17467405 0.0717829 0.033288456
0.06735418 0.02322946 -0.05406661 -0.17975569 -0.12926076 -0.03411282 -0.18882604 -0.14886734
0.11076399 0.09206309 -0.012443251 -0.028762635 -0.034551483 -0.04984826 -0.048243277 -0.023896525
-0.10320382 0.0562205 -0.011951806 -0.12901114 0.01571175 0.055910844 0.03520548 0.07426255
0.13106926 0.08878935 0.093427405 0.16720921 0.08552206 0.11911709 0.09348703 0.012906273
0.113288514 0.14442588 0.13724098 0.025540026 0.09661387 0.16014548 -0.09286211 -0.107768945
0.023601681 -0.16371019 -0.25917953 -0.14094092 -0.09830127 -0.20894733 -0.13223071 0.002347418
-0.040602077 0.0025634547 -0.114716955 -0.0818925 -0.030785166 -0.0017213481 -0.04358357 -0.041645315
-0.07615166 -0.07013951 -0.09097131 0.03571995 0.059765436 -0.061653174 -0.05573212 0.0035960576
-0.017110547 0.048368305 0.064204656 0.06812936 0.03145786 0.1477122 0.18123621 0.054672595
0.20106031 0.16170852 0.10843118 0.0017319592 -0.13209368 0.03536351 -0.05435822 -0.19310762
0.061676573 -0.03581142 -0.24929109 -0.09686419 -0.18729657 -0.082842626 -0.0478724 -0.1689069
-0.0510001 0.05466951 -0.010355035 0.041949652 -0.029404562 0.027592199 0.09243793 -0.17774107

conv3.bn.weight f4 [32]
00000000: 52dc 723f 1e36 493f a614 993f a13b b73f
00000010: a1b3 a03f 170f c83f 0a9f 653f 970b 9d3f
00000020: 54ec 673f 49ac b53f 9764 4a3f fdff 403f
00000030: 3ebc 723f 74b8 463f 093f 773f 5336 8f3f
00000040: 86d8 9d3f 997b 0f40 34ea 2f3f bb07 8c3f
00000050: 4a82 993f 75a1 b83f 801c fd3f a94c ab3f
00000060: fbaf 8b3f c440 773f 3c88 833f d5db bf3f
00000070: 5d29 a13f f1ac 993f 9a94 d93f e166 863f
0.9486743 0.785982 1.1959426 1.4315072 1.2554818 1.5629605 0.896958 1.2269162
0.90594983 1.4193202 0.7905974 0.7539061 0.94818485 0.77625203 0.9658056 1.1188453
1.2331703 2.2419188 0.6871674 1.0939859 1.1992886 1.4424273 1.9774323 1.338277
1.091308 0.965832 1.027595 1.4988962 1.2590748 1.2005903 1.6998475 1.0500146

conv3.bn.bias f4 [32]
00000000: 4521 3a3e abae 803e 7abf 9dbe 4ab4 88be
00000010: 6695 51bd 45b4 02bf badc f63e 0a64 e8bc
00000020: e876 34bd 3175 36bd 6594 0cbd 2aca f13e
00000030: 4a30 793d 5e28 8c3e e2f9 2ebd 8586 b0be
00000040: 84e3 96bd 6372 59bf 3e44 d93e d606 8b3d
00000050: eae0 393f 018b 00bf 0472 18bf af5c 853e
00000060: bb65 993e b081 20be 7682 33be 3e8b d53e
00000070: e71f bc3e 0575 ddbe 00f2 10bf 38ee e7be
0.18176754 0.2513326 -0.30810148 -0.2670005 -0.051167868 -0.5105632 0.48215276 -0.028368015
-0.04405871 -0.044545356 -0.034321208 0.4722455 0.060837068 0.27374548 -0.042718776 -0.3447763
-0.07367614 -0.84940165 0.42434877 0.06788413 0.72608817 -0.50212103 -0.59548974 0.26047274
0.29960427 -0.15674472 -0.17530236 0.41707796 0.3674309 -0.4325334 -0.5661926 -0.45298934

conv3.bn.running_mean f4 [32]
00000000: 1717 4cc0 4bac 9dbf bc97 ab3d cdd2 97bf
00000010: 3ee0 e8bf 61a0 6dbf d045 5fbf 83bc 13c0
00000020: 4088 9bbc ff31 d2bf 1afd 093f 713d 6d40
00000030: 4db1 b13e ea67 093f 503e f4bf 912b 98bf
00000040: b489 f0bf bf3e 46c0 ff0c 3e3f 70d1 8abf
00000050: 6780 b33e 152a 1ac0 6a2b 15c0 a2a3 fbbf
00000060: 4c48 02c0 e8f6 e4bf 35eb bfbf 1bd3 26c0
00000070: 80c4 68bf f944 f5bf 1f9b 45c0 d904 15c0
-3.1889093 -1.2318205 0.083785504 -1.1861206 -1.8193433 -0.92822844 -0.872159 -2.3083808
-0.018985868 -1.6421508 0.5390183 3.706875 0.34705582 0.53674185 -1.9081516 -1.1888295
-1.8792024 -3.0975797 0.7423858 -1.0845165 0.350589 -2.4088185 -2.3307748 -1.9659312
-2.0356627 -1.788785 -1.4993654 -2.6066349 -0.90924835 -1.9161674 -3.0875928 -2.3284209

conv3.bn.running_var f4 [32]
00000000: b803 f340 881c ac40 aa9c 2a41 5b0d 0241
00000010: 1b2e 2941 e7a7 ee40 09c4 0e41 5f28 ea40
00000020: 0346 ef40 1147 0c41 11f1 8340 288a 7f41
00000030: 2c88 be40 be1f 2e41 ebc0 1341 44b0 c040
00000040: 45a4 1941 8d2c 7941 788b 2e41 6e3b 2f41
00000050: 75e7 7741 6e60 ce40 4767 6b41 fe15 4241
00000060: 7429 0d41 f329 c540 43c6 bc40 3ef7 e641
00000070: 128f 7441 824f ff40 0fa0 7d41 f7a1 0141
7.594204 5.378483 10.663248 8.128261 10.573756 7.457996 8.92286 7.317428
7.4772964 8.76735 4.123177 15.97123 5.9541225 10.88275 9.234599 6.021517
9.602605 15.573377 10.90905 10.952009 15.494008 6.449271 14.712714 12.130369
8.82262 6.1613708 5.899202 28.870724 15.284929 7.9784555 15.851577 8.102042

conv4.conv.weight f4 [32, 32, 3, 3]
00000000: 3bc3 aebc 45ec 05be 4791 82be e9c3 8f3c
00000010: 954e ecbc 9cad dcbd 6061 123e 6042 023e
00000020: 93dc ba3d 2543 c83d 269c 123e 5485 3e3d
00000030: e236 a73d 3a6f 5b3e c7af 543d abed 763c
00000040: 2615 1bbd 0bd7 b83b 7af5 4cbd 1edd e73d
00000050: f959 09bd 6bf1 60bd ef88 993d 8fc8 d53c
00000060: d24a 07be 0b33 803d 76e2 973d 654b bb3d
00000070: 605f 263e 5ab0 6bbd 7aca 413e cb0e f13d
00000080: 2dec b63d bca5 853d 6d2f 76bd d421 06be
00000090: b855 cdbc f570 4fbe e9fb 07ba 6075 5a3e
000000a0: c082 cf3d 6bda 0f3d 9366 b5bc a659 a6bc
000000b0: 7622 593d a0df 02bd ac7e 3d3c 1516 d3bd
000000c0: 0feb eb3c dd97 b4bd 5369 25bd 73e4 a83d
000000d0: bb38 233e e751 c0bd 3a07 2b3d 65ea 5e3d
000000e0: f46b 04be 05df 143e d79c 123e 1f9b 643c
000000f0: da22 603d ebb1 a23e 15d1 293e c7dd bcbd
00000100: 74a5 7f3d 293b e33c f2bb 563e 5c7b 18be
00000110: 820b e1bd 36c3 c83d 72a2 8e3d d510 11be
00000120: 7e4e aa3c b12d 853d 0630 9d3c ba83 4e3d
00000130: c64a 033e 3971 1b3e 2eeb 21bc fce5 0dbe
00000140: c262 cdbd 2d24 03bc 3f8d fe3d a702 cc3d
00000150: 50b5 863b 7939 2bbb 2458 0c3e 87b3 b33c
00000160: 8f56 87bd d9d4 f2bb 6181 c63c e549 283d
00000170: 2bd4 41bd 2d28 273c 7124 dfbc bc1c 8fbd
00000180: 96fb 6cbd d786 853d 21b1 61bc 4303 553e
00000190: abbe 8c3e b264 713e 537b 9dbc d853 133c
000001a0: 31e1 123e 9f4b babe be3d 43be 473c 9f3a
000001b0: 63b8 45bd 58e2 553b 16f0 1fbd 6e2b 7abc
000001c0: 6151 043e 8b51 cfbc 2257 a8bd cc4e b73b
000001d0: 96a1 6b3d 74ea 7ebc e1a9 e23c 7cc9 013e
000001e0: da08 463c 1fdc 203d 96ca fb3d 0612 80be
000001f0: 205d 5fbe 160e 36bd 3121 2d3e f2ea 853e
00000200: ebfb 663e 38ca 02be 26fd 4bbe 708f 03bd
00000210: 66c8 a23d 5d13 4abd f13f 983d 2036 8c3d
00000220: 5076 923d a7ee 40ba 3034 e73d 143f 913d
00000230: a01f 063e d73c 9b3d bd8b aa3c a63e 1abe
00000240: 7909 12be 6f1d 1b3c d8a5 f53d 8ce1 4a3d
00000250: 6957 2fbd ce32 463d 35fb dc3b 3e1f 46bc
00000260: efc9 2cbe 04c5 a0bd 4100 aebc f127 113d
00000270: 19f5 d03c f90c 243e 5bce 863d 7ce4 3dbc
00000280: b5e6 e7bd d3da bcbd 3f4e 45bd df76 f6bd
00000290: 6181 213c 117d d1bd a95b 33be ec91 3abd
000002a0: 6618 33be cb32 b3bd ef7a be3d 037f 403d
000002b0: ee54 d5bd b79b ef3d 3311 363e 04d9 e93d
000002c0: 124e c5bd 8583 643d 7249 23bd 8bea 0dbe
000002d0: 8b57 e4bd 0c8c a3bd 55e4 c3bd 8db2 8d3d
000002e0: d526 a53c 5482 fdbd 030b 223e 91f1 ce3e
000002f0: da23 f93d 480e 01bc db07 f63d 2637 0d3e
00000300: 6504 d33d d5fe d73d 8355 dd3d 5e32 7fbd
00000310: dab5 a9bd 67e5 cfbc 1c06 893b 74c7 363d
00000320: b79b 58bb 35d1 503e 7bcb 423e 1b6b bd3d
00000330: d68f 4ebd 4bc7 053c f347 4cbc a056 e2bd
00000340: 07cc 11be de4a 55bd 1775 f33d 59a5 ad3d
00000350: 4887 1ebd e8ec 963e 3819 4b3e 8ad7 2e3c
00000360: 9a17 94be 42ef 73be 243e 3dbe 86d9 78be
00000370: fcd8 9bbe ad81 13be 0a11 d43d 7956 823e
00000380: 3448 0f3e bb3b 043e bd1e a43d b0e2 da3c
00000390: 223a e83c c273 213e ee31 ff3d aa63 ecbd
000003a0: 8ff5 babd 95e8 9e3d 049b 0a3e c736 583e
000003b0: f056 2e3d 172d b7bc b57d a3bc 777b 08bc
000003c0: 80be 35be 59bd 6bbe b31d 48be de96 b8bc
000003d0: be46 e3bd 4379 a8bd 829e bc3e a823 a53e
000003e0: 2609 233e 6bbe acbc d2c8 9a3d 7a16 f4bd
000003f0: 76cb b13d 073d ad3c aef8 66be cf5b aa3c
-0.021333328 -0.13078411 -0.25501463 0.017549472 -0.028846065 -0.10775301 0.14294958 0.12720633
0.091241024 0.09778432 0.14317378 0.04651387 0.08164765 0.21429148 0.051925447 0.015071313
-0.037861966 0.0056408695 -0.050038792 0.11321472 -0.03353307 -0.054917734 0.07496821 0.02609661
-0.13212135 0.06259736 0.07416241 0.0914524 0.1624732 -0.05754123 0.18924895 0.117704
0.08931766 0.06525752 -0.060103822 -0.13098842 -0.025065288 -0.20257933 -0.0005187379 0.21333838
0.101323605 0.03512041 -0.022143638 -0.02030642 0.05301138 -0.031951547 0.011565845 -0.10306946
0.028798608 -0.08818028 -0.040383648 0.08246698 0.1593961 -0.09390622 0.04175494 0.054422755
-0.12931806 0.145382 0.14317642 0.013952999 0.054720737 0.31776366 0.16583665 -0.09221988
0.062413648 0.02773817 0.20970133 -0.14890808 -0.10988523 0.098028585 0.06964578 -0.14166577
0.020789381 0.065028556 0.019187938 0.050418593 0.12821493 0.1517991 -0.009882731 -0.13857263
-0.10028602 -0.00800423 0.12429284 0.099614434 0.0041109696 -0.0026126786 0.13705498 0.021936191
-0.066083066 -0.0074106273 0.024231615 0.041086096 -0.04732148 0.01020245 -0.027239056 -0.069879025
-0.05785712 0.06519859 -0.013775141 0.20802025 0.27489218 0.23573568 -0.019223845 0.008992158
0.14343716 -0.3638582 -0.19066522 0.0012148701 -0.048271548 0.0032636132 -0.039047323 -0.0152691435
0.12921669 -0.025307437 -0.08219744 0.00559411 0.057527147 -0.015558828 0.027668895 0.12674516
0.012087071 0.039272424 0.122944996 -0.2501375 -0.21812868 -0.044447027 0.16907193 0.26155812
0.22557037 -0.12772453 -0.19920787 -0.032119215 0.07948379 -0.049334873 0.07434071 0.06846261
0.071514726 -0.0007359781 0.11289251 0.07092109 0.13098001 0.07579964 0.020818586 -0.15062961
-0.14261426 0.009467467 0.11994523 0.049531505 -0.04280797 0.048388295 0.0067438134 -0.01209241
-0.16873907 -0.07850078 -0.021240355 0.03543848 0.025507497 0.16020574 0.06582328 -0.011590119
-0.11323301 -0.09221425 -0.048170324 -0.120343916 0.0098575065 -0.10228933 -0.17515434 -0.04554932
-0.17489776 -0.08749922 0.093007915 0.046996128 -0.1041659 0.11699622 0.17779998 0.114183456
-0.09634031 0.05578949 -0.039864965 -0.13859002 -0.1114951 -0.07985696 -0.09565035 0.069188215
0.020160118 -0.12378374 0.15824513 0.40418676 0.12165041 -0.00787694 0.12013217 0.13790569
0.103035726 0.10546652 0.10807326 -0.062303893 -0.082866386 -0.025377942 0.0041816365 0.044623807
-0.0033051798 0.20392306 0.19022934 0.09248944 -0.05043014 0.008165191 -0.012468326 -0.11051679
-0.14237987 -0.052073352 0.118875675 0.08478803 -0.038703233 0.2947762 0.19833839 0.010671506
-0.28924257 -0.23821738 -0.18480736 -0.24301729 -0.30438983 -0.14404936 0.103548124 0.25456598
0.13992387 0.1291341 0.08013675 0.026719421 0.028348032 0.15766814 0.12460695 -0.11542447
-0.09128868 0.07759205 0.13535696 0.21114646 0.04256338 -0.022360368 -0.019957403 -0.008330218
-0.17748451 -0.23021449 -0.1954258 -0.022532877 -0.110974774 -0.08226254 0.36839682 0.32253766
0.15921459 -0.021086892 0.07557835 -0.119183496 0.08681385 0.021147264 -0.22555801 0.02079573

conv4.bn.weight f4 [32]
00000000: d81f ab3f 2920 fe3f ee50 3840 0842 dc3f
00000010: b1fb 1040 3071 d53f 35b9 0940 eee3 0340
00000020: 933f 0f40 59b6 f33f 6bcf d43f 03af 9e3f
00000030: 4592 df3f 2aaa f63f aee3 f13f cd9e f63f
00000040: 5022 d23f 8db0 0f40 a6e3 0c40 55e3 bb3f
00000050: 6fdd 2340 f832 d13f b5e9 ed3f dc63 1d40
00000060: 3abe cf3f c0ed 2e40 57dd fd3f d195 2040
00000070: c515 1940 163b 0740 99d6 1440 c8dc d93f
1.3369093 1.9853565 2.8799396 1.7207651 2.265362 1.6675167 2.1519291 2.0607867
2.2382553 1.9040023 1.6625799 1.2397159 1.7466513 1.927068 1.8897607 1.9267212
1.6416721 2.2451508 2.2013946 1.4678751 2.5603902 1.634368 1.8586947 2.45922
1.6229928 2.733261 1.9833173 2.509144 2.3919537 2.1129813 2.325598 1.7020502

conv4.bn.bias f4 [32]
00000000: c65b 383f d5d7 be3d bda4 e4bf 3aaf a8be
00000010: f17d 0bc0 72bc 90be 7aba b8bf 41b5 c93e
00000020: 5ddf 19bf 3b9c 61be a07b 023e 59cb 2b3f
00000030: 6a64 1fbf f5fd 3fbd a145 0dbe 00e2 9cbe
00000040: fa6b 5fbe 9cf4 0abf ea07 5fbf 1a6a fb3e
00000050: c409 e0bf 1cab f93e 9882 fbbe b442 23bf
00000060: 405c 56be 8e5b dabf 1477 82bf aea1 cbbf
00000070: a211 4abf e7ac 03bf 3ab0 6cbf aedf 423e
0.72015035 0.093185104 -1.7862774 -0.32946187 -2.1795619 -0.28268772 -1.4431908 0.39396098
-0.6010645 -0.22032253 0.12742472 0.6710716 -0.62262595 -0.04687305 -0.13796093 -0.30641174
-0.21818534 -0.54279494 -0.8712145 0.49104387 -1.750298 0.4876336 -0.49123073 -0.63773656
-0.20933628 -1.705919 -1.019259 -1.5908716 -0.78933156 -0.51435703 -0.924564 0.1903064

conv4.bn.running_mean f4 [32]
00000000: 4bba f83f 8791 a9bf d4df 39bf b61b 9dbf
00000010: 24d0 5bbf 4f86 97bf 6c92 eebf bd0b 4dbe
00000020: 17c7 adbf 2c5c 86bf cf1b 2cc0 1ddf a6bf
00000030: 3cbe b1bf 4b87 c2bf d921 8ebf 8ded febf
00000040: cd4b bcbf 5e4b 14bf 7fae 0ebf f462 e93e
00000050: 340d a1be f52e b3be ba72 94bf 2158 523e
00000060: f2f3 08bf de71 9cbe 30f0 d3bf c928 e2bf
00000070: 170b 91be 98a7 8cbf dd16 c53d f571 c1bf
1.9431852 -1.3247536 -0.7260716 -1.2274082 -0.8586447 -1.1837863 -1.8638434 -0.20024009
-1.3576382 -1.0496879 -2.6891973 -1.3036839 -1.388618 -1.5197538 -1.110408 -1.9916245
-1.4710633 -0.579275 -0.5573501 0.45583308 -0.31455386 -0.34996763 -1.1597512 0.20541431
-0.5349723 -0.30555624 -1.6557674 -1.7668697 -0.28328773 -1.0988646 0.096235014 -1.5112902

conv4.bn.running_var f4 [32]
00000000: fa75 1740 c75c 2440 4dc6 e73f f3ac dc3f
00000010: 87db 8b3f a191 1040 3398 b13f c1cf 4f40
00000020: e0c0 3540 4ec3 e03f ed53 0640 3368 de3f
00000030: d254 ad3f 0154 2640 2448 1340 e79e 1540
00000040: 914a e33f 0fb0 1540 28fd fc3f 492e 1040
00000050: 7730 ce3f 9afc 4140 8289 fc3f 557b 3240
00000060: 90ba c53f fd3d e83f cb76 ca3f d48b 0b40
00000070: 4fc5 0740 41d4 d63f 521c de3f 7476 2040
2.3665757 2.5681627 1.8107392 1.724028 1.092637 2.2588885 1.3874573 3.2470553
2.8398972 1.7559602 2.0988724 1.7375549 1.354151 2.5988772 2.301278 2.3378236
1.7757131 2.3388708 1.9764757 2.252825 1.610854 3.0310426 1.9729464 2.7887776
1.5447559 1.8143917 1.5817503 2.1804094 2.1214178 1.6783525 1.7352393 2.5072298

conv5.conv.weight f4 [32, 32, 3, 3]
00000000: 5ffe a2bc 462d aabc fd34 4fbc b871 9ebb
00000010: 7a0e 5e3d 8194 773d b342 06bd 3a3c 1ebc
00000020: 09a4 dc3a f3d4 eb3b 38a5 653d 7e56 5c3d
00000030: 5d22 acbd b6ae e5bd 75a3 30bd e122 66bd
00000040: 45ae 0fbe 24c5 80bd 0704 09bd 0e09 48bd
00000050: 8e35 80bc 6411 b9bc 0fe9 14bd d6c0 a93c
00000060: 4a22 19bd 0f0d c5bc d533 f2b9 bb5c 783d
00000070: 37ee 873c e4ab 393c 3ea3 973d 84e3 ba3d
00000080: db1f df3d fcbd 043d 879d 2d3d ea57 133c
00000090: 8d4f aebc d313 2ebd a47a 98bd ae5d 243c
000000a0: 3794 06be 7f0b f7bd 6e86 10bb 8f7e 81bd
000000b0: 2ada 83bd 287f e3bc 70bc e0bd 9167 d7bd
000000c0: 142f 5fbd 07b5 edbd f231 32be 22ac 7d3c
000000d0: f3ed 2dbd 4683 b8bd ff24 aa3d 00b9 c23d
000000e0: 5475 9c3c f1bc 5e3d 459e 3e3d b5fe 00bd
000000f0: 1b2f 163d 9dd6 c23c 11ef 28bc 26bf 24bc
00000100: 8e5e ef3c 5f11 093d 6f16 093d f3f3 a93d
00000110: 981f c43d 0a7a 04bc d5b3 97bd 59ad 38bd
00000120: 8286 963c 44fe 343c e9fa a63c 9393 a9bd
00000130: fd78 07bd f5ea 163d d04d edbd e367 9abd
00000140: 0edf b13a 4844 e73d 3c22 4b3e 2b68 ea3d
00000150: 5b37 d83d 9c66 253e 4a91 ba3d ddf6 323d
00000160: 8317 113d 2eb2 2cbc e6ef 4bbd 69a2 77bb
00000170: 8c7b 94bc af50 4dbe 00bb 66be 04ea abbd
00000180: 83b9 0bbe 27cc 5dbe b95d 0dbe 1758 293d
00000190: e20d 443b 9e6d 99bc 7811 fc3d 45a1 e93d
000001a0: 0269 113d 5833 713d 1e4d b93d 7e71 8e3d
000001b0: 2900 2f3d daee c93b 6e70 84bb 4a31 433d
000001c0: 65b7 bc3d 28ca c83d 38f5 2ebc f711 683d
000001d0: 36b1 b13d 8216 e73b c4f0 17bd 3b58 b9bc
000001e0: b145 bcbd 7a0b 14be b8bc e7bd 55dd 52bd
000001f0: 924f 10be 6293 18be 96f1 093d 1c9d 613d
00000200: 27c9 af3c 7a40 25bb f889 b4bc bc97 793b
00000210: 19ac d9bc 3339 06be 3291 f4bd e163 493d
00000220: d3ed 563b e6cf a8bd c06d 333c 82bd cebd
00000230: c86b 9cbd fb8d 3bbd 206d babd 89aa c3bb
00000240: b7da 9bbd 53a0 febd f3ec 3ebd b4cf f7bc
00000250: 184b dbbd 5db1 d9bc ab6b cc3d e89a df3d
00000260: 87b5 eb3d 740a a0bd 02f4 bebc 49f6 cd3d
00000270: 8159 d3bd 4a3b 543c c915 0e3e 68e0 1c3c
00000280: 6c9b 623d 54cd fb3d 7acf 7c3c 340b 643d
00000290: e264 953d 0b5b efbb a8f6 253d e7f3 783c
000002a0: e6d2 38bd 80e8 93bd a81d 2ebd 8e74 a53d
000002b0: eda1 de3d 161f 073d bc78 393e e757 ae3e
000002c0: 5825 423e a6c0 603e fa04 b23e 0552 543e
000002d0: 865f 593d 1bfb 433d c634 22bc 2974 bc3d
000002e0: 9d32 b63d 0787 a63d d4f4 073d cafa 1e3d
000002f0: 353c e53c 2fe1 ca3c 6821 c23d f767 c33c
00000300: 99fb b53d bb69 9b3d 66a6 fa3c e1cd ff3d
00000310: 6e3c 9c3d ace8 4a3c 0d79 503d c32b cd3d
00000320: 256b 023e c11f 393d 63ec 913d baf4 083e
00000330: 1465 1dbd 1b17 98bd ac4a 24bc f0ec 123e
00000340: b151 9f3e 810c 573e e941 7c3e ac14 e73e
00000350: 4e23 8d3e a4c1 c93d f38b 1b3e 09eb e43d
00000360: 9c67 9c3c ec70 ab3d 8a28 653d 30fc 883d
00000370: 1e52 083e 2f21 723d 45cb 9c3c e11d d73c
00000380: c930 e93b 8f75 093e 047e cb3d 9ff6 9abc
00000390: 376c d43d 3c3e 1e3e ee0f bb3b 3689 21bd
000003a0: 0b94 cc3d 5930 423d d879 94bd 1a28 8dbd
000003b0: 5169 0f3c f6b2 d8bd c535 35be 61e1 d3bd
000003c0: 00b4 49bd aa5d 31be 7707 fbbd c9ac 563d
000003d0: 4c01 d23d edf3 cc3d 700e 443d abf3 d73d
000003e0: 5c5c e53d ebb8 653d 1419 1c3d 28a5 90bc
000003f0: 8946 cb3b 2ab3 57bd cd02 003d da57 2e3d
-0.019896684 -0.020773541 -0.012646911 -0.0048353337 0.054213025 0.06044436 -0.032778453 -0.009657914
0.0016833554 0.0071970164 0.056065768 0.053793423 -0.08404992 -0.11214964 -0.043124635 -0.056185607
-0.14031322 -0.062876016 -0.033451106 -0.04883676 -0.015650537 -0.0225913 -0.036355074 0.020721834
-0.037386216 -0.024054078 -0.00046196455 0.06063531 0.016593082 0.011332486 0.07404183 0.091254264
0.10894748 0.032407746 0.042386558 0.008993128 -0.021278167 -0.042499375 -0.07445267 0.010032101
-0.13142477 -0.120627396 -0.0022052783 -0.06322967 -0.06438096 -0.027770594 -0.109734416 -0.105178006
-0.054488257 -0.11606794 -0.17401865 0.015482934 -0.042463254 -0.090094134 0.08307838 0.09507942
0.019098915 0.054379407 0.046537656 -0.031492908 0.036666017 0.023783976 -0.010310904 -0.010055339
0.029219892 0.033463832 0.03346866 0.08298483 0.095763385 -0.008085737 -0.07407347 -0.045087192
0.018374685 0.01104695 0.020383315 -0.08280101 -0.033074368 0.036845166 -0.11587107 -0.07539346
0.0013570504 0.112923205 0.19837278 0.1144565 0.10557433 0.16152424 0.09109743 0.04369246
0.035422813 -0.010540528 -0.04978933 -0.0037786013 -0.018125318 -0.2005031 -0.22532272 -0.08394244
-0.13644986 -0.21659909 -0.13805284 0.041343775 0.0029915501 -0.018729027 0.123080194 0.11407713
0.035500534 0.058886856 0.09047912 0.06955241 0.042724762 0.0061625065 -0.004041723 0.047654428
0.09214667 0.09804183 -0.010678582 0.056657758 0.086763784 0.0070522437 -0.037094846 -0.02262508
-0.0919298 -0.14457503 -0.11315292 -0.05148061 -0.14092854 -0.14899972 0.03367766 0.05508147
0.021458222 -0.0025215433 -0.022038445 0.0038084826 -0.02657132 -0.13107757 -0.11941756 0.049167518
0.0032795563 -0.082427785 0.010951459 -0.100947395 -0.07637745 -0.0457897 -0.09102845 -0.005971257
-0.07610076 -0.12432923 -0.04661269 -0.030250408 -0.10707682 -0.026573831 0.099814735 0.10918218
0.11509233 -0.07814494 -0.023309711 0.10056741 -0.10319806 0.012953589 0.13875498 0.009574987
0.055324003 0.122950226 0.015430326 0.055674747 0.072946325 -0.0073045543 0.040518433 0.01519487
-0.045123003 -0.0722208 -0.04250875 0.08078872 0.10870729 0.03298863 0.18112463 0.3405144
0.18959558 0.2194849 0.34769422 0.20734413 0.053069614 0.047846895 -0.0099002775 0.09201843
0.088963725 0.08131223 0.03319247 0.03881339 0.02798281 0.024765579 0.09479028 0.023853285
0.08885879 0.07588526 0.030596923 0.1249044 0.076287135 0.012384575 0.050896693 0.100181125
0.12736185 0.0451963 0.07125165 0.13374606 -0.038426474 -0.07426282 -0.010027569 0.14348197
0.31117013 0.21000864 0.24634518 0.4513296 0.27565998 0.09851387 0.15190105 0.11177642
0.019092374 0.083711475 0.055946864 0.06688726 0.13312575 0.059113678 0.019139895 0.026259365
0.0071164113 0.13423751 0.09936145 -0.018916426 0.10372203 0.15453428 0.005708686 -0.039437495
0.099891745 0.04740939 -0.07249802 -0.068924144 0.008753137 -0.10581009 -0.17696293 -0.10345722
-0.049243927 -0.17320886 -0.12257283 0.052410875 0.102541536 0.10007463 0.04786533 0.10544523
0.11199257 0.056084555 0.038109854 -0.017656878 0.006203477 -0.0526611 0.03125267 0.04256425

conv5.bn.weight f4 [32]
00000000: 70ff 0a40 4c43 5c40 639b 1940 0653 3e40
00000010: 9bff 2440 0033 0c40 ec46 1840 4039 2140
00000020: c729 7140 83a7 0d40 8a68 2a40 78d7 0740
00000030: fa4b 0540 ad83 2940 6fcc 8d40 286d 2e40
00000040: 56cb 4140 61cb 2540 e92a 1d40 842e 0d40
00000050: b1db 1940 fd16 1c40 1743 3f40 145f 1640
00000060: d1e8 1340 7c4a f63f 17b9 e23f 5db0 1240
00000070: a52b fd3f a9b5 2140 32c0 2b40 981d 2940
2.1718407 3.4416075 2.400109 2.9738173 2.578101 2.1906128 2.3793287 2.5191193
3.768175 2.213349 2.6626306 2.1225262 2.0827622 2.6486619 4.4312053 2.7254124
3.0280356 2.5905383 2.455744 2.205964 2.404034 2.438903 2.9884698 2.349553
2.311085 1.9241481 1.7712735 2.2920144 1.9778944 2.5267127 2.6836057 2.6424313

conv5.bn.bias f4 [32]
00000000: b4d1 c23f 0dd9 023f 1520 fa3f 188b 5b3f
00000010: bd5e 803e e28d 1b3f c77d d83e 80bd b93f
00000020: 7a43 723f be14 713f d92b 6a3e cd32 ef3f
00000030: 51f7 1d40 70e8 743f 66ed 6cbf 71c3 f33f
00000040: ef0b 923f 0698 713f 2837 2640 7e2c e63d
00000050: bfab 8e3e 7193 0540 7f78 cc3f 85af 1440
00000060: e940 443f 46e1 0840 1ef1 4b40 9943 e83f
00000070: 61f6 d43f 59e1 0540 5b6e 3c3f 5029 de3f
1.5220246 0.51112443 1.9541041 0.85759115 0.2507228 0.6076337 0.4228346 1.4510956
0.9463421 0.94172275 0.22868289 1.8687378 2.46822 0.9566717 -0.9254974 1.9044019
1.1409892 0.94372594 2.5971165 0.11238955 0.27865407 2.087124 1.5974272 2.3232129
0.76661545 2.1387496 3.1865916 1.8145629 1.6637689 2.0918791 0.7360589 1.7356358

conv5.bn.running_mean f4 [32]
00000000: beb7 4540 d83e e0bf 5770 e1be ae1e 8a3f
00000010: db85 a43f 77cf 8cbd 8f78 60c0 86f1 1740
00000020: 2c00 5a40 6dfd b63e 5cc9 cebf 779f bfbf
00000030: cd4a e1bf 6ce4 683f ad93 8ac0 5c59 92bf
00000040: e7d9 14bf 6c9d debf de39 dabe fd41 1540
00000050: 87bf d53f d42d 43bf 172c 873f 64d8 b6bf
00000060: 53d1 813f ac20 31c0 013a 203e c14d 12c0
00000070: d6de 1abf 113c 0940 d1f0 c9be 24b9 9dbe
3.0893397 -1.7519178 -0.4403102 1.0790613 1.285335 -0.06875508 -3.5073583 2.3741164
3.4062605 0.35740224 -1.61552 -1.497054 -1.7600952 0.90973544 -4.330527 -1.143352
-0.5814499 -1.7391791 -0.42622274 2.3321526 1.6699075 -0.76241803 1.056033 -1.4284787
1.0142006 -2.7676191 0.15647127 -2.2859957 -0.6049627 2.1442912 -0.3944154 -0.30805314

conv5.bn.running_var f4 [32]
00000000: 9639 d140 c16e ca40 96f6 d440 b7cd 8840
00000010: 5327 9a40 4c87 8c40 9244 8340 7c60 ad40
00000020: 00a6 d940 58e7 ba40 c969 a940 eda1 b540
00000030: c33b 8d40 417b 9340 d1a3 f440 7d40 b240
00000040: 55f9 ee40 3a96 b440 6994 b940 cc09 dd40
00000050: ad10 9240 8d72 cf40 be69 9a40 a2e1 b040
00000060: 1dc1 a940 6588 8440 055d 8740 8fae 8640
00000070: 3ba8 8840 4f05 b340 3b03 8b40 57af db40
6.5382795 6.32602 6.655101 4.2751117 4.8173003 4.3915157 4.1021204 5.418028
6.8015137 5.84074 5.294163 5.6760163 4.413545 4.6087956 7.644997 5.570372
7.467936 5.643338 5.7993665 6.907446 4.5645356 6.4827332 4.825408 5.527543
5.3048234 4.1416497 4.230105 4.2088084 4.270536 5.594398 4.3441443 6.865154
