weights/face_attr00/last.onnx (onnx, 927566 bytes, 59 tensors)

dec1.conv.weight f4 [32, 32, 4, 4]
00000000: a174 5dbc 5fc0 59bb e60c 8b3d b517 893d
00000010: 8181 fa3c 29dc bdbd 67b4 b1bc 630d 1abd
00000020: 35e4 8e3d c851 d33d 4cca e33d ef32 bfbb
00000030: b398 953c 51e9 4fbd 27fa 033d 4fc6 c8bc
00000040: 3b5d 64bb e7df 80bd 056f 12bd 82b1 8f3c
00000050: 7149 7d3c 6aab 37bd a7ff 1cbd a4b3 6b3d
00000060: e25c 413d 14cf aabc 93a6 69bc 145a d13c
00000070: e1c5 263d f0f0 b0bb 6852 193d 010b 26bc
00000080: be1d 213c 304b 53bd 1461 313c a0c9 21bc
00000090: 4ba4 1f3c e67e 85bd d1a6 a6bc 96e0 113d
000000a0: c6ff 12bc a997 93bd d89c 1ebd d856 303b
000000b0: bddf fb3b 1708 e83c 2c11 b33c 041a a23d
000000c0: 6aee 95bd bbf5 e23d d095 a73d f139 bcbc
000000d0: e221 6a3b 05fe b63d e1da a73d c8df d63c
000000e0: a2b9 b93b 6a5c bd3c 1c06 08bd a4dd dc3c
000000f0: 3e9e 9dbb f931 1abd 6c43 d1bc 9e6f 66bd
00000100: 8ee9 1fbd b95a 013d f3b9 4abd 3c10 8cbc
00000110: b667 9dbc b67d 963c 8894 04bb c442 89bc
00000120: bb8b f23b d297 a13c 9ad0 4f3b 7420 2cbb
00000130: 6920 643c 1bc2 00bc e772 0f3d 2245 e6bc
00000140: 93f1 99bd 6213 e03c f53e c0bc d51e 2c3d
00000150: cfd7 0ebd d8bd 3f3c 0b1f b3bc a881 973d
00000160: abc5 363d 9a55 bfba fba3 48bd 10ca 493d
00000170: e197 be3d eda8 393d 5888 993c fbe5 07bb
00000180: 0c88 8abc 0e16 55bd 1d80 2cbc 0510 903c
00000190: 29e2 39bd 844e 953c 4fbb a73c 4f3f 343d
000001a0: 5128 f6bc 0705 2b3d 15d8 473d 73cb d23d
000001b0: 6855 c6bb 8ecc 493c ae14 35bc ae46 8b3d
000001c0: f313 5f3d 5ead 843c 5c24 ce3c 2286 0abd
000001d0: 8e0d 1abc cc7f 97b8 6765 00bd 8be5 92bc
000001e0: 9301 133c 5934 2abc 75be 943b 5d8d 13bd
000001f0: 4d21 c9bc 0305 23bb 5ebd 983b 0c19 41bc
00000200: d502 77bd 06d0 f93b de7b cebb 9a03 08bb
00000210: 4d2b 83bd 0eef 263d 1808 8d3c 68e4 843c
00000220: b4c0 21bd 2f22 28bc a39c 26bd c797 e43c
00000230: 4bc0 bb3b 5c8a 923c bfcf f83c af1d ca3d
00000240: 8e1f cdbb c1e2 afbc 3b03 7eba bb30 f0bb
00000250: fe9a e4bc b2bc 603d 0e14 973b 4743 7cbd
00000260: a995 99bd dbfa 05bd 7ba7 e2bc d71e d9bc
00000270: ff9a 5abd 65f7 b8bc cbd0 d73c d8dc 7db8
00000280: ca78 55bc ee90 8c3d de83 503d 07f0 853c
00000290: 023e 1a3d 8a19 b93b f95e 523d a913 363d
000002a0: a756 bdbd 32f7 7bbd 02ba a73c cd4b 513d
000002b0: 065a c8bc 21f2 b53c 18ae 923c c540 cbba
000002c0: 9365 5ebd ce67 93bd f492 b4bd db95 acbd
000002d0: a3cd 90bc 790d b3bc 28a9 f2bc 7c88 efbb
000002e0: 5b34 8f3c a870 2dbc 8ac3 ccbc a6ea 233c
000002f0: 0734 d53c 9622 efbc 4563 b8bc 7b84 0abd
00000300: 56cf 3c3b a5b4 4a3d fe76 5dbd 6b2d b43d
00000310: 0bfc 0fbd b784 d53c 49fe 5ebc ceee 683c
00000320: d497 0cbc 88dc 393d 0e8d f13c 635e f33b
00000330: 670a 8f3c a68b 24bd bb3e 76bd 7f57 94bd
00000340: 2f4d d63c b924 8ebc 1bc7 54bd 2ccb 563c
00000350: bf36 c13c 774a 4b3d c078 fa3c 1006 ab3d
00000360: c23b 3ebd 5480 7bbd d594 c6bb 03c5 903d
00000370: f3e3 2fbd fcad 5fbd 84b5 b2bc 25b8 a4bc
00000380: 6c83 4cbc 70d1 33bd 7cc8 b63c be67 abbb
00000390: 5635 3ebd bb91 57bd b344 d0bc 238a 2cbd
000003a0: be18 db3c c21f 89bc 18d8 d03b 1660 70bc
000003b0: b066 e53b 51ef b1bb 4e7b 4abd 060d 41bd
000003c0: b26e aabd b116 b93c 619c 203c 9aee be3c
000003d0: c721 febc 1aba 443d bd80 343d 4e0e 29bb
000003e0: 5bc9 a0bd 0d84 a6bd 30c6 b3bb 176a 55bd
000003f0: 1dcd ff3c b641 e8bc 346b 4cbb ddd1 a0bd
-0.013516576 -0.0033226234 0.067895696 0.06693975 0.03057933 -0.09270508 -0.021692468 -0.037610423
0.06977121 0.10318333 0.111225694 -0.005834929 0.01826129 -0.050759617 0.032220986 -0.024508623
-0.0034845609 -0.06292706 -0.035750408 0.017540697 0.015459404 -0.044841208 -0.038329747 0.057544366
0.04720772 -0.020850696 -0.014260906 0.025555648 0.040716056 -0.0053998157 0.037432104 -0.0101344595
0.009833751 -0.051585376 0.010826368 -0.009874731 0.00974376 -0.065183446 -0.020343216 0.035614572
-0.008972114 -0.07206661 -0.038723797 0.0026907232 0.007686584 0.02832417 0.021858774 0.07915118
-0.073208645 0.110820256 0.08182871 -0.022976847 0.0035725762 0.08935169 0.08196045 0.026229754
0.005667881 0.023115356 -0.03320895 0.026961155 -0.0048101237 -0.037645314 -0.025544845 -0.05625879
-0.039041094 0.03158066 -0.04949374 -0.017097585 -0.019214492 0.01837049 -0.0020230133 -0.01675547
0.007401911 0.019725714 0.003171003 -0.002626446 0.013923743 -0.007858778 0.03502169 -0.028109137
-0.0751678 0.027352992 -0.02346752 0.04202159 -0.03487378 0.011702977 -0.021865388 0.07397777
0.044622105 -0.0014597655 -0.04898451 0.049264967 0.09306312 0.045327116 0.018741772 -0.0020736444
-0.016910575 -0.052022986 -0.010528591 0.017585764 -0.0453817 0.018225916 0.020475058 0.04400569
-0.030048521 0.04175284 0.048790056 0.10292711 -0.0060526617 0.012316836 -0.011052294 0.068005905
0.054462384 0.01619595 0.025163822 -0.033819325 -0.009402646 -7.224045e-05 -0.031346705 -0.01793172
0.008972543 -0.010388457 0.004539306 -0.036023486 -0.024552012 -0.0024874813 0.004661246 -0.011785757
-0.060305435 0.0076236753 -0.006301387 -0.00207541 -0.06404743 0.040755324 0.017215773 0.016222194
-0.039490417 -0.010262056 -0.040676724 0.027904404 0.00572971 0.01788824 0.030372499 0.09868943
-0.006259865 -0.02147043 -0.00096898124 -0.007330028 -0.027905937 0.054867454 0.004610545 -0.0615876
-0.074992485 -0.032709938 -0.027667752 -0.026503963 -0.053370472 -0.022578904 0.026344677 -6.0525577e-05
-0.013029287 0.06863581 0.05090701 0.016349806 0.03765679 0.0056487964 0.051360104 0.044452343
-0.09245043 -0.06151504 0.020474438 0.05109768 -0.024456989 0.022210183 0.01790528 -0.0015506974
-0.054296087 -0.071975335 -0.088170916 -0.0842702 -0.01767618 -0.02185701 -0.029621676 -0.0073099714
0.01748102 -0.010585941 -0.024995584 0.010004675 0.026025785 -0.029191297 -0.022508273 -0.03381775
0.0028810105 0.049488682 -0.054068558 0.08797725 -0.035152476 0.02606426 -0.013610431 0.014217092
-0.0085811205 0.04537633 0.029486205 0.0074270233 0.017461015 -0.04017224 -0.06011842 -0.07243251
0.02615985 -0.017351495 -0.051947694 0.013109963 0.023585675 0.049631562 0.030575156 0.08350766
-0.04644371 -0.06140168 -0.0060602226 0.07068827 -0.042942 -0.054609284 -0.021815069 -0.020107338
-0.012482505 -0.043900907 0.022312395 -0.005230873 -0.046437584 -0.052629214 -0.025423383 -0.042123925
0.026745196 -0.016738776 0.0063734166 -0.014671346 0.0070007667 -0.00543014 -0.049434 -0.04713156
-0.08321895 0.022593828 0.009802909 0.023307133 -0.031021966 0.048029043 0.044068087 -0.002579588
-0.078509055 -0.081306554 -0.0054862723 -0.05210313 0.031225735 -0.028351646 -0.0031191828 -0.07852528

dec1.conv.bias f4 [32]
00000000: eac1 99bc a947 b6bc a915 bfbc 09af bc3b
00000010: aeac a2bc 8eda dfbc 55b5 11bc 410f 023d
00000020: 22c1 36bb 7024 d8bc 301e a6bc 3079 afbc
00000030: c186 343c c860 1abd ea7d b93c 20ba 323c
00000040: e965 febc 5356 033d f544 b2bc fb6f 273c
00000050: 301d 3c3c f3fc 653a f237 a13c c425 9bba
00000060: 2231 01bd d3e1 37bc dfce 16bd 99b8 053c
00000070: fc1c 173d 8d16 c53c 6423 d43c d083 70bc
-0.018769223 -0.022250967 -0.023325758 0.0057581705 -0.01985773 -0.027325895 -0.008893331 0.03175283
-0.0027886112 -0.026384562 -0.020278066 -0.021420091 0.011018456 -0.037689954 0.022643048 0.0109086335
-0.031054454 0.032064747 -0.021761397 0.010219569 0.011481568 0.0008773349 0.019679997 -0.0011836817
-0.031540997 -0.011223274 -0.03681838 0.008161687 0.036892876 0.024058605 0.025895782 -0.014679864

dec1.bn.weight f4 [32]
00000000: 4509 973f 0cc9 c73e 88a5 103f a6a1 193f
00000010: 4e0e cd3e fb5e de3e 33bc 233f 7943 df3e
00000020: 2825 e03e 351b e23e 10ae 1b3f 3169 cd3e
00000030: a13b 293f 39bb f03e 3820 183f 8c63 143f
00000040: ef39 023f f67e 083f 2492 943f 498b d73e
00000050: 2b2b 263f e5ee 833f 58fb cd3e f7f2 2b3f
00000060: 53a3 e33e c0ba d23e 39d2 1b3f 7fc8 343f
00000070: 7591 863e fe1c c93e 8c9a 913f 661c 283f
1.1799704 0.39020574 0.5650258 0.6001228 0.40049976 0.4343184 0.63959044 0.43606165
0.43778348 0.44161382 0.60812473 0.40119317 0.6610661 0.4701784 0.5942416 0.57964396
0.5086965 0.53318727 1.1607099 0.42098454 0.6490962 1.030728 0.40230823 0.6716761
0.44460544 0.41158104 0.6086765 0.7061843 0.2628285 0.39279932 1.1375289 0.6566833

dec1.bn.bias f4 [32]
00000000: 4bcc 06bf ce3f 863e 5021 f4bd 8e90 d63d
00000010: 83d6 8bbe 68a4 fabb 4b5c 73be 0ae1 84be
00000020: ae1e 943d cad6 ddbe 6336 903d 78e1 d1be
00000030: da63 a8be 727c 46be 0bdb 94be f8b0 ccbe
00000040: 8ec3 92be e661 ddbe 5246 b6bd d9a6 ecbe
00000050: fd2f dcbd 1a54 15be 7408 b5be 68b4 b0be
00000060: b83c 05bf 9fb5 eebe ec3d 06bf 91aa 0cbf
00000070: bd16 9fbd cb77 cdbe d87c 02bf a2e9 c8bc
-0.52655476 0.26220554 -0.11920416 0.1047679 -0.27312097 -0.0076489933 -0.23765676 -0.2595294
0.07232414 -0.43327934 0.070416234 -0.40992332 -0.3288868 -0.1938341 -0.29073367 -0.39978766
-0.2866482 -0.43238753 -0.08900131 -0.46221045 -0.107513405 -0.14582863 -0.35358012 -0.3451264
-0.52045774 -0.4662294 -0.52438235 -0.54947764 -0.07768009 -0.40130457 -0.50971746 -0.024525467

dec1.bn.running_mean f4 [32]
00000000: f0a3 703f 40c4 c53e 7805 e8bd 8792 1c3e
00000010: 34e6 8a3e 1788 debe bdf6 9e3d 7591 24bf
00000020: 4635 86bd eff7 fb3d 21a1 a4bd c665 403f
00000030: 6482 753f 8957 d63a a372 dfbe d6d6 813e
00000040: 859b f73e 7194 d33e 42b0 c9be a2a6 643f
00000050: 87b2 7d3e 4cf9 c63f e9e2 78be 32f8 95be
00000060: dad4 30bf c720 9a3d 43ae 4d3d 0fd7 7bbd
00000070: 3991 0ebf dae6 2cbf 8821 573e 7049 bd3e
0.9400015 0.3862629 -0.11329168 0.15290271 0.27128756 -0.43463203 0.07761905 -0.6428445
-0.0655313 0.12303149 -0.080385454 0.75155294 0.95902085 0.0016352992 -0.43642148 0.2535922
0.4836084 0.4132419 -0.39392287 0.8931676 0.24775134 1.5544829 -0.2430531 -0.2929092
-0.69074786 0.07525783 0.050215017 -0.061484393 -0.5569034 -0.6753975 0.21008885 0.3697009

dec1.bn.running_var f4 [32]
00000000: 13d9 7e3f 24cf ba3e 5561 ba3e c5db f93e
00000010: 8dd2 963e 10ea 943e edca fd3e e5fb c43e
00000020: c2fa aa3e 51c2 8d3e 7b3e cb3e d9fb d33e
00000030: 1c2a 323f 51b0 9c3e e496 fd3e 0e63 d63e
00000040: 0ebc be3e 32bf 033f df70 a63f 64aa d23e
00000050: f7ea eb3e be54 813f 664d a23e 8be7 e73e
00000060: a5f8 a43e 044d 903e 1cb1 003f 91a6 ed3e
00000070: ad97 993e f093 ac3e c0de 873f 03d1 fb3e
0.9954998 0.3648616 0.36402383 0.48800483 0.29457512 0.29084826 0.49568883 0.3847343
0.33394438 0.27687314 0.39696106 0.41403082 0.69595504 0.3060327 0.49529183 0.41872448
0.3725285 0.51463616 1.3003196 0.41145623 0.460777 1.0103986 0.31699675 0.4529384
0.3222095 0.28183758 0.5027025 0.46416143 0.29998532 0.33706617 1.0614853 0.491829

fc1.fc.weight f4 [64, 64]
00000000: 7c1d 103b a5ad e43c 2319 05bd 63fd bfbc
00000010: 3486 593d 224c 1fbd 7ca5 f73c 7c73 2dbb
00000020: 2409 cebc 51e3 943c 349c a1bd 26c4 08bd
00000030: f887 1e3e d4ad 353d 4af5 b13d d72f 03be
00000040: 9d16 653c ca8c 553d 925d 263c d1af ee3c
00000050: b3df 5a3d 504e 69bd 3132 efbb 8957 db3c
00000060: fd58 5c3d f981 02bc 0846 46bd 7334 d73d
00000070: 8c3f 34be 4622 c73c 4a67 743d 61c2 dc3d
00000080: 0e71 e1bd d050 7f3d 0d54 3cbd 5dce 033c
00000090: 63f0 24bc 9cd2 db3c 5ef4 75bd 0d83 32bd
000000a0: 9cb8 3a3e 491b 213e 1df0 ae3d adfc a0bd
000000b0: c914 763c a486 883c 0ac7 2ebe 17e4 b1bd
000000c0: 4046 0fbe c37e 02bd 6451 38bd a81a 16be
000000d0: 9c30 303d 7484 63bd 362f 4b3d 21c7 e8bd
000000e0: e6fc a6bd 8b33 af3d cfcb 8cbc e39e b83c
000000f0: 1b18 f9bc 29a3 023c b175 c5bc 8c73 aa3d
00000100: 007c 65bd 4bcf 1ebe d9c3 8dbb 3d80 d7bc
00000110: 6e46 63be c559 e53c 32cd 2b3e 514e 183e
00000120: 9894 7e3d 0234 bbbc 270e 8f3c 44a0 acbe
00000130: b385 b03d 163c d03d a1b5 7ebc 158a ae3c
00000140: 35c9 d6bc 7245 b03d 975f 1cbe d8da 763c
00000150: da3c 033e d020 cc3c 9ec6 99bb 260d abbd
00000160: e482 27bc 63c2 88bd b417 373d c0f3 96be
00000170: 4b5e 893d 8b6f bcbc dcb2 28be 9138 0d3b
00000180: 0a9a 913d 1c86 e03a 1e9b 0a3d 0c04 92bc
00000190: 33e0 b03d 5512 abbd 9e50 8cbc 4e34 2cbd
000001a0: 962b 9ebd 0bb7 eb3b 7941 86bd dd17 6abe
000001b0: 3f46 053e 3ce8 993c 8138 123e ffe1 cb3b
000001c0: 7028 a6bb 89db 57bb 262e 28bd 196b 5cbe
000001d0: b23a 27bc 9435 dabc e1be 5bbd 1c73 b03d
000001e0: b09d 093d c930 e03d 3a25 023e 4426 453e
000001f0: 2a29 3dbc bb2d 71bd f47e 06be 9ded 6b3d
00000200: d28c 6fb6 6340 7e36 39c4 78b6 b8e2 80b6
00000210: b2b6 07b6 3acf 0eb6 b435 b034 0b70 02b5
00000220: da70 12b5 a285 d5b5 30f9 aab5 a8eb 4fb6
00000230: e12e 5db6 e57e 36b6 6a4b 5bb6 70b1 9b35
00000240: 0be5 cb34 16a8 55b6 b433 83b6 ddd0 6bb6
00000250: 6706 d4b5 3eb4 c5b5 b82c 4db6 61cc 2cb6
00000260: cee0 82b6 210d a1b4 c363 8635 eb13 39b4
00000270: 6c3d 9fb4 6e57 8f35 9ffc 22b5 9407 1b35
00000280: 17a5 02b5 d61e 5434 aa4b 75b5 f8d7 c7b5
00000290: 4117 57b5 4c35 d334 7573 e6b4 4ae6 25b6
000002a0: bf47 44b6 365d 8336 d86e c234 27b8 34b6
000002b0: 562c 7b36 7b34 4eb6 1192 6636 bf7c 43b6
000002c0: ae7f 73b4 4a8a 2eb5 8915 40b6 ab21 e7b5
000002d0: cb4a 4536 1d41 2336 14d8 afb5 4b4e 8fb6
000002e0: 347e 13b6 7a9c 4e36 031c 8336 e83a 0cb6
000002f0: db92 4436 008a 19b6 e29d 51b6 f696 2d35
00000300: 9d7f 9fbc 415b 55bd e961 8a3d d199 1cbe
00000310: 8252 c73c 0d87 c3bd 43c1 79be e9b7 843d
00000320: 41aa 81bd a0d3 a83c 4a50 70bd c0dc 2cbd
00000330: 07cd 943c 9c78 73bb 5904 bbbd c250 353c
00000340: ff55 a6bd 8a8c a2bd 850d 10be f49e cdbc
00000350: 21bc 9bbd 3b44 a5be b377 ac3d e40a 85bd
00000360: 3d49 613c 9562 e2bd cce9 90bd aee4 cc3c
00000370: 4a52 71bd 3b2a be3d a162 4abd 6a49 a03d
00000380: 6949 243b a5f4 c2bd a83d 113e 6ce7 2fbd
00000390: 4c77 263d ead6 c1bd 3523 29bd db38 d8bd
000003a0: 0b6c 983d ecc0 4a3e be10 dbbd bc1f 0a3d
000003b0: b638 7c3c 5ebe a0bd 7316 ddbc be0c 353c
000003c0: 4ddc d0bd 9f17 04be 9a8b 0b3e 0a10 153e
000003d0: 8870 97bd ea44 9ebc ad72 15be 7139 263d
000003e0: 6074 6cbc cb3d d23c 9b88 9cbc 6a7e b73d
000003f0: a11c 563c 3fa4 32be 3d12 6abc 5983 99bd
0.002199023 0.027914831 -0.032494675 -0.023436254 0.0531065 -0.038890965 0.030230276 -0.002646654
-0.025150843 0.0181748 -0.078911215 -0.033390187 0.15481555 0.04435523 0.08689363 -0.12811218
0.013982442 0.05213622 0.010154145 0.02913657 0.053435992 -0.05695945 -0.0072996845 0.026775138
0.053795803 -0.007965558 -0.04840663 0.10508051 -0.17602366 0.024308335 0.059668817 0.10779262
-0.110078916 0.06233293 -0.045978595 0.008044806 -0.010067078 0.026833825 -0.0600475 -0.04358201
0.18234485 0.15733065 0.08541892 -0.07860694 0.015019604 0.016665764 -0.17068115 -0.08686083
-0.13991642 -0.03185917 -0.044999495 -0.14658606 0.043015108 -0.05554624 0.04960557 -0.11366106
-0.08153705 0.08554753 -0.017187027 0.0225367 -0.030407002 0.007973471 -0.024103971 0.0832282
-0.05602646 -0.15508763 -0.0043263254 -0.026306266 -0.22194836 0.027996907 0.16777495 0.14873625
0.06215343 -0.022851948 0.017462803 -0.33716023 0.08619251 0.101677105 -0.015546233 0.021306077
-0.02621899 0.08606996 -0.1527084 0.015066825 0.12816182 0.02491799 -0.0046928665 -0.08352117
-0.010224078 -0.06677701 0.04470034 -0.29482841 0.06707438 -0.023002407 -0.1647448 0.0021548609
0.07109459 0.0017129811 0.033839338 -0.017824195 0.086365126 -0.08353106 -0.017128285 -0.04204207
-0.07723157 0.0071934513 -0.06555457 -0.22860666 0.13015078 0.018787496 0.14279367 0.006222009
-0.0050707385 -0.003293725 -0.041059636 -0.2152523 -0.010206865 -0.026636876 -0.053648833 0.08615705
0.03359765 0.10946805 0.12709513 0.19252878 -0.011545459 -0.058881503 -0.13134366 0.057599653
-3.5695743e-06 3.7886427e-06 -3.7069096e-06 -3.841091e-06 -2.022291e-06 -2.128027e-06 3.282163e-07 -4.859182e-07
-5.455346e-07 -1.5908629e-06 -1.273851e-06 -3.0982574e-06 -3.2958853e-06 -2.7193976e-06 -3.267744e-06 1.1600041e-06
3.7978347e-07 -3.1837312e-06 -3.9101233e-06 -3.5139303e-06 -1.5797094e-06 -1.4730101e-06 -3.057341e-06 -2.5748961e-06
-3.9004726e-06 -2.999814e-07 1.0012812e-06 -1.7236714e-07 -2.9660748e-07 1.0679776e-06 -6.0717315e-07 5.775303e-07
-4.866901e-07 1.9755257e-07 -9.137972e-07 -1.488951e-06 -8.012758e-07 3.934059e-07 -4.2924844e-07 -2.4720962e-06
-2.9248038e-06 3.9149554e-06 3.6215965e-07 -2.692928e-06 3.7427722e-06 -3.072694e-06 3.4357693e-06 -2.9129876e-06
-2.2677588e-07 -6.502129e-07 -2.8622765e-06 -1.722064e-06 2.9398823e-06 2.4326794e-06 -1.3101403e-06 -4.2708466e-06
-2.1978167e-06 3.0787473e-06 3.907365e-06 -2.0895914e-06 2.9291757e-06 -2.2879103e-06 -3.1235327e-06 6.46672e-07
-0.01947003 -0.05208898 0.06756956 -0.15293051 0.024331335 -0.09547243 -0.2439013 0.064803906
-0.063313015 0.020608723 -0.05867032 -0.04220271 0.01816417 -0.0037150746 -0.091316886 0.011066617
-0.08121871 -0.07936962 -0.14067657 -0.025100209 -0.07604242 -0.32278618 0.08421268 -0.06496218
0.0137503715 -0.11053959 -0.07075843 0.025011387 -0.058916368 0.092853986 -0.049410466 0.078265026
0.002506817 -0.095193185 0.14183676 -0.04294531 0.040641114 -0.0946482 -0.04129334 -0.10557719
0.074424826 0.19800156 -0.10696553 0.03372167 0.01539438 -0.0784881 -0.026988244 0.011050401
-0.10198269 -0.12899636 0.13627473 0.145569 -0.073945105 -0.01931997 -0.14594527 0.040582124
-0.014432043 0.02566423 -0.019108107 0.089596584 0.013068349 -0.17445467 -0.014286575 -0.07495756

fc1.fc.bias f4 [64]
00000000: 75f3 cd3b cffd b03e 1ae2 cdbd e942 ca3e
00000010: 51d3 403d ac27 2e3f f9bf b5bd d4d5 493f
00000020: 8a6e 0c3f 2d4d b7be a158 87be 46d6 ecbd
00000030: 1fcb d83f 5cf4 0d3e e640 e03e 08a7 903e
00000040: b195 ebbb 2c32 e53e 0105 4c3e ea58 913e
00000050: 92a9 c83e 165a de3e ce05 213e f467 8a3e
00000060: 7822 9dbe 31aa dd3e b90a a43e fdb3 5b3f
00000070: d443 603e e6dd da3c fb76 4d3f 9a9e 1fbe
00000080: 252f e63e abba 393e cb4f c03d 83da 3e3e
00000090: aa0b 3a3f 0d95 b53c 2ae2 27bf 0f1d e03e
000000a0: b97d 543f 78f0 dcbd 7dd1 d33e f657 303e
000000b0: 9be9 93be 9565 b2bd adbb bdbd 551a a03e
000000c0: c376 bf3f 465b ac3e 9161 ba3e 2771 2b3e
000000d0: 62a2 123f 5a99 9c3c b2fc 8b3e fd3a 7b3e
000000e0: 4c94 383f 0e61 853e f70f 263f f4c7 6d3e
000000f0: ccd3 c03d f79e 3fbd b398 30bf 34d4 233f
0.006285126 0.3456864 -0.10052891 0.39504173 0.047076527 0.68029284 -0.088745065 0.788419
0.5485617 -0.35801068 -0.26434806 -0.11564307 1.6936988 0.13862747 0.43799514 0.28252435
-0.0071894755 0.4476484 0.19923784 0.2838815 0.39191872 0.43428105 0.1572487 0.27032435
-0.3069036 0.43293908 0.3203943 0.85821515 0.21900874 0.026717138 0.80259675 -0.15587845
0.44957843 0.18137614 0.09390219 0.18638043 0.7267405 0.0221658 -0.65579474 0.4377217
0.8300434 -0.10788053 0.41370764 0.17221054 -0.28889164 -0.087107815 -0.09264312 0.3127009
1.4958118 0.33663386 0.36402562 0.16742383 0.57279027 0.019116092 0.2734123 0.24534221
0.72101283 0.2605061 0.6486811 0.23220807 0.09415397 -0.04678246 -0.68983 0.6399567

fc2.fc.weight f4 [1, 64]
00000000: 9d62 c2bc 2fa8 9b3e ea43 b4b5 d560 223e
00000010: e703 9c3e 552c 3d3e 5f45 ee3b 6eff 7a3e
00000020: 825d dc3e 2928 0e3d 2741 283e 3a69 813e
00000030: 8497 9ebf 7582 d43d db6c 1bbd 4603 2dbd
00000040: ce07 2a3f faf0 fdbc 8514 1d3f 8597 133e
00000050: 6653 2fbf 1833 693e c261 e73d db72 eebd
00000060: f0ab 9f3d bdfd 8d3c 6226 d23e bdb2 68be
00000070: 4b4a 183e 6e07 4a3c ae4f cebd 1aac a83e
00000080: 1fa4 bd3d b6a2 103e 0fb9 7a3d 3ef5 2e3f
00000090: 3edc 68bf ce91 1b3e c305 093f c6ac ae3d
000000a0: f43d 12bf 32ce 683e 6536 5a3d 8de9 163d
000000b0: 6849 723e 1e20 483e f45c c23c c211 983e
000000c0: ba8f 6cbf e6df a23e 29f3 08bf 39f7 6e3e
000000d0: 724a edbd a27a 253d 9633 673d 9e91 123d
000000e0: d473 5c3e 8b49 823e 2c92 cdbd 54d8 49bd
000000f0: cfbc 413e 98dd 5a3f 887d 9c3c bd41 c93e
-0.023728663 0.3040175 -1.3430811e-06 0.15857251 0.30471727 0.18473943 0.0072714533 0.24511501
0.4304009 0.03470627 0.16431104 0.25275594 -1.2389989 0.10376445 -0.03794561 -0.04223945
0.6641816 -0.030998696 0.61359435 0.14413269 -0.6848663 0.22773397 0.11297943 -0.11643001
0.07796466 0.017332906 0.4104491 -0.22724433 0.1487209 0.012330873 -0.100737914 0.32943803
0.09259819 0.1412457 0.061211642 0.6834296 -0.9096106 0.15192339 0.53524417 0.08529048
-0.5712578 0.22734907 0.05327453 0.036843825 0.23660815 0.19543502 0.023725964 0.29701048
-0.9240681 0.31811446 -0.5349603 0.23336495 -0.11586465 0.040400155 0.05644568 0.035783403
0.2152856 0.25446734 -0.10037646 -0.049278572 0.18919681 0.85494375 0.019102827 0.39307967

fc3.fc.weight f4 [32, 64]
00000000: a802 3abb c237 a03b 7a52 7b36 d383 84b9
00000010: 6f5d 01ba 4a45 2d3b 4eb8 9839 93ba d23a
00000020: 6309 813a e415 3b39 b11b 00b9 848d 303b
00000030: 6c18 d13a d238 80b9 336b 87ba da8b f6ba
00000040: f188 7e3b 1b86 913b 6807 abba aa44 c439
00000050: 31bb 1537 9d67 17bb 34eb 873b 726b 33ba
00000060: baad 9539 64c5 83b9 0e78 843b d844 943b
00000070: 5ae8 b33a ebee 3c3b b52d b13a 9f4a bd3a
00000080: 88c9 37bb 8dbd c1ba efb8 cdba 26a5 9aba
00000090: 8e24 62ba 81b8 703b c446 fe3a 780d 053b
000000a0: a32d ba3a 3043 75b9 9948 87bb 1442 20bb
000000b0: 5674 933b 984e ef3a 9970 8c3a f78f 29bb
000000c0: ae23 66bb 2c42 ee39 41d3 d9ba ff45 63b7
000000d0: 83d7 43bb df66 8c39 e296 18ba b6fa 35b9
000000e0: 8a4e aa3a d808 03ba 6dac b839 993a 09bb
000000f0: bad7 eb39 971f 7fbb 0a64 18b8 743d be3b
00000100: 03d6 16ba 47db 58bb 313a 17b6 80fc 3f39
00000110: 150e 85ba 26e8 dfba 7642 103b 3f8a abba
00000120: 43b7 293b dafe 70ba af1e 81ba c818 4f3b
00000130: ef53 b7ba 2210 b13a 5399 56ba ac49 03bb
00000140: 8828 11b8 2e21 0cba dc63 cdba 4f17 d1ba
00000150: 61a4 8e39 786c 43ba 1b5b 043b 2727 17bb
00000160: f0e9 14ba b2b7 a2ba b9ef 41ba 439a 29bb
00000170: 00ed 19bb 7f43 5fba dd46 a9ba ab8e f83a
00000180: 8581 31b9 c0a6 4ebb e82c 85bb 6d16 c3b9
00000190: 8fc2 173a 4ad0 a13b 0c9f 23bb 5cac d9ba
000001a0: a5c1 523a 97cf 9c3b 4d3d 8eba f7aa ceba
000001b0: 8403 193a 5610 7cba 89c8 243a 5c0e 583b
000001c0: 7b79 f0ba 94ca 8f3b dea4 aeba 972c ebba
000001d0: fd9b a939 db89 6dba e466 b0b9 95a0 283b
000001e0: 41b8 0b3b 0e61 923a 2f32 c7ba 24d7 3dba
000001f0: 038c 073b 8895 aa3b 2933 ecb8 f2e2 bebb
00000200: 9e2d 7abc 5f16 fdbb 0872 6235 5cd8 32bb
00000210: c53f 44bc 063d 7a3b f556 003c 6a16 ed39
00000220: c814 c2bb 1a55 a8ba 3d88 ab39 8630 f43b
00000230: 3c6e 47bb 29f5 ae3b 66a4 383b 098a 8bbc
00000240: b3a9 a0bb 120e 83bb 0148 4cbc ac97 a4ba
00000250: 0a33 9d3a cc8b d0bb fb56 30bb 884a c1bb
00000260: ef66 183b 49ab 5b3b 07b3 ab3b db85 0dbc
00000270: 1906 f53a eac7 203b 52f4 bcbb 7276 dabb
00000280: 1349 81bc 7f4e b7bb 73a4 883b 00be 883a
00000290: 7136 1aba e044 a53b f6c3 903b 72d9 4ebb
000002a0: 6de9 36b9 edf2 1f38 c153 9d3b 82de bebb
000002b0: 24d3 943a 22ff 8bbc b087 bf3a 71b4 a83b
000002c0: ff61 073c 517f 333c 6b69 bf3b 439d c9bb
000002d0: 7ad4 ef39 7649 39bb 53f2 1eba cbd1 a83b
000002e0: d3dc 96bb 52e6 1ebc 96ba fcb9 37bf 8a3b
000002f0: 2cf9 0bba f02e 3f3c 8766 c8ba 84ba 39bc
00000300: 8f66 07be 61b4 06bd a6ce 85b4 75d1 b8bc
00000310: f45a 8bbd bb97 f63c 28f5 823d 7655 613b
00000320: f300 b4bc 0c02 ebbb 5f2a 3b3b 4fc1 813d
00000330: 7b2a b0bc f5f1 5f3d f5d7 c43c 5c56 07be
00000340: be68 7ebc 6adb 01bd e6ec b1bd abfc 2abc
00000350: b311 6f3c 924b 6bbd 8480 b1bc 7ee7 3dbd
00000360: bb7e 9b3c d29f eb3c 1b4c 3c3d 851b 9abd
00000370: 87ac 983c 6c0f de3c c7ed f2bc c114 91bc
00000380: b1fa f0bd 48c7 47bd f7b6 133d c3aa b33a
00000390: 9bd0 6abc 2bb5 2c3d a90e bcbc 4050 afbc
000003a0: 511e b53b ce38 ec3b 1d95 963c 0cff dcbc
000003b0: 58e5 6f3c f854 00be 078c 6e3c 9712 5f3d
000003c0: 91de af3d b8b8 c33d f0ea 6e3d 08e1 c7bd
000003d0: 0ba1 403b b81a f5bc 1c44 4bbc 138f 3b3d
000003e0: de97 3dbc 3689 85bd ef43 aeba fe48 d83c
000003f0: 05fb e13b 3d7c de3d a109 2ebc 9de7 b1bd
-0.002838293 0.0048894593 3.7449922e-06 -0.0002527522 -0.0004934882 0.0026439005 0.00029129017 0.0016077332
0.0009844716 0.00017841865 -0.00012217347 0.0026939819 0.0015952713 -0.00024456397 -0.001033163 -0.001880999
0.0038838948 0.0044410354 -0.0013048472 0.00037435192 8.924676e-06 -0.002310253 0.0041479114 -0.00068443187
0.0002854893 -0.00025133335 0.004042632 0.0045248084 0.0013725862 0.002882893 0.001351765 0.0014441794
-0.0028043706 -0.0014781222 -0.0015695373 -0.0011798486 -0.0008626663 0.0036731067 0.0019399752 0.0020302217
0.0014204275 -0.0002339005 -0.0041285274 -0.0024453448 0.0044999523 0.0018257676 0.0010714709 -0.0025873163
-0.0035116482 0.000454442 -0.0016618745 -1.3546552e-05 -0.0029883094 0.00026779526 -0.0005820823 -0.00017354902
0.0012993377 -0.0004998571 0.00035223682 -0.0020939468 0.00044983422 -0.003892874 -3.6332793e-05 0.0058056656
-0.0005753936 -0.0033089684 -2.2534625e-06 0.00018309243 -0.0010151291 -0.0017082735 0.002201227 -0.0013087465
0.0025896586 -0.0009193249 -0.0009851063 0.0031600464 -0.0013986806 0.0013508836 -0.0008186299 -0.0020032926
-3.460844e-05 -0.00053455203 -0.0015670019 -0.0015952381 0.00027206822 -0.0007454823 0.0020195905 -0.0023064108
-0.00056806114 -0.0012414365 -0.0007398087 -0.00258793 -0.002348721 -0.00085168326 -0.0012914796 0.0018963417
-0.00016928285 -0.0031532496 -0.004064191 -0.00037210007 0.00057891844 0.00493816 -0.0024966625 -0.0016607153
0.00080397195 0.004785489 -0.0010852009 -0.0015767504 0.00058370107 -0.00096154714 0.00062859856 0.0032967543
-0.0018346751 0.004388163 -0.0013324281 -0.0017942366 0.00032350412 -0.00090613746 -0.00033645995 0.002573048
0.002131954 0.001116784 -0.0015197451 -0.0007241836 0.0020682819 0.005205814 -0.00011262886 -0.005825394
-0.015269665 -0.007723614 8.43575e-07 -0.0027289605 -0.0119780945 0.0038183345 0.007833232 0.00045220862
-0.0059228875 -0.0012842745 0.00032717167 0.0074520735 -0.0030430695 0.005339284 0.002817416 -0.017033594
-0.004903042 -0.00399948 -0.012468339 -0.0012557409 0.001199336 -0.0063643213 -0.0026907313 -0.0058987774
0.0023254713 0.0033518842 0.0052398476 -0.008637871 0.0018693834 0.002453322 -0.00576643 -0.006666952
-0.015781915 -0.0055940743 0.0041699945 0.0010432601 -0.0005882746 0.005043611 0.0044178916 -0.0031562713
-0.0001744383 3.8134796e-05 0.004801244 -0.005824865 0.0011354429 -0.01708943 0.0014612582 0.0051484634
0.00826311 0.010955648 0.005841424 -0.0061527803 0.0004574394 -0.0028272546 -0.0006063331 0.0051519624
-0.004603961 -0.009698467 -0.00048204203 0.0042342204 -0.00053395587 0.011668906 -0.0015289345 -0.011335973
-0.13222717 -0.032886866 -2.4923537e-07 -0.022560814 -0.06804457 0.030101648 0.06394416 0.0034383214
-0.021973109 -0.007171875 0.002855919 0.06335699 -0.021504631 0.054674108 0.024028758 -0.13216537
-0.015527902 -0.03170339 -0.08687763 -0.010436217 0.014591622 -0.057445116 -0.021667726 -0.046363346
0.018981328 0.028762732 0.045971017 -0.0752478 0.018636955 0.027106963 -0.029654397 -0.017710092
-0.117665656 -0.048774034 0.03606316 0.0013707507 -0.014331962 0.042164963 -0.02295621 -0.02140057
0.0055272956 0.00720892 0.01838165 -0.026977085 0.014642082 -0.12532413 0.014559752 0.054461088
0.08587373 0.09556717 0.058329523 -0.09759718 0.0029392864 -0.029919967 -0.012406375 0.045790743
-0.0115718525 -0.065203115 -0.0013295392 0.026401993 0.006896379 0.1086354 -0.010622413 -0.08686755

fc3.fc.bias f4 [32]
00000000: 06e0 6ebc 237f 8f37 804c c53d 8255 213f
00000010: 314c 8e3d 5c15 d23e 75a0 5f3e d8cf 923a
00000020: e75f 223f 5632 163e 138f 393f 70b8 213d
00000030: 6f75 323d b4e9 ce3c ff2d bf3d fb05 103c
00000040: 4fbb 193e 2950 c53d a93f 463f 251c a53d
00000050: 997f 973d 8215 883e 7123 b53d 25fa 5ebd
00000060: 8560 24bd ea7f cc3b 9a62 093e 0589 643f
00000070: 9695 893e 7db7 c33d 1f49 1b3f c302 1b3f
-0.014579779 1.7106131e-05 0.09633732 0.630211 0.06948126 0.4103192 0.21838553 0.0011200858
0.63427585 0.14667639 0.7248394 0.039482534 0.043569025 0.025257923 0.09334945 0.008790488
0.15012859 0.0963443 0.7744089 0.08062009 0.07397384 0.2657891 0.088446505 -0.054437775
-0.04013111 0.0062408345 0.1341652 0.89271575 0.26871938 0.09556482 0.6065845 0.6055109

fc4.fc.weight f4 [1, 32]
00000000: a529 973c 450f 8bbc 806e 5ebd 812f debe
00000010: 89bf a0be ee48 d3be dfe2 adbe 2dc8 9cbc
00000020: 9aca 07bf e60a d43e 5c5a 3bbf b3de 4f3e
00000030: 0e71 123d 295b d5be 4d86 bb3d f840 e53d
00000040: 0dc1 543e 5f51 4bbf afac 2dbf 6695 fa3e
00000050: 4ae1 f93e 8633 233f fa3e 16be 5206 33bd
00000060: 7118 0dbd 4f1c 2ebc acc1 60be 7b29 803f
00000070: 14df 31bf b924 27be 2abd efbe 5d22 3e3f
0.018452475 -0.016975055 -0.0543046 -0.43395618 -0.3139613 -0.41266578 -0.3396215 -0.01913842
-0.5304352 0.41414565 -0.7318475 0.20299797 0.03575235 -0.41671112 0.09156475 0.111940324
0.20776768 -0.7942104 -0.6784162 0.48942107 0.48804694 0.63750494 -0.14672461 -0.0437072
-0.034447137 -0.0106268665 -0.2194888 1.0012659 -0.69481015 -0.16322602 -0.46824008 0.74271184

fc5.fc.weight f4 [128, 64]
00000000: a0a9 65bc 7faa d4bd 6447 8935 de5e c1bd
00000010: 3b41 0cbd a3e2 eb3d 89d3 9fbd 1b9b 5b3d
00000020: 1082 a03d 66c6 ccbd 3fca 573d fc21 dabc
00000030: dc1f 413c 9eb2 c93c ac00 383c 9680 e1ba
00000040: aa3b 6d3d 9f31 923d 1110 50bc 403e 8a3c
00000050: 8e87 093b 0d53 78bd 7e48 06bb 775a 41bc
00000060: 2bda 433d 6f41 18bd 2076 49bd 4a0f 503d
00000070: 6d19 9c3d 8f1d 01bb 5d14 813d a423 583c
00000080: a42d 00bd 135c c43d 8e0b 8fbd b31a 093d
00000090: 3942 0dbd fbc7 873c 57d2 373d 2e82 6b3d
000000a0: e027 4cbb 7171 48bd 68f0 2fbb d3cd 05be
000000b0: 62e6 94bc 76ef 473d bc19 cbbd 0658 ce3d
000000c0: 753a c63c de8f 303d d6d1 09bd 9fd8 2e3c
000000d0: 6883 163d 20d6 d6bd 1cf9 fabd 9223 97bd
000000e0: dc30 13bd d9e1 803c 4674 2fbb f177 eabd
000000f0: 3545 82bd 5b09 063d bc42 89bc 7368 b0bc
00000100: 11c7 24bd deed f73c 6447 39b6 afd8 c13c
00000110: 0b9c 873c c9af 773c f21c 683d 94fe 2fbd
00000120: 5fbf 86bc 5860 6b3c 68d4 033c d2b5 03bc
00000130: 39d4 aabc 1346 473d e1ab c33c f9b1 8aba
00000140: d112 853b 9efa 153c bfcb 643c a3f1 f13c
00000150: 7b0f 463d 3366 ba3c 5020 5abd 0ce6 eebb
00000160: d296 b9bb d01f 353d 1dc6 9c3c 2667 4abb
00000170: c398 c7bb 9f55 c7bc f0cb 0fbd e09b 1dbd
00000180: 9394 37bd e2ef a1ba bc15 383d cc31 993c
00000190: 33a7 b23c e7c5 7cbd 8c5c 84bd bc03 1fbc
000001a0: 2626 513c 46ef d23a 0989 403d f65c 033d
000001b0: f2e0 193c edcd 93bd 474b 743b b1cd ca3a
000001c0: 1917 34bd 67fd 93bc 10da aa3a 2738 adbc
000001d0: 3f25 8b3c f9fd 083d dbd7 7dbc 4f2d c03b
000001e0: 024d 51bc 3b82 24bc 182b 0d3d dd91 47bc
000001f0: 974b bfbc d4d3 29bd 7694 673d d25f 6fbb
00000200: 70af 4fb6 70e6 04b6 a65c 96b5 c813 eeb4
00000210: 64b2 b8b5 8861 08b6 c3b5 b135 1f8d 8bb6
00000220: 0c41 83b6 3675 6eb6 e753 5eb5 f3de 90b5
00000230: c8f0 ed34 03a5 72b5 6163 50b6 4d29 0c34
00000240: 0cf0 68b6 1235 de32 f7e9 1c36 5080 1bb5
00000250: f767 3f36 5aec 0935 ccab 0332 107c 8ab6
00000260: 7e29 6436 cd32 32b5 649e 85b5 72af 3db6
00000270: 6f2d 4ab6 b228 6b33 70fd 75b6 ee00 5936
00000280: e89c 4d36 e6ec aeb5 23cf eeb3 1311 6836
00000290: 6b66 cd35 2d98 a0b5 b448 4336 98a3 6636
000002a0: a84d 3b36 e90d 6bb4 c461 2e36 eff4 d0b5
000002b0: 244a cdb5 573e 53b6 5b35 5fb6 ac34 d5b5
000002c0: 705a a235 695f 63b6 e3ed 5735 91e3 5936
000002d0: 5ad2 bb33 fd6b 59b6 53f8 fe35 8733 3536
000002e0: f233 6c36 73f0 2f34 7664 d3b5 4999 0cb6
000002f0: 44b3 01b5 2c24 f2b5 ea38 4036 2e1c 8236
00000300: ac22 38b6 3b20 0db6 63a1 53b5 44cf 4bb6
00000310: 7680 5436 6647 e235 10c3 4cb6 e0af 1bb7
00000320: 5647 90b6 106e 2336 c340 a7b5 b0a7 4036
00000330: d297 d035 95ad 38b6 8197 0c36 8c3d 4f34
00000340: 41c2 9eb6 15a0 8bb6 47bd cbb4 dd29 0db6
00000350: abd4 35b6 1e75 54b6 7c1a 2b37 5e21 76b6
00000360: 1d70 5636 d4b9 e6b6 bc78 48b5 a52f 5332
00000370: 4ad6 b235 5689 a7b6 8827 3735 0c7a 22b4
00000380: d0cb b9b4 820e 5136 90a0 a5b4 8f25 c336
00000390: 1d00 a4b6 70e5 ec35 39e4 dbb5 2ce5 de34
000003a0: 7d07 0a36 a6d4 8436 d388 82b6 c82f 16b6
000003b0: bf22 fab5 e44c 6436 bdb1 25b7 f599 72b4
000003c0: 707f 4036 894b 3d36 0257 4c36 c75e 8cb6
000003d0: 0de0 12b4 674b 9b36 3204 8e36 af57 0534
000003e0: cb43 3837 6344 8c36 4a64 07b6 d4d1 f2b6
000003f0: bd3f 7637 a7a7 1637 d64a 6cb6 1511 67b6
-0.0140174925 -0.10384082 1.0228073e-06 -0.094419226 -0.034241896 0.11517837 -0.07804019 0.053614717
0.078373075 -0.09998779 0.05268311 -0.026627533 0.011787381 0.024621304 0.011230629 -0.0017204459
0.05791823 0.07138371 -0.012699143 0.016875386 0.0020985338 -0.06062608 -0.0020489986 -0.011801354
0.047815483 -0.037171777 -0.04918492 0.05079583 0.07622037 -0.0019701456 0.06302712 0.013192091
-0.031293526 0.09587874 -0.06984626 0.033472728 -0.034486983 0.01657485 0.04487833 0.057497196
-0.0031151697 -0.04893631 -0.0026846174 -0.13066797 -0.018176261 0.048812352 -0.09917018 0.10075383
0.024197796 0.043105952 -0.03364738 0.010671764 0.036746413 -0.1049006 -0.12254545 -0.073798314
-0.035935268 0.015732693 -0.0026772185 -0.11448658 -0.063608564 0.032723766 -0.016755454 -0.02153418
-0.040228907 0.030264791 -2.7608703e-06 0.023662893 0.0165539 0.015117594 0.05666823 -0.042967394
-0.016448675 0.014366232 0.008046247 -0.008038955 -0.020853149 0.048650812 0.02388567 -0.0010581604
0.004061081 0.00915399 0.0139645925 0.029534167 0.048354607 0.02275381 -0.05325347 -0.0072906073
-0.005663731 0.044219792 0.019137437 -0.0030884235 -0.0060912087 -0.02433282 -0.0351066 -0.038478732
-0.044819426 -0.0012354816 0.044942603 0.018700503 0.021808242 -0.061712172 -0.064629644 -0.00970548
0.012765443 0.0016093038 0.047005687 0.032071076 0.00939201 -0.072170116 0.0037276314 0.0015472678
-0.04396734 -0.018065168 0.0013034958 -0.02114494 0.016985534 0.033445332 -0.0154933585 0.005864776
-0.012774708 -0.010040815 0.034464926 -0.012180773 -0.023351474 -0.04146178 0.056538068 -0.003652562
-3.0947522e-06 -1.9803665e-06 -1.1202835e-06 -4.4345347e-07 -1.3760987e-06 -2.032235e-06 1.3240427e-06 -4.1589515e-06
-3.9116767e-06 -3.553299e-06 -8.282354e-07 -1.0793723e-06 4.4319881e-07 -9.039215e-07 -3.1052261e-06 1.3053541e-07
-3.471042e-06 2.5868335e-08 2.3381997e-06 -5.792872e-07 2.8521733e-06 5.1380414e-07 7.664266e-09 -4.1271633e-06
3.39988e-06 -6.638409e-07 -9.95537e-07 -2.8265317e-06 -3.0126791e-06 5.4752213e-08 -3.6655365e-06 3.233606e-06
3.0638712e-06 -1.3032957e-06 -1.11204166e-07 3.4580632e-06 1.5303498e-06 -1.1965218e-06 2.9099583e-06 3.4367895e-06
2.7910373e-06 -2.1891141e-07 2.5984928e-06 -1.5568493e-06 -1.5295268e-06 -3.1477737e-06 -3.3260646e-06 -1.5885066e-06
1.2096261e-06 -3.3881172e-06 8.043991e-07 3.246798e-06 8.746129e-08 -3.2398377e-06 1.8996747e-06 2.7001095e-06
3.5196977e-06 1.638562e-07 -1.5749963e-06 -2.095085e-06 -4.831711e-07 -1.8040932e-06 2.8643358e-06 3.8775825e-06
-2.7438318e-06 -2.1029398e-06 -7.8838474e-07 -3.0370002e-06 3.1665236e-06 1.6859092e-06 -3.051191e-06 -9.279669e-06
-4.299839e-06 2.4352958e-06 -1.2461318e-06 2.8707836e-06 1.5541393e-06 -2.7519175e-06 2.0949813e-06 1.9300768e-07
-4.731381e-06 -4.161159e-06 -3.7949414e-07 -2.1035005e-06 -2.709489e-06 -3.1658633e-06 1.0198561e-05 -3.6676279e-06
3.1953743e-06 -6.8761674e-06 -7.46815e-07 1.229265e-08 1.33244e-06 -4.992976e-06 6.823034e-07 -1.5131826e-07
-3.4607228e-07 3.1151872e-06 -3.085047e-07 5.8158253e-06 -4.887594e-06 1.7650145e-06 -1.6383193e-06 4.1517467e-07
2.0567961e-06 3.958662e-06 -3.8902303e-06 -2.2379554e-06 -1.8636564e-06 3.4019404e-06 -9.876149e-06 -2.2594016e-07
2.8684408e-06 2.8207162e-06 3.0449014e-06 -4.1833587e-06 -1.3678819e-07 4.628138e-06 4.232418e-06 1.241849e-07
1.0983039e-05 4.1802864e-06 -2.0174944e-06 -7.236589e-06 1.4677583e-05 8.979731e-06 -3.52103e-06 -3.4431625e-06

fc5.fc.bias f4 [128]
00000000: 2a17 b03e 1ffb 7abd 6eba bbbd af1c 0ebe
00000010: 36fa 48bf b002 90bd b1a2 bc3e 650f 74be
00000020: bdbe afbe 90a8 2fbd dc10 073e 49e1 5a3e
00000030: 2c48 1ebd 097c aa3e 2975 c13e 4162 12be
00000040: 62b1 253b 9f3b 71bd 49bb edbe 5a75 0f3a
00000050: 403d 893b 3ec2 02be 428d af3b 14ad 24be
00000060: c06b 6f3d 9741 c13e 4803 d2bd 18ee 493e
00000070: 1cd1 923e 8b14 0d3e 886e 5bbe 2746 14be
00000080: 68c9 143d 1bf3 1b3e 53f8 ba3e fde0 ecbd
00000090: cf25 dabe e8c0 173e 1e9f e73b 13af a6be
000000a0: 6c52 ec3d 15dd 1f3c c3ba c23c c2e7 0fbd
000000b0: 3b4b 813d 0507 8fbd a50e f0bc 64cc 30be
000000c0: 0e8e aa3e c179 d1bd 3eca f53d 9909 2e3d
000000d0: 1df9 6cbd 40b8 8c3e 1c3a 1f3e 19d0 3abe
000000e0: 8c00 ddbc 37ca ccbc ddf2 cfbe 06bf b5bc
000000f0: a917 b13e ea27 0cb9 b13f 6c3e 3356 d03b
00000100: b7c8 83bb 9d46 80be 5db0 92bd 840d f0bb
00000110: 71a5 d4be fd6f 893e bafb a2bc 0487 99bd
00000120: f528 02bc 4c2f 54be 92d5 973d 0b66 193e
00000130: 85e5 4dbd de7a b03c f5ff 743e d379 283e
00000140: 3476 693d 5413 57be 75c2 003f a2e7 8e3c
00000150: cec4 77be 18e9 9bbe c19e fcbc ca6a 833e
00000160: b51c 96bd 2be4 d7bc a84c 1dbe 6d78 87bd
00000170: 107d 8abd 0be6 b4bd c3a5 9dbc 0dc0 0dbf
00000180: 2434 5e3e 1187 053f 7c29 aa3e eeca 033c
00000190: d3d2 0ebe d607 af3c f4ad ebbd 5e29 aabd
000001a0: c042 3ebd 2cd7 71be 5f78 823e ebd5 b0bd
000001b0: 0694 79be 36de c93c 6c72 2abc bf40 bbbd
000001c0: f0b6 5e3e eb2b 2a3e 8191 5abe 0df1 06be
000001d0: efbc 31bd 05fc e33b e530 86bd bac1 053d
000001e0: 8f08 083e c922 c2bd dc63 cf3c d093 87bd
000001f0: fa43 dc3d 4f2b f03e bf4d 8c3e 3630 cebd
0.34392673 -0.061274644 -0.09166418 -0.1387813 -0.7850679 -0.070317626 0.36842874 -0.23833998
-0.3432521 -0.042885363 0.13190025 0.21375002 -0.038643047 0.33297756 0.377847 -0.14295293
0.002528273 -0.05889475 -0.4643195 0.0005472504 0.00418821 -0.1276941 0.0053574154 -0.16081649
0.058452368 0.37745354 -0.10254532 0.19719732 0.28675163 0.13777368 -0.21428883 -0.14479886
0.03632489 0.15229456 0.3651758 -0.115663506 -0.4260697 0.14819682 0.007068529 -0.32555446
0.11539158 0.0097573 0.023770696 -0.03513313 0.06313177 -0.06983761 -0.029303858 -0.17265469
0.33311504 -0.10228301 0.12001465 0.04248962 -0.05785476 0.27484322 0.1554951 -0.18243445
-0.0269778 -0.024998767 -0.40614977 -0.022185814 0.34588364 -0.0001336631 0.23071171 0.006357932
-0.00402173 -0.25053874 -0.07162545 -0.00732583 -0.41532472 0.26843253 -0.019895423 -0.07496455
-0.007944335 -0.20721167 0.07413782 0.14980333 -0.050267715 0.021542963 0.23925765 0.16452722
0.056997493 -0.21003467 0.5029672 0.017444436 -0.24196169 -0.30451274 -0.030837419 0.2566741
-0.07329694 -0.026353916 -0.15361273 -0.06614766 -0.06762135 -0.0883294 -0.01924408 -0.5537117
0.21699578 0.5215922 0.33234775 0.008043988 -0.1394761 0.021366041 -0.11507788 -0.083086714
-0.046450377 -0.23617238 0.2548246 -0.086345516 -0.24372873 0.024642091 -0.010403257 -0.09143209
0.21749473 0.16618316 -0.21344568 -0.13177891 -0.04339307 0.0069575333 -0.06552295 0.032655455
0.13284515 -0.09479291 0.025316171 -0.0661999 0.10755153 0.46908042 0.27403066 -0.10067789

fc6.fc.weight f4 [1, 128]
00000000: e38a 15be b9b8 f23d 1df2 8735 5255 0a37
00000010: 5929 bc3e 2b04 fbbc c21b aabd 8f60 043e
00000020: 2fe7 323e 31f3 143e 7207 cabd 8e1c e1bd
00000030: 0b62 1a3e 54dc 923e 3148 e6bd 3020 0436
00000040: 9b49 a93d bc98 5ebe d487 0a3f 696d 1e3e
00000050: 715b fabd 1374 afb5 ba13 24be ef92 45be
00000060: 0725 8dbe bdfe d8bd 9b49 1cbd 8654 38be
00000070: 2f75 dcbd aaf2 33be 9c19 a9bd fc23 813e
00000080: 278c ebbd 95f3 e3bd 551d 10be e038 323e
00000090: 5daf 823e 9dda 93be 6535 9c3c 6045 973e
000000a0: cfb4 d4bd 9cdf 5cbe 647e d7bd 0098 753e
000000b0: faa1 f5bd 45a9 20b7 c682 ff35 6181 483e
000000c0: b2c1 263e 15a0 753e e3b0 44be a297 803d
000000d0: 975e 043e 675b 303e 48df e9bd c2d7 7ab6
000000e0: 75e7 0abe 8d01 b7be 3cdd 4b3e 7520 66be
000000f0: fd15 ecbe 1b6a acbd b6f1 2bbe a84a 50be
00000100: 11d5 7bbe 9839 983e 04fd 1eb6 4457 7abe
00000110: 7e9e 963e d900 4a3e bd6a 0fbe b543 02be
00000120: dd59 b7bd ae62 9f3e 44ca bcbd 059e a5be
00000130: df6e d6be f9e7 e7bd 4aae 77be be5c 41be
00000140: 75ea 82be 8d7a a9bd 0477 71be dfce 1c3e
00000150: e614 6d3e c675 493e 249e 10be 7d28 05be
00000160: 69bd 353e fdcf 103e c661 563e 807c 5d3e
00000170: 086c ecbe e7c2 3abe 2880 613d 7e5b 513e
00000180: f553 11be 37f1 02be dfa1 1fbe 9cfa 3cbe
00000190: a3ab 363e 87fc 9c3d 2748 4a3e 0e99 e3bd
000001a0: aeef 99bd 6c4d 9a3e e2f8 ea3d ac70 5abe
000001b0: 26a6 2d3e 0bde 8fbe 61e0 f83d eb24 8e3d
000001c0: 000f 76be 19bc bcbd 65c1 923e 3096 0c36
000001d0: a009 183e 2269 823d f103 57be 2b87 183e
000001e0: ebf5 edbd 000e ccb4 f23e cb3d 20ca 0c3e
000001f0: 714d f2bd 882c 51be d39f 04be a376 afb5
-0.14603762 0.11851639 1.0128748e-06 8.245306e-06 0.36750296 -0.030641636 -0.08306076 0.12927459
0.17471002 0.14545895 -0.09864701 -0.109917745 0.15076463 0.28683722 -0.11244238 1.9688268e-06
0.08265992 -0.21737951 0.5411351 0.15471424 -0.12224472 -1.3072298e-06 -0.1602315 -0.19294332
-0.27567312 -0.105954625 -0.038156133 -0.18000993 -0.107645385 -0.17573038 -0.08256838 0.25222766
-0.11501341 -0.11130444 -0.1407369 0.17404509 0.25524417 -0.28877726 0.01906843 0.29545116
-0.10386049 -0.21569675 -0.10522154 0.23983765 -0.11993785 -9.576154e-06 1.9037041e-06 0.19580604
0.16284826 0.23986848 -0.19208102 0.06278922 0.12926708 0.17222367 -0.11419541 -3.737849e-06
-0.13564856 -0.3574337 0.19908613 -0.22473319 -0.46110526 -0.084186755 -0.16791424 -0.20340979
-0.24592997 0.2973144 -2.369111e-06 -0.24447352 0.29417795 0.19726886 -0.14005561 -0.1272114
-0.08952687 0.31129974 -0.092182666 -0.32347122 -0.41881463 -0.11323542 -0.2418758 -0.18883035
-0.25569502 -0.08275328 -0.23580557 0.1531329 0.23152503 0.19673833 -0.14122826 -0.13003726
0.17748035 0.14141841 0.20935735 0.21629524 -0.4617617 -0.18238412 0.05505386 0.20445058
-0.14192183 -0.12787329 -0.15589093 -0.18454975 0.17838912 0.07665353 0.19754086 -0.11113177
-0.075164184 0.30137193 0.11473252 -0.21332043 0.16957912 -0.28099093 0.12152172 0.06940635
-0.2402916 -0.09215564 0.28663173 2.0949046e-06 0.14847422 0.06367709 -0.20997597 0.14895312
-0.11619171 -3.8008147e-07 0.09924115 0.1374898 -0.11831177 -0.20427144 -0.12951593 -1.3073044e-06

fc7.fc.weight f4 [64, 64]
00000000: 0ad8 873c 3846 11bd 21f3 423d 1d1e 3d3d
00000010: a0eb a6bc 64c0 79bc 0431 b2bd 0272 743c
00000020: d475 b33b 1ef5 693d c47e 823c c011 ad3c
00000030: 57f5 1e3d 6bb8 2dbc 96a5 d3bd 8359 1d3d
00000040: 916f 84bc b2ab 7dbb d8c3 89bc 5efd 71bd
00000050: 93cf 8dbc e542 a8bc 7e34 cd3a e719 f03d
00000060: 1f17 25bd 4a4b 25bd 9d80 1fbd 1db2 bfba
00000070: 9059 99bc 54b0 5c3d b134 8a3c c1b0 e63b
00000080: 2f8e df3b 2626 32bb de17 acbc fd9d 76bb
00000090: e10a 25bc 301b 4fbd 9c51 9f3d 4018 5abc
000000a0: 70c8 12bd 7a0d 9fbd ea59 e4bb 78d0 e8bb
000000b0: e6e9 f43c bc38 90be 6013 b0bc 5c96 30bd
000000c0: 1025 653d f88e f73c 55e8 923d 873f 763d
000000d0: cbbd d5bb e151 823c 35ad 01be 8cda 9e3c
000000e0: ec02 a0be 3734 4f3d c2c9 a2bc 7405 84bc
000000f0: 4e43 80bc 8ed9 ee3c f30d 8dbc 4608 acbd
00000100: 1046 103c 0669 b33b fa7d b0bc cb72 583c
00000110: d75a 0cbc d4e9 bb3c ca65 ba3b 8202 ba3c
00000120: be0e 7f3c ea79 4abe a231 553b e956 7f3b
00000130: e041 6dbc f733 ba3b 9918 023d 52e5 c4be
00000140: b584 133d 4217 2c3b d2cd 87bb 75a2 233c
00000150: a3ec f5bb 4a1d 9f3b 4026 21ba e8f2 96bb
00000160: aae6 883a 3c97 273d 5ed8 f13c 9d8a 4cbd
00000170: 0e57 5fbe 6c6b 133d cc2c a6bd a93a 383c
00000180: 3792 02be 68a9 b73b 7859 5dbc 45d7 8abc
00000190: 526d 0dbc 66a9 cb3b 2a37 bdbc 6bb0 8c3a
000001a0: c5b5 9cbe 4fa5 4bbc 8056 1e3d ebbf 9bbb
000001b0: ecb7 1dbc 1d53 13bd 5438 a73b afad 43bb
000001c0: bdc1 a7bb abf0 9fbc 291f bebe 54b3 333c
000001d0: 5b4c c4bc 513c 933c 9c19 853a c056 db3b
000001e0: 2d5d c3bd cf1e 9b3c f56e 03bc 964e 4bbc
000001f0: dab5 7cbb c880 e5bb dae2 4a3d 26ea c03d
00000200: 91f8 aa3c d33e 1fbd 16a2 a2bd 83fe 21be
00000210: 34c2 5bbe 5099 7abc fa15 ebbd cba0 1fbd
00000220: 619e 923c 4a19 633d c94f 75bd 8c65 793c
00000230: 7180 29bd 393e ef3b 2766 9b3c 28c8 12bb
00000240: cd1a acbd 4730 583c 0f55 0fbd 0416 953d
00000250: 9e4e 3c3b 73c3 83bc 1d52 0ebc 1ccf bcbd
00000260: 3eaa babc 82b1 8e3d 7a42 c2bc ac9f 0c3e
00000270: b7b2 873d 28eb abbd e637 49be a50e f23a
00000280: 6cb4 c23d 2de8 be3c 18af a7ba 1786 2dbd
00000290: 1578 1fbc ed61 d8b9 8db2 c1bd c0e5 9d3c
000002a0: ecf6 8cbd 6106 12bd 10d4 e43c a77d 0a3d
000002b0: 5dce 143d 3c34 393d c83a cc3d 83a0 06bc
000002c0: 1dcc bf3c 7c80 5e3c 3f27 a43c 853f dfbd
000002d0: 5639 633c 07fd bf3d 2de3 f6bb f6e9 b23b
000002e0: bd05 babc 1e00 233b 9eca cebc 669a 43bc
000002f0: aa97 263c 0702 05bd d5bf 21be 7dac f73b
00000300: 171a 19b9 878c eabc c5b5 33be 4ccd 0bbe
00000310: e4d9 50be e2f3 49be 6cab a9bd 985c 16bd
00000320: 1956 5d3e 2bf3 b13b c03d 06bc ecdb a03b
00000330: 0d87 bf3c d5ef 53bb d260 193d a61e 113d
00000340: da3a 9cbd b3f6 7f3c 4018 50bc aec8 a5bd
00000350: eb96 92bc 0ced e0bc 7a3b c7bc 7079 70be
00000360: edc4 65bb 8b7a 3e3d c975 633e 4afd b13d
00000370: b335 b53d b26b 06be e9d9 c6bd ea89 103c
00000380: dc3d 62b9 f701 7ebd aa61 5e3a ab0a 9abd
00000390: fb77 efbb 8dc5 25bc be69 e5bd 3bcd babc
000003a0: 0b50 19bd 1d67 b3bc 765c 4b3d 3d17 b03c
000003b0: 93b8 6e3d e6f1 14bd 08ba 81bc ed02 97bc
000003c0: 70b0 0b3c 468c 98bc a0fc 64bd 7573 393d
000003d0: 79d0 16bd 74e3 993d 4319 44bc bca2 583c
000003e0: f970 fd3c 2222 19bb b866 a83c 2477 13be
000003f0: 1f75 2c3c f5f7 82bb 14b7 6cbe 6f0f b3bb
0.016582508 -0.035467356 0.047595147 0.046171296 -0.020376027 -0.015243623 -0.08700755 0.01491976
0.0054766927 0.057118528 0.015929587 0.021126628 0.038808193 -0.010603051 -0.103343174 0.038415443
-0.01616648 -0.0038707075 -0.016817018 -0.05907952 -0.017310893 -0.02053971 0.0015655903 0.117236905
-0.040305253 -0.040355004 -0.038941015 -0.0014625225 -0.018719465 0.053879097 0.016870828 0.0070401137
0.0068223695 -0.0027183383 -0.021007475 -0.003763079 -0.0100733945 -0.050563037 0.07779238 -0.013311446
-0.035835683 -0.07766242 -0.0069687264 -0.0071049295 0.029896688 -0.28168285 -0.021493614 -0.043112144
0.05594355 0.03021954 0.0717322 0.06011918 -0.006522869 0.015908184 -0.1266373 0.01939132
-0.3125223 0.050586905 -0.019871596 -0.016115882 -0.015657093 0.029156473 -0.017218566 -0.084000155
0.008805767 0.0054751663 -0.021544445 0.0132109625 -0.00856658 0.022938646 0.0056884037 0.022706274
0.01556748 -0.19773069 0.0032530804 0.0038961715 -0.014481038 0.005682464 0.03176174 -0.38456208
0.03601523 0.002625898 -0.0041444087 0.009987463 -0.007505016 0.0048557865 -0.00061473623 -0.0046065934
0.001044472 0.040915713 0.029522117 -0.04993688 -0.21810552 0.035991117 -0.08114013 0.011244454
-0.12751089 0.0056049116 -0.013510101 -0.016948352 -0.008632021 0.006215262 -0.023097593 0.0010733729
-0.3060743 -0.012429549 0.03865671 -0.004753103 -0.00962637 -0.035967935 0.0051031504 -0.0029858162
-0.005119531 -0.01952394 -0.37133148 0.010968048 -0.02396219 0.017973097 0.0010154727 0.006693691
-0.09539256 0.01893559 -0.00802206 -0.012408873 -0.003856054 -0.0070038773 0.04953275 0.0941966
0.020870479 -0.038878273 -0.07941072 -0.15819745 -0.21460801 -0.015295342 -0.11478801 -0.038971703
0.017897787 0.05544404 -0.059890542 0.015221965 -0.041382257 0.0073011187 0.018969608 -0.0022397134
-0.08403549 0.013195104 -0.034993228 0.0727959 0.0028733383 -0.016084408 -0.0086865695 -0.092191905
-0.022786256 0.06967451 -0.02371334 0.13732785 0.06625884 -0.08394462 -0.1965023 0.0018467499
0.09507069 0.02330407 -0.0012793271 -0.042364206 -0.00973322 -0.0004127169 -0.09457884 0.019274592
-0.06883034 -0.035650615 0.02793315 0.033811238 0.036329616 0.04521583 0.09972149 -0.00821698
0.023412758 0.013580438 0.020038245 -0.10900787 0.01386865 0.09374433 -0.0075344057 0.005460019
-0.022707814 0.0024871896 -0.0252431 -0.011938667 0.0101679955 -0.032472637 -0.15795834 0.007558404
-0.00014600936 -0.028631462 -0.17549808 -0.13652533 -0.20395619 -0.1972194 -0.08284649 -0.036709398
0.21614875 0.005430599 -0.008193433 0.004909029 0.023379827 -0.0032338996 0.03744585 0.03542962
-0.076284125 0.0156227825 -0.012701094 -0.08094917 -0.017894229 -0.027456783 -0.024320353 -0.23483825
-0.0035060004 0.046503585 0.222129 0.08690889 0.08848133 -0.1312702 -0.09709532 0.008821944
-0.00021576084 -0.062013593 0.0008483181 -0.07521566 -0.007308004 -0.010117901 -0.11201809 -0.02280294
-0.03742985 -0.021899754 0.049648724 0.021495456 0.058281492 -0.036363505 -0.015835777 -0.018434012
0.008525953 -0.018621575 -0.055904984 0.045276124 -0.03681991 0.07514086 -0.0119689135 0.013222393
0.030937659 -0.0023366292 0.020556793 -0.14400917 0.010525971 -0.003996844 -0.23116714 -0.0054644863

fc7.fc.bias f4 [64]
00000000: 1fde 0d3f af32 723f 7ecf af3e 4ffd 9b3e
00000010: bc0c 7c3e 19c6 383f 6a47 32be 226e 143e
00000020: 4c9c 193c 0974 923d 19cd 86be f44c 4b3f
00000030: d93b 453f 2c19 313f d971 683e 7ca6 0f3f
00000040: e9b9 5bbe 7d21 843e c117 933e 8038 6a3f
00000050: 49ee 1e3f c76f ff3e 8660 f3be 733b 833e
00000060: 80b3 74bd d1fe 003f 8364 c83e 11d3 b3be
00000070: dc0c 823e 7831 dcbc 8222 873d b9b2 f1be
00000080: 6ded acbe 9d33 923e f15f ea3e 4940 9a3d
00000090: 9f3c 5f3e 5073 a5bd 6420 5e3e 0ca1 d33e
000000a0: 434e a93e c810 ca3d d1a3 8d3d c528 153f
000000b0: 094a e73e 3869 823e f323 ea3e d688 6e3f
000000c0: 1d83 803d cd95 383e 5571 d33d 8474 09bf
000000d0: 40eb dbbd ae8a 193e 5a07 f13e 1925 923e
000000e0: afa7 db3e fee7 ec3d 9d9a b73e 9424 7a3e
000000f0: 0497 1dbd 1ada 493e cfcf 4ebd a3b9 443e
0.55417055 0.9460859 0.3433799 0.30466697 0.24614233 0.72177273 -0.17410055 0.14495137
0.009375643 0.07151038 -0.26328352 0.79414296 0.77044445 0.69179034 0.2269968 0.5611341
-0.21457638 0.258068 0.2872906 0.9149246 0.62082344 0.49889967 -0.4753458 0.25631294
-0.059741497 0.5038882 0.39139184 -0.35121968 0.25400436 -0.026879057 0.06598379 -0.47206667
-0.33774891 0.28555003 0.45776322 0.07531793 0.21800469 -0.08078635 0.21692044 0.41333807
0.3306752 0.09866482 0.06916011 0.58265334 0.45173672 0.254709 0.45730552 0.93177545
0.06275008 0.18025894 0.10324351 -0.53693414 -0.1073823 0.14994308 0.4707592 0.28543928
0.4290137 0.115676865 0.35860148 0.24428016 -0.038474098 0.19712105 -0.05049115 0.1921144
