weights/face_attr00/last.pt (torch, 969118 bytes, 98 tensors)

conv1.conv.weight f4 [16, 3, 5, 5]
-0.07253339 -0.13021058 0.083178595 0.018339504 0.014996427 -0.31110805 -0.027318342 0.49060598
0.3443553 0.0029183438 0.10953763 -0.14392672 -0.4444858 -0.1449599 0.15938617 -0.17734154
-0.5875259 -0.47051898 0.16278176 0.2910682 0.021967314 0.31748384 0.43384948 0.21694937
0.099936634 0.26818633 0.13666415 0.0751325 -0.11657423 -0.103701666 0.108014084 0.25784302
0.47169673 0.15540424 -0.1638263 0.3872758 -0.0064522894 -0.5193071 -0.39763743 -0.1775936
-0.009297256 -0.49714053 -0.60745823 -0.15881597 -0.04515138 0.10317592 0.30259207 0.29427105
-0.0065734936 -0.162048 -0.07836617 -0.081547186 -0.020503793 -0.21020834 -0.12569098 -0.12575124
0.26396567 0.63971597 0.29504815 -0.03953297 0.23584406 0.06335851 -0.31870502 -0.21412107
0.015958691 -0.1377115 -0.46910322 -0.4329058 -9.2861665e-05 0.08511959 -0.040824033 0.35351798
0.51312256 0.119580716 -0.06782892 0.07722033 0.1351014 -0.0706418 -0.18042158 0.12687184
0.26765943 0.2401969 -0.11054518 -0.4978588 -0.2037991 0.6971481 0.5414124 0.048467893
-0.6906263 -0.439414 0.52651143 0.5419771 0.18345067 -0.49840856 -0.3226464 -0.043027487
0.12579101 -0.018728381 -0.30293527 -0.07945601 0.1464654 0.18533607 -0.057298783 -0.19780204
-0.021597737 0.35808516 0.3339779 -0.03859061 -0.4444202 -0.2714926 0.6935767 0.54535455
0.046427283 -0.7138229 -0.57330376 0.57965267 0.5768931 0.19743608 -0.52000695 -0.45561653
0.041509792 0.18196173 0.01949904 -0.28598848 -0.15344036 0.10348463 0.13265158 -0.077283636
-0.18515432 -0.0134264445 0.259328 0.24026029 -0.06251739 -0.40503332 -0.22985195 0.55676013
0.43228006 0.01054438 -0.66975236 -0.5112207 0.47085473 0.4869142 0.17334159 -0.48147222
-0.40743288 0.045818966 0.16878402 0.047861874 -0.22762764 -0.109183855 -0.67761075 -0.5848809
-0.49082938 -0.6307088 -0.5079894 -0.4831611 -0.410514 -0.13712917 -0.15936343 -0.0793025
-0.25476617 -0.11995772 0.029369388 0.036411613 0.16878529 -0.0075699873 0.21505728 0.45776555
0.48990518 0.4437458 0.1828633 0.34563357 0.5385813 0.7447656 0.71269304 0.03164582
0.17348343 0.27449015 0.08241781 0.11522394 -0.07873306 -0.029010335 0.18738532 0.08723844
0.10943299 -0.040247753 -0.055990715 -0.065370746 -0.13913009 -0.009045681 -0.0012112614 -0.014080372
0.00094942324 -0.033302907 -0.01033786 -0.052587815 -0.14937295 -0.18750547 -0.03454857 0.031606033
0.6592833 0.64416796 0.60845745 0.29463077 0.26500484 0.32907242 0.23973775 0.31516576
0.100105196 0.057727724 0.2603616 0.107258335 -0.077267595 -0.27365062 -0.21219927 0.16064273
-0.024266023 -0.21120735 -0.3850299 -0.42710683 -0.015268011 -0.31965423 -0.5953313 -0.59668416
-0.5953782 -0.115622416 0.17422393 -0.06402397 -0.018119214 -0.012519521 -0.060785033 0.09278012
-0.30724618 -0.0018323764 0.11816598 -0.20320164 -0.12890555 -0.61738825 0.4044705 0.6343117
-0.18761729 -0.09728925 -0.4750745 0.6114959 0.87902063 -0.1202325 0.098018914 -0.42069143
-0.0026080802 0.20733498 0.0363588 0.047527917 0.0128273 -0.0047343066 0.0042674625 0.0980801
00000000: 638c 94bd ec55 05be 8a59 aa3d ba3c 963c
00000010: 93b3 753c 8e49 9fbe b7ca dfbc b530 fb3e
00000020: 564f b03e af41 3f3b 4455 e03d 8761 13be
00000030: a593 e3be 5e70 14be 2136 233e 0599 35be
00000040: 1968 16bf dde7 f0be 43b0 263e e406 953e
00000050: ccf4 b33c 3e8d a23e 8521 de3e fa27 5e3e
00000060: 94ab cc3d b84f 893e b0f1 0b3e 11df 993d
00000070: 78be eebd 8a61 d4bd 7d36 dd3d 0004 843e
00000080: 3c82 f13e 4a22 1f3e 15c2 27be 0349 c63e
00000090: ba6d d3bb 4ff1 04bf 2297 cbbe 19db 35be
000000a0: 8553 18bc 3489 febe 6282 1bbf a7a0 22be
000000b0: a7f0 38bd e64d d33d 59ed 9a3e b2aa 963e
000000c0: 7666 d7bb e9ef 25be 717e a0bd 3602 a7bd
000000d0: 92f7 a7bc db40 57be 23b5 00be efc4 00be
000000e0: 8226 873e 6dc4 233f 8d10 973e 53ed 21bd
000000f0: 1b81 713e 1bc2 813d 4e2d a3be 8e42 5bbe
00000100: cdbb 823c 3e04 0dbe 4c2e f0be d4a5 ddbe
00000110: babe c2b8 2e53 ae3d 1a37 27bd 4f00 b53e
00000120: 005c 033f bce6 f43d e4e9 8abd b125 9e3d
00000130: 0558 0a3e a6ac 90bd 6fc0 38be b1ea 013e
00000140: a80a 893e 2df6 753e 8365 e2bd 59e7 febe
00000150: b6b0 50be 4c78 323f 019a 0a3f 4586 463d
00000160: e3cc 30bf dffa e0be 74c9 063f 03bf 0a3f
00000170: 7eda 3b3e 682f ffbe e931 a5be 973d 30bd
00000180: 5ccf 003e 436c 99bc 551a 9bbe d5b9 a2bd
00000190: 07fb 153e bdc8 3d3e 21b2 6abd 9e8c 4abe
000001a0: bded b0bc f056 b73e 27ff aa3e 3011 1ebd
000001b0: 0b8b e3be 1401 8bbe 3e8e 313f 5b9c 0b3f
000001c0: 892a 3e3d 19bd 36bf 09c4 12bf 1e64 143f
000001d0: 44af 133f af2c 4a3e 2d1f 05bf 9246 e9be
000001e0: 2c06 2a3d 2d54 3a3e 73bc 9f3c 156d 92be
000001f0: 781f 1dbe c0ef d33d d1d5 073e e246 9ebd
00000200: 1899 3dbe 97fa 5bbc a4c6 843e cb06 763e
00000210: 1e09 80bd 8760 cfbe 4f5e 6bbe d587 0e3f
00000220: d053 dd3e 56c2 2c3c e474 2bbf 5cdf 02bf
00000230: df13 f13e d14c f93e 7580 313e 8783 f6be
00000240: 0b9b d0be abac 3b3d b8d5 2c3e d00a 443d
00000250: 3817 69be c99b dfbd e677 2dbf c1ba 15bf
00000260: fd4d fbbe 2276 21bf 980b 02bf e460 f7be
00000270: e42e d2be 976b 0cbe 2b30 23be 5969 a2bd
00000280: b670 82be 65ac f5bd 1298 f03c 5824 153d
00000290: 0dd6 2c3e a80d f8bb fa37 5c3e 3f60 ea3e
000002a0: dad4 fa3e a632 e33e 8440 3b3e e2f6 b03e
000002b0: 77e0 093f f5a8 3e3f 0d73 363f 0c9f 013d
000002c0: a4a5 313e f989 8c3e abca a83d 87fa eb3d
000002d0: cc3e a1bd 15a7 edbc f0e1 3f3e 11aa b23d
000002e0: 671e e03d d4da 24bd 8556 65bd 19e1 85bd
000002f0: 1e78 0ebe 5634 14bc 30c3 9eba 5cb1 66bc
00000300: b7e2 783a a168 08bd 2160 29bc 5266 57bd
00000310: 39f5 18be 6f01 40be cd82 0dbd 5475 013d
00000320: cac6 283f 31e8 243f dec3 1b3f d8d9 963e
00000330: b7ae 873e 2e7c a83e d07d 753e 685d a13e
00000340: f403 cd3d e873 6c3d 1e4e 853e 42aa db3d
00000350: 793e 9ebd ef1b 8cbe c44a 59be 877f 243e
00000360: 8ac9 c6bc bd46 58be a422 c5be bfad dabe
00000370: ae26 7abc b8a9 a3be a267 18bf 4bc0 18bf
00000380: b56a 18bf 72cb ecbd c267 323e 001f 83bd
00000390: bf6e 94bc ad1e 4dbc baf9 78bd 8103 be3d
000003a0: 5f4f 9dbe 592c f0ba 0101 f23d 1714 50be
000003b0: d1ff 03be 280d 1ebf c216 cf3e 4062 223f
000003c0: bf1e 40be 963f c7bd f73c f3be ff8a 1c3f
000003d0: 7f07 613f 753c f6bd 24be c83d de64 d7be
000003e0: 53ec 2abb 9f4f 543e f7ec 143d a2ac 423d
000003f0: 9829 523c 3e22 9bbb 12d6 8b3b 38de c83d

conv1.bn.weight f4 [16]
1.5515285 1.583195 0.5791813 1.2801522 1.1366801 5.243222 1.7764063 0.84523547
1.0973902 1.62318 0.5503801 2.1512518 0.72333324 1.2145373 1.9467491 3.1147964
00000000: 7c98 c63f 22a6 ca3f 3a45 143f 07dc a33f
00000010: bc7e 913f 7ac8 a740 4861 e33f 5a61 583f
00000020: 4877 8c3f 5dc4 cf3f b6e5 0c3f 1cae 0940
00000030: 5e2c 393f f575 9b3f 132f f93f d358 4740

conv1.bn.bias f4 [16]
0.9513384 0.3604888 0.3916942 0.739481 1.5381701 -9.250151 1.2199091 0.2036867
0.22054851 0.30275825 1.4714171 -1.196254 1.4132677 -0.23217982 -1.4242907 -3.3326783
00000000: ea8a 733f fd91 b83e 248c c83e a04e 3d3f
00000010: c2e2 c43f 9e00 14c1 fb25 9c3f 3f93 503e
00000020: 78d7 613e 2103 9b3e 6557 bc3f da1e 99bf
00000030: f5e5 b43f 8cc0 6dbe 284f b6bf 9a4a 55c0

conv1.bn.running_mean f4 [16]
-0.010199532 -0.052586086 0.1016753 0.08333734 -0.0019134283 0.7561553 -0.020829016 -0.30424392
0.051082913 -0.10127 0.063102886 -0.07700912 0.10347029 -0.36073238 -0.08132546 -0.78413635
00000000: f01b 27bc 8264 57bd 243b d03d c4ac aa3d
00000010: 00cc faba 6593 413f 9da1 aabc dcc5 9bbe
00000020: 513c 513d a566 cfbd 163c 813d f5b6 9dbd
00000030: 3be8 d33d eab1 b8be f68d a6bd 29bd 48bf

conv1.bn.running_var f4 [16]
0.10351519 1.4063116 0.065873764 0.22141246 0.04975182 0.16634573 0.10997808 0.24094436
1.6786588 1.2546259 0.10507591 0.16771917 0.05570022 0.11313835 0.13428627 0.2539405
00000000: c6ff d33d 0502 b43f d3e8 863d f3b9 623e
00000010: 90c8 4b3d 8956 2a3e 303c e13d 1eba 763e
00000020: 4bde d63f 9597 a03f 0a32 d73d 93be 2b3e
00000030: ea25 643d 14b5 e73d 5782 093e 7d04 823e

conv2.conv.weight f4 [32, 16, 3, 3]
0.015233079 -0.025329351 0.15353563 -0.107691064 -0.1046046 -0.001875223 -0.10302569 0.04278722
0.17208461 0.10665521 0.022362119 -0.06941363 0.02271441 0.020128166 0.078238495 -0.10888047
-0.24050112 0.0062248637 -0.27284348 -0.3704087 -0.22726253 -0.1511025 -0.08256371 0.025831837
-0.029537903 0.24145393 0.35133675 -0.15350318 0.017758908 0.16435605 -0.032837957 -0.06618528
-0.015451712 -0.002565224 -0.030066134 -0.034622736 -0.104215816 -0.025957257 0.0068363487 -0.074760996
0.20089361 0.024687283 -0.04783148 -0.092604406 0.07617446 0.08118764 0.0645217 0.11636337
-0.044653762 -0.096645705 0.0025265825 -0.052691024 -0.14390247 0.015183479 -0.010246687 -0.017712872
-0.014289876 0.062019676 0.10222646 -0.094063595 0.02319038 0.018697172 -0.15177469 0.0841801
0.147773 -0.10248892 0.26046994 0.3895066 0.21470192 0.024790695 0.07843087 -0.05583832
0.019296871 0.022582464 0.035110306 0.0031238918 0.06490752 0.07373512 -0.051561248 0.019685935
0.06757394 0.04600507 0.09626858 0.044660185 0.047873445 -0.037697237 -0.021171324 -0.016930116
-0.14016125 -0.16876027 -0.20357883 -0.13622402 -0.1446519 -0.088930085 -0.0025994396 0.014993368
0.22189237 0.24686755 0.27699044 -0.046246886 0.07321624 0.035152983 -0.02177495 0.02678678
0.19157907 0.16588026 -0.024430336 0.017870367 -0.012135849 0.1620137 0.21624097 0.029310307
0.09426988 0.23763043 -0.09361719 -0.33791503 -0.14765748 0.074606225 0.14283884 0.26631135
0.100028776 0.04278828 -0.0776107 0.12800485 -0.13753973 -0.38807178 -0.017483005 -0.02812476
-0.00046040703 0.0455125 -0.029404594 -0.07342732 0.02806575 -0.09155918 -0.13178232 -0.11303538
-0.0064463955 0.062043607 -0.10002462 -0.046597574 0.18897791 0.029005097 -0.07434935 -0.089606866
-0.013980987 0.072328 0.16813813 0.020164583 0.143903 0.051369164 -0.08304642 -0.06691403
-0.17156053 -0.019008525 0.16062318 0.045923244 -0.05587289 0.19581951 -0.006168341 -0.08309613
0.042122636 -4.891013e-05 -0.10191228 -0.12175135 -0.09562608 0.05878172 0.10615688 0.061884962
-0.02907145 -0.06076764 -0.14307834 0.15407935 0.19460697 -0.085329115 -0.08753213 0.20383987
0.078314655 -0.013966903 0.15474387 -0.056235597 -0.06665268 -0.13326804 -0.017187623 0.25688523
0.1910419 -0.043587733 -0.051031046 0.12074347 0.03571289 -0.06667613 -0.0383572 -0.044519994
-0.0132167805 -0.023780556 -0.011095492 -0.053954832 0.008163 0.017745724 0.057091914 0.025563214
-0.022863971 0.033811517 0.26115644 -0.01755213 0.036387727 0.00016103924 -0.012246583 -0.12967338
-0.001173559 0.095186435 -0.056473155 0.057288777 0.16603374 0.029324006 0.109163135 0.21266328
-0.06019978 0.04460791 0.06656352 -0.10575903 0.15390727 0.10718925 -0.041071538 -0.030675706
-0.08502243 -0.07112565 -0.059893318 -0.04871615 0.007712825 0.25829077 0.09352163 0.06293468
0.059841998 0.02901625 -0.09001504 -0.03899465 0.04429977 -0.013567479 0.059126835 0.09047365
0.0369724 0.11484028 0.14462112 -0.10910098 -0.07680805 -0.023785695 -0.035346445 0.20110363
0.15701409 -0.15821742 -0.047588475 0.011393024 0.024604794 0.06920594 0.052304916 0.042926867
00000000: 2a94 793c 807f cfbc 7238 1d3e 228d dcbd
00000010: f03a d6bd 0bca f5ba 22ff d2bd a741 2f3d
00000020: f336 303e 0c6e da3d c330 b73c bc28 8ebd
00000030: 9213 ba3c d3e3 a43c 813b a03d b9fc debd
00000040: ed45 76be f1f9 cb3b 24b2 8bbe 36a6 bdbe
00000050: 82b7 68be 9dba 1abe 2a17 a9bd 4a9d d33c
00000060: 79f9 f1bc b33f 773e 69e2 b33e f02f 1dbe
00000070: 217b 913c f44c 283e 1881 06bd 268c 87bd
00000080: 2d29 7dbc 511d 28bb 414d f6bc 92d0 0dbd
00000090: 1a6f d5bd 50a4 d4bc 7303 e03b 4b1c 99bd
000000a0: 0eb7 4d3e fc3c ca3c f1ea 43bd 61a7 bdbd
000000b0: 5b01 9c3d b545 a63d f423 843d eb4f ee3d
000000c0: dde6 36bd 2fee c5bd 0595 253b 8bd2 57bd
000000d0: 2b5b 13be 20c4 783c b8e1 27bc 961a 91bc
000000e0: 1620 6abc 5808 7e3d 1b5c d13d 6aa4 c0bd
000000f0: c0f9 bd3c d02a 993c d36a 1bbe 9e66 ac3d
00000100: ce51 173e b6e5 d1bd 515c 853e 696d c73e
00000110: d2da 5b3e db15 cb3c 5da0 a03d b9b6 64bd
00000120: 7914 9e3c dcfe b83c d3cf 0f3d 35ba 4c3b
00000130: 3cee 843d 7002 973d e331 53bd 6644 a13c
00000140: 3564 8a3d d06f 3c3d 7628 c53d 99ed 363d
00000150: f216 443d 6b68 1abd 7c6f adbc 07b1 8abc
00000160: 6e86 0fbe 7ecf 2cbe f876 50be 4f7e 0bbe
00000170: a11f 14be fa20 b6bd 5c5b 2abb bea6 753c
00000180: c137 633e d9ca 7c3e b1d1 8d3e 606d 3dbd
00000190: 65f2 953d 93fc 0f3d 6161 b2bc f36f db3c
000001a0: 4e2d 443e 84dc 293e 2122 c8bc e064 923c
000001b0: 71d5 46bc ebe6 253e 466e 5d3e 2b1c f03c
000001c0: 9110 c13d 6455 733e 5fba bfbd 3303 adbe
000001d0: 8633 17be 26cb 983d 5844 123e f659 883e
000001e0: e3db cc3d c342 2f3d 5cf2 9ebd b413 033e
000001f0: 37d7 0cbe 58b1 c6be 8538 8fbc e665 e6bc
00000200: c962 f1b9 516b 3a3d e7e1 f0bc 1061 96bd
00000210: 25ea e53c 6183 bbbd f2f1 06be 187f e7bd
00000220: 493c d3bb 7021 7e3d b5d9 ccbd 19dd 3ebd
00000230: 6d83 413e 199c ed3c 7944 98bd ce83 b7bd
00000240: 8210 65bc b420 943d 672c 2c3e 3230 a53c
00000250: 4f5b 133e 7968 523d 3e14 aabd 390a 89bd
00000260: 90ad 2fbe c4b7 9bbc 677a 243e 031a 3c3d
00000270: f9da 64bd e984 483e cb1f cabb 4e2e aabd
00000280: c988 2c3d da24 4db8 63b7 d0bd c658 f9bd
00000290: 9bd7 c3bd 1ac5 703d c768 d93d 167b 7d3d
000002a0: 4027 eebc 7de7 78bd 2183 12be fac6 1d3e
000002b0: 0d47 473e 08c1 aebd 0c44 b3bd 66bb 503e
000002c0: 6f63 a03d 70d5 64bc 2d75 1e3e 4c57 66bd
000002d0: 3381 88bd 6b77 08be 0fcd 8cbc 7686 833e
000002e0: 7da0 433e 0d89 32bd ee05 51bd 5a48 f73d
000002f0: ae47 123d 7f8d 88bd 701c 1dbd 995a 36bd
00000300: 328b 58bc 71cf c2bc dec9 35bc beff 5cbd
00000310: 1bbe 053c 7b5f 913c 36d9 693d f269 d13c
00000320: 394d bbbc f27d 0a3d 4cb6 853e 7cc9 8fbc
00000330: 4c0b 153d a4dc 2839 e4a5 48bc 19c9 04be
00000340: 1bd2 99ba 1bf1 c23d 6550 67bd a3a7 6a3d
00000350: c004 2a3e e638 f03c ec90 df3d 67c4 593e
00000360: 0b94 76bd c9b6 363d 7452 883d 3198 d8bd
00000370: de99 1d3e 0a86 db3d a13a 28bd 9e4b fbbc
00000380: 3d20 aebd 53aa 91bd b252 75bd 968a 47bd
00000390: debb fc3b b03e 843e 4588 bf3d e6e3 803d
000003a0: e21c 753d 7db3 ed3c ce59 b8bd dbb8 1fbd
000003b0: ad73 353d 224a 5ebc fb2e 723d 404a b93d
000003c0: 5f70 173d 6131 eb3d 8f17 143e 5670 dfbd
000003d0: 8a4d 9dbd 38da c2bc 6fc7 10bd 1cee 4d3e
000003e0: 4dc8 203e bf03 22be 22ec 42bd cea9 3a3c
000003f0: fe8f c93c d8bb 8d3d ae3d 563d 15d4 2f3d

conv2.bn.weight f4 [32]
1.7416853 2.320205 1.7070901 2.081835 2.1630566 2.0963347 2.0994833 1.6191835
1.6543013 2.3532033 2.4552794 2.3801029 1.4806182 2.1662161 2.4224155 2.4541986
2.2143073 2.2168083 2.4619868 1.9517838 2.2389076 2.89149 1.6002772 2.3434405
1.6116856 2.4007947 1.8415768 2.6487255 2.3086178 2.2043822 2.025393 1.9645039
00000000: 8bef de3f 3d7e 1440 ee81 da3f c93c 0540
00000010: 856f 0a40 592a 0640 ef5d 0640 6841 cf3f
00000020: 25c0 d33f e29a 1640 4c23 1d40 9b53 1840
00000030: e684 bd3f 49a3 0a40 db08 1b40 9711 1d40
00000040: 36b7 0d40 30e0 0d40 3191 1d40 0dd4 f93f
00000050: 434a 0f40 2c0e 3940 e2d5 cc3f eefa 1540
00000060: b74b ce3f 9fa6 1940 cab8 eb3f b884 2940
00000070: 65c0 1340 9914 0d40 0aa0 0140 dd74 fb3f

conv2.bn.bias f4 [32]
-0.44186443 -2.8499026 0.7320539 -0.5224865 -0.44604725 -0.4072216 -0.25212976 0.4498076
0.20944898 -0.83258706 -0.43022737 0.32057425 0.51533353 -0.39926136 -1.7024982 -0.42912793
-0.13916206 -0.57192653 -0.2268007 0.01386739 -0.6874464 -1.0630845 0.5403516 -0.16778307
1.0455877 -0.4587064 0.18868966 -1.2986357 0.24767344 -0.24192642 -1.017511 -0.33362752
00000000: 0e3c e2be ce64 36c0 e267 3b3f adc1 05bf
00000010: 4e60 e4be 597f d0be 2717 81be 2f4d e63e
00000020: cb79 563e 6d24 55bf c346 dcbe 4f22 a43e
00000030: e6ec 033f fc6b ccbe 76eb d9bf a8b6 dbbe
00000040: 8080 0ebe c769 12bf 713e 68be 0d34 633c
00000050: 7dfc 2fbf 2713 88bf 7c54 0a3f 53cf 2bbe
00000060: d1d5 853f 91db eabe dd37 413e b239 a6bf
00000070: 1b9e 7d3e 8fbb 77be cd3d 82bf 3ad1 aabe

conv2.bn.running_mean f4 [32]
0.37619555 3.1862075 -2.722834 -0.7630325 -0.97865313 -0.38245085 -0.44708246 0.52806777
-0.54050153 -1.4997208 -0.61423165 -1.764401 -0.35736984 -2.096625 -0.90858465 -1.4589844
-0.73051596 -0.9093761 -0.24751873 -1.0219244 -0.58578986 -1.6070524 1.0932401 -0.17599814
-1.9112161 -0.8672559 -0.67449045 -0.059155528 -1.5257282 -0.67641217 -1.325251 -0.80451673
00000000: b49c c03e d3ea 4b40 ea42 2ec0 1956 43bf
00000010: 0389 7abf 99d0 c3be fee7 e4be 732f 073f
00000020: 4f5e 0abf daf6 bfbf 493e 1dbf e4d7 e1bf
00000030: 2ef9 b6be 1b2f 06c0 0199 68bf 00c0 babf
00000040: 1803 3bbf dfcc 68bf 8d75 7dbe 6bce 82bf
00000050: 53f6 15bf e5b3 cdbf 4bef 8b3f db38 34be
00000060: bba2 f4bf 7c04 5ebf 68ab 2cbf 114d 72bd
00000070: 104b c3bf 5929 2dbf d3a1 a9bf cff4 4dbf

conv2.bn.running_var f4 [32]
1.3358706 1.0958908 1.6952268 1.6290746 2.664336 1.8706594 3.346368 1.9358767
1.0454533 2.7237258 1.9623785 3.8827074 1.6170535 1.8330126 1.6287857 2.6591341
3.412539 1.6506267 4.1492534 2.723467 1.9190227 1.98497 1.1236892 2.307504
2.248281 3.5724437 0.8782765 1.489004 4.189352 3.7148955 0.8873272 1.3127359
00000000: cffd aa3f 2646 8c3f 31fd d83f 8485 d03f
00000010: 7b84 2a40 c471 ef3f e52a 5640 cfca f73f
00000020: 6ad1 853f 8651 2e40 382f fb3f 477e 7840
00000030: 9cfb ce3f 28a0 ea3f 0d7c d03f 412f 2a40
00000040: 0a67 5a40 bc47 d33f afc6 8440 494d 2e40
00000050: 89a2 f53f 7f13 fe3f 0cd5 8f3f 25ae 1340
00000060: d6e3 0f40 eba2 6440 bbd6 603f af97 be3f
00000070: 2c0f 8640 d9c0 6d40 e027 633f bb07 a83f

conv3.conv.weight f4 [32, 32, 3, 3]
-0.13083568 -0.090591244 -0.06706037 -0.19438799 -0.1610022 0.0007484651 -0.09861428 -0.09526801
0.0068055964 0.018506197 0.07400842 0.08124462 0.04167873 -0.015618094 -0.028884979 -0.10425231
-0.10293239 -0.08520216 0.031934816 0.10600558 0.1804863 0.08396652 0.09158643 0.123527214
-0.036242265 -0.008882757 -0.0020935254 0.05070186 0.016608603 -0.062175307 0.12262237 -0.0016388547
-0.12673762 0.075425915 0.057536926 -0.008978779 -0.022062104 0.031656485 0.09049196 -0.068385646
0.08424873 0.18201987 0.04750701 0.1645616 0.19965613 -0.14992048 -0.210202 -0.07853377
-0.15046959 -0.15954578 0.0076239314 -0.024062525 0.061524868 0.14097078 0.09662304 0.06839974
0.028554134 0.021393387 0.03181179 0.0064900913 -0.033815738 0.07343777 0.086639 -0.015907032
-0.044641744 -0.028941886 -0.072581686 -0.1718335 -0.17058441 0.035758026 -0.12333353 -0.189379
-0.041154705 0.026431842 0.077234566 -0.15309682 -0.05960446 -0.047210876 -0.21524112 -0.16259758
-0.08662513 0.042535383 0.082688555 -0.0416737 -0.00497481 -0.017696869 0.039474383 -0.035790287
0.0036857603 0.082015924 -0.1210938 -0.21509162 -0.11164536 -0.081965126 -0.20565885 -0.09273392
0.07340216 0.020036701 -0.020903477 0.023624426 0.007974965 -0.054081667 0.015055209 0.07451205
0.11577956 -0.12283081 -0.050577287 0.17168412 0.16310762 0.18055105 -0.015915895 -0.010007195
0.07447219 -0.17257768 -0.15693095 -0.10196017 -0.17280798 -0.14898497 -0.121506035 0.0061599286
-0.117319904 -0.06186368 0.045995366 -0.070871636 -0.01674525 0.058287695 -0.009540306 -0.06477752
-0.13707191 -0.0941792 -0.13589507 -0.091291055 -0.047651198 -0.08642365 0.0010376642 -0.029196834
-0.06698511 0.053708896 -0.1461321 -0.17946607 -0.078009896 -0.091700114 -0.09506333 0.027478447
0.06490037 0.08371604 0.03732206 0.09832654 0.049718875 0.0053799967 0.12446499 0.049612574
-0.0028856876 0.085866034 0.15155041 0.06874342 0.1429253 0.17260146 0.07406857 0.03938915
0.067887425 0.026008409 -0.05383171 -0.1803505 -0.12915158 -0.032457042 -0.18561281 -0.14901999
0.110431165 0.0917981 -0.012171565 -0.029118286 -0.035922762 -0.05034192 -0.048882667 -0.025516788
-0.10671158 0.057636097 -0.015077424 -0.13107774 0.018337026 0.054816034 0.03470535 0.075793654
0.13517158 0.089548565 0.09099173 0.17054366 0.086391106 0.12045542 0.095482275 0.014843017
0.111069284 0.14173716 0.13450317 0.024061421 0.09535995 0.16015562 -0.09446815 -0.10858284
0.024508871 -0.16223817 -0.25888443 -0.14085327 -0.096563146 -0.20637093 -0.12927559 -0.002467606
-0.045196712 -0.000260587 -0.11510341 -0.08176681 -0.030401474 -0.0016324178 -0.04218236 -0.040862508
-0.07594147 -0.07124225 -0.09114309 0.035910353 0.058840208 -0.06277637 -0.05567541 0.0024493695
-0.017847901 0.048598763 0.06085463 0.06691822 0.03096142 0.14940093 0.18455045 0.05403114
0.19574985 0.1628682 0.10602554 0.0011724854 -0.1312112 0.034794573 -0.055758823 -0.19227749
0.061589047 -0.036412224 -0.24984309 -0.09668998 -0.18910201 -0.08427501 -0.047941595 -0.16911295
-0.051177584 0.053837985 -0.011492186 0.041572254 -0.029497394 0.026076267 0.09050197 -0.17748044
00000000: caf9 05be e787 b9bd f356 89bd a50d 47be
00000010: c3dd 24be a534 443a 49f6 c9bd e01b c3bd
00000020: 7b01 df3b 4f9a 973c ba91 973d 9463 a63d
00000030: 51b7 2a3d 09e3 7fbc 31a0 ecbc 3c82 d5bd
00000040: 38ce d2bd 787e aebd 15ce 023d 7419 d93d
00000050: 67d1 383e a4f6 ab3d ab91 bb3d d6fb fc3d
00000060: c572 14bd fc88 11bc 8733 09bb c1ac 4f3d
00000070: c40e 883c 89ab 7ebd 7021 fb3d d7ce d6ba
00000080: 82c7 01be e778 9a3d d7ab 6b3d bb1b 13bc
00000090: 96bb b4bc 3baa 013d d953 b93d c60d 8cbd
000000a0: 998a ac3d 6b63 3a3e b696 423d d682 283e
000000b0: a872 4c3e c184 19be 313f 57be 50d6 a0bd
000000c0: b314 1abe f85f 23be 2cd2 f93b c61e c5bc
000000d0: 8001 7c3d a55a 103e 4de2 c53d 2a15 8c3d
000000e0: 5cea e93c 2f41 af3c 144d 023d d5aa d43b
000000f0: 5f82 0abd 8b66 963d ca6f b13d 774f 82bc
00000100: 43da 36bd 8917 edbc b5a5 94bd 1ff5 2fbe
00000110: aead 2ebe 0277 123d 4a96 fcbd 92ec 41be
00000120: d691 28bd 9787 d83c 282d 9e3d 6ac5 1cbe
00000130: ce23 74bd 3160 41bd 2b68 5cbe fb7f 26be
00000140: 8468 b1bd 9539 2e3d 9e58 a93d 0bb2 2abd
00000150: bb03 a3bb 06f9 90bc e4af 213d d698 12bd
00000160: cc8c 713b f7f7 a73d 0700 f8bd fa40 5cbe
00000170: 53a6 e4bd 55dd a7bd 3c98 52be 48eb bdbd
00000180: df53 963d 0224 a43c c53d abbc 0388 c13c
00000190: 6da9 023c bd84 5dbd 20aa 763c c699 983d
000001a0: d51d ed3d b88e fbbd 212a 4fbd f6cd 2f3e
000001b0: af05 273e 60e2 383e 0d62 82bc 38f5 23bc
000001c0: e084 983d 34b8 30be 82b2 20be 7ed0 d0bd
000001d0: 93f4 30be 848f 18be 28d8 f8bd 3ad9 c93b
000001e0: 6b45 f0bd c564 7dbd a365 3c3d 2625 91bd
000001f0: 562d 89bc 14bf 6e3d f24e 1cbc 14aa 84bd
00000200: 945c 0cbe 06e1 c0bd 1428 0bbe cef6 babd
00000210: e72d 43bd e2fe b0bd 3c02 883a 332e efbc
00000220: 7d2f 89bd dcfd 5b3d a7a3 15be f4c5 37be
00000230: a7c3 9fbd 45cd bbbd 90b0 c2bd 7b1a e13c
00000240: 7cea 843d 5173 ab3d 04df 183d 6d5f c93d
00000250: 05a6 4b3d af4a b03b 80e7 fe3d 8e36 4b3d
00000260: ce1d 3dbb 88da af3d 0830 1b3e 5ac9 8c3d
00000270: 035b 123e 70be 303e 43b1 973d 8456 213d
00000280: 9008 8b3d 960f d53c a47e 5cbd cdad 38be
00000290: 5040 04be adf1 04bd 4911 3ebe b298 18be
000002a0: bc29 e23d a400 bc3d 3e6b 47bc 7989 eebc
000002b0: bf23 13bd 5433 4ebd 3139 48bd 9508 d1bc
000002c0: 9a8b dabd d413 6c3d 4d07 77bc 3e39 06be
000002d0: 8837 963c c786 603d 3227 0e3d b439 9b3d
000002e0: 6b6a 0a3e 3d65 b73d df59 ba3d ffa2 2e3e
000002f0: d2ed b03d 55b1 f63d 368c c33d 2030 733c
00000300: 4b78 e33d 8c23 113e 33bb 093e 751c c53c
00000310: 144c c33d d6ff 233e 8478 c1bd ae60 debd
00000320: d4c6 c83c c321 26be 808c 84be d73b 10be
00000330: e6c2 c5bd e752 53be d260 04be 8fb7 21bb
00000340: 3020 39bd 659f 88b9 56bb ebbd 5b75 a7bd
00000350: 830c f9bc daf6 d5ba 69c7 2cbd 725f 27bd
00000360: 3487 9bbd 75e7 91bd 3aa9 babd bc16 133d
00000370: 6e02 713d e690 80bd e60b 64bd 9a85 203b
00000380: c335 92bc 7f0f 473d b442 793d 6b0c 893d
00000390: cea2 fd3c 8ffc 183e cbfa 3c3e c24f 5d3d
000003a0: a672 483e ecc6 263e eb23 d93d 15ae 993a
000003b0: 3b5c 06be c184 0e3d 5d63 64bd 64e4 44be
000003c0: cc44 7c3d fc24 15bd ded6 7fbe 6505 c6bd
000003d0: f5a3 41be 6098 acbd 685e 44bd f22b 2dbe
000003e0: 969f 51bd 3885 5c3d b949 3cbc ab47 2a3d
000003f0: 85a4 f1bc e59d d53c 1959 b93d 6fbd 35be

conv3.bn.weight f4 [32]
0.949672 0.7887266 1.1942933 1.4316266 1.2542082 1.567059 0.891545 1.2260756
0.9041361 1.4209968 0.78826034 0.75325114 0.94838583 0.77811253 0.96745074 1.1189997
1.2329286 2.2405012 0.684257 1.0949022 1.1981006 1.4410475 1.9765393 1.341489
1.090381 0.96848875 1.0222366 1.495688 1.2563673 1.1982826 1.7018145 1.0543878
00000000: b41d 733f fde9 493f 9ade 983f 8a3f b73f
00000010: e589 a03f 6495 c83f 4b3c 643f 0cf0 9c3f
00000020: 7775 673f 39e3 b53f 6ecb 493f 11d5 403f
00000030: 6ac9 723f 6232 473f daaa 773f 623b 8f3f
00000040: 9bd0 9d3f 5f64 0f40 772b 2f3f c125 8c3f
00000050: 5c5b 993f 3f74 b83f 3dff fc3f e9b5 ab3f
00000060: 9b91 8b3f e1ee 773f a6d8 823f b472 bf3f
00000070: a5d0 a03f 5361 993f 0fd5 d93f 2ef6 863f

conv3.bn.bias f4 [32]
0.18338 0.24955733 -0.3058694 -0.25949675 -0.0502445 -0.5052148 0.4841495 -0.02534616
-0.043448873 -0.043316837 -0.03367378 0.47097123 0.062326085 0.27372992 -0.039747316 -0.34143984
-0.07222267 -0.85243917 0.42316622 0.06656418 0.72210515 -0.50252765 -0.5954144 0.25973493
0.30095 -0.15013528 -0.17871699 0.4231916 0.37168062 -0.43451628 -0.563071 -0.4509341
00000000: f7c7 3b3e f58b 7f3e ea9a 9cbe c2dc 84be
00000010: 2dcd 4dbd c255 01bf 71e2 f73e c0a2 cfbc
00000020: 72f7 31bd ff6c 31bd 84ed 09bd 2423 f13e
00000030: a349 7f3d 5426 8c3e 15ce 22bd 34d1 aebe
00000040: 7be9 93bd 7439 5abf 3ea9 d83e cd52 883d
00000050: e2db 383f a7a5 00bf 146d 18bf fafb 843e
00000060: 1e16 9a3e 10bd 19be 9601 37be 92ac d83e
00000070: ec4c be3e eb78 debe 6c25 10bf d6e0 e6be

conv3.bn.running_mean f4 [32]
-3.1920447 -1.2192762 0.053874772 -1.197408 -1.875978 -0.96356064 -0.83165056 -2.3047283
-0.10388801 -1.6804599 0.52543205 3.6924043 0.318559 0.5087513 -1.8925711 -1.1771536
-1.8676723 -3.1262105 0.76327056 -1.1071895 0.3402875 -2.3899257 -2.3016927 -1.912693
-2.056553 -1.8125077 -1.4628203 -2.6163592 -0.8603 -1.8894049 -3.121884 -2.3227177
00000000: 764a 4cc0 3e11 9cbf cbab 5c3d aa44 99bf
00000010: 0c20 f0bf e9ab 76bf 0de7 54bf ab80 13c0
00000020: 3dc3 d4bd 4f19 d7bf b782 063f 5a50 6c40
00000030: 2a1a a33e 863d 023f c53f f2bf f8ac 96bf
00000040: e30f efbf d513 48c0 b365 433f 63b8 8dbf
00000050: 2a3a ae3e 8bf4 18c0 ef4e 13c0 20d3 f4bf
00000060: 909e 03c0 4100 e8bf b23d bbbf 6e72 27c0
00000070: 9f3c 5cbf 05d8 f1bf f3cc 47c0 68a7 14c0

conv3.bn.running_var f4 [32]
7.540601 5.3698397 10.613147 8.163016 10.602659 7.4582357 8.845098 7.352936
7.4907174 8.805046 4.146054 15.939374 5.901846 10.934593 9.272849 6.0065303
9.577573 15.569489 10.867032 10.895421 15.306445 6.4614673 14.652609 12.09341
8.934056 6.0973372 5.8814297 28.64249 15.141427 7.994492 15.758756 8.094935
00000000: 9a4c f140 bad5 ab40 73cf 2941 b79b 0241
00000010: 7ea4 2941 dea9 ee40 8585 0d41 404b eb40
00000020: f5b3 ef40 78e1 0c41 79ac 8440 ad07 7f41
00000030: ecdb bc40 18f4 2e41 975d 1441 7f35 c040
00000040: bd3d 1941 a01c 7941 5ddf 2d41 a553 2e41
00000050: 33e7 7441 57c4 ce40 1671 6a41 9b7e 4141
00000060: e5f1 0e41 631d c340 ac34 bc40 d223 e541
00000070: 4943 7241 e1d2 ff40 dd23 7c41 db84 0141

conv4.conv.weight f4 [32, 32, 3, 3]
-0.020635929 -0.13142873 -0.2551838 0.018629977 -0.030885719 -0.10991596 0.14300165 0.12538901
0.0886743 0.0981529 0.14428537 0.048264064 0.08073903 0.21460412 0.051664356 0.016167404
-0.03575634 0.006406739 -0.05047747 0.113509744 -0.031767603 -0.05578341 0.07486748 0.024638703
-0.13382705 0.06317441 0.07417075 0.09015204 0.1626443 -0.05742456 0.18797117 0.11704924
0.088931814 0.063538 -0.059749532 -0.13130629 -0.027573297 -0.20130675 0.0016266739 0.21318088
0.103195824 0.037514802 -0.02443026 -0.01876158 0.05389321 -0.030084569 0.011459114 -0.10484863
0.027671542 -0.086221375 -0.04084375 0.08093043 0.16083565 -0.092962235 0.044618245 0.056432076
-0.1289225 0.1435455 0.14235596 0.012207851 0.052599974 0.31565556 0.16211212 -0.08992577
0.0630462 0.024779188 0.20806938 -0.15034732 -0.11080234 0.096326366 0.07025458 -0.14343645
0.02039861 0.06590783 0.019758496 0.052893095 0.12985587 0.15421864 -0.011265189 -0.13969144
-0.10073567 -0.004617346 0.124516025 0.09815237 0.0052558165 -0.0020611896 0.13857174 0.023084618
-0.06655517 -0.0068739196 0.022045065 0.040912934 -0.046655666 0.008801256 -0.02704986 -0.06986082
-0.059645835 0.06458341 -0.010780241 0.20780368 0.27592677 0.23755415 -0.019089663 0.011230685
0.14494102 -0.3639777 -0.19106653 0.0012367888 -0.049333062 0.0029404352 -0.0373902 -0.015992941
0.12861194 -0.025607064 -0.08354731 0.0065123294 0.058904253 -0.016599214 0.023450121 0.1214091
0.013334849 0.04019377 0.12410664 -0.24822265 -0.21691082 -0.043904353 0.16744287 0.26150534
0.22844124 -0.12814029 -0.1964033 -0.028683268 0.080733865 -0.047153134 0.077796176 0.067074805
0.06967482 -0.0018129139 0.11262018 0.06957049 0.12990242 0.07404584 0.019415075 -0.150517
-0.14372617 0.009388687 0.11911615 0.04551609 -0.045422923 0.045828573 0.0056804796 -0.012245132
-0.16818176 -0.07676649 -0.021569027 0.03453707 0.026768886 0.15950163 0.06649933 -0.010064782
-0.112126514 -0.08979865 -0.04723571 -0.11893154 0.012060096 -0.099600405 -0.173602 -0.04284847
-0.17388126 -0.087160304 0.09395416 0.048214536 -0.103238575 0.11790193 0.17942408 0.11455863
-0.09942049 0.05643026 -0.04094631 -0.14076667 -0.1131988 -0.08199675 -0.094975635 0.068272166
0.018616764 -0.12366036 0.15784937 0.4056305 0.12570287 -0.0066218376 0.11986627 0.1356793
0.103514 0.10361732 0.10638778 -0.062319458 -0.08295094 -0.027084196 0.0029982685 0.0447932
-0.004185009 0.2040666 0.19054759 0.09170673 -0.05220169 0.008465154 -0.013658511 -0.11248258
-0.14242378 -0.052263584 0.11918219 0.08462544 -0.036973696 0.29246962 0.19613138 0.009389729
-0.28810272 -0.23344581 -0.183185 -0.24299265 -0.30280355 -0.14158946 0.10294339 0.25346938
0.13861981 0.12632881 0.07775931 0.025196439 0.027275855 0.15631402 0.124684684 -0.115465604
-0.09293505 0.07633901 0.13361311 0.20862822 0.04159864 -0.020178584 -0.02172816 -0.010687486
-0.17927386 -0.23162436 -0.19759518 -0.02334858 -0.11452295 -0.08721651 0.3689089 0.32152238
0.15705295 -0.019460212 0.07521291 -0.118694216 0.08517132 0.020960828 -0.2266121 0.018438756
00000000: ae0c a9bc 4195 06be 73a7 82be e59d 983c
00000010: 0c04 fdbc 9e1b e1bd 066f 123e fa65 003e
00000020: df9a b53d 6304 c93d 8bbf 133e 8ab0 453d
00000030: 815a a53d 2fc1 5b3e 019e 533d 8171 843c
00000040: 3d75 12bd 9fef d13b 77c1 4ebd cc77 e83d
00000050: bf1e 02bd 257d 64bd 1f54 993d 1bd7 c93c
00000060: f509 09be 9661 813d d6e6 973d a2a1 b83d
00000070: 3a8c 263e 0436 6bbd 847b 403e 83b7 ef3d
00000080: e221 b63d 3620 823d edbb 74bd 2875 06be
00000090: 65e1 e1bc 5b23 4ebe 1e36 d53a 174c 5a3e
000000a0: 5558 d33d 1fa9 193d f821 c8bc e3b1 99bc
000000b0: 20bf 5c3d ea73 f6bc 02bf 3b3c e1ba d6bd
000000c0: 6eaf e23c d594 b0bd c74b 27bd dabe a53d
000000d0: 1ab2 243e fc62 bebd 9fc1 363d 5225 673d
000000e0: 4304 04be 97fd 123e c3c5 113e 7003 483c
000000f0: 1273 573d 9b9d a13e b800 263e 012b b8bd
00000100: 5e1e 813d b9fd ca3c 2410 553e a6f4 19be
00000110: 56ec e2bd c246 c53d a2e1 8f3d 01e1 12be
00000120: fc1a a73c affa 863d 92dc a13c 6ea6 583d
00000130: f0f8 043e 7eeb 1d3e a191 38bc 460b 0fbe
00000140: 814e cebd 1b4d 97bb 4202 ff3d 1c04 c93d
00000150: fc38 ac3b 0615 07bb c0e5 0d3e f41b bd3c
00000160: 144e 88bd 9e3e e1bb da97 b43c 5294 273d
00000170: 031a 3fbd 2533 103c ab97 ddbc 3113 8fbd
00000180: 314f 74bd 4f44 843d 9c9f 30bc 7dca 543e
00000190: 4646 8d3e 6541 733e ed61 9cbc e800 383c
000001a0: 6b6b 143e 495b babe f2a6 43be bf1b a23a
000001b0: 7711 4abd 51b4 403b 7726 19bd a103 83bc
000001c0: d9b2 033e e8c5 d1bc da1a abbd 6165 d53b
000001d0: 9645 713d 13fb 87bc 781a c03c 56a5 f83d
000001e0: 697a 5a3c 39a2 243d 9f2b fe3d 142e 7ebe
000001f0: df1d 5ebe 0dd5 33bd 2576 2b3e 07e4 853e
00000200: 80ec 693e 3537 03be f21d 49be 2cf9 eabc
00000210: cc57 a53d a523 41bd 9a53 9f3d 845e 893d
00000220: acb1 8e3d 4c9f edba 69a5 e63d f97a 8e3d
00000230: 2405 053e 58a5 973d 5d0c 9f3c 2121 1abe
00000240: f42c 13be 02d3 193c 2bf3 f33d 146f 3a3d
00000250: 630d 3abd beb6 3b3d 5123 ba3b ce9f 48bc
00000260: d737 2cbe c037 9dbd 87b1 b0bc be76 0d3d
00000270: 6c4a db3c 6554 233e cd30 883d c1e6 24bc
00000280: 96a2 e5bd 5be8 b7bd 3b7a 41bd 6192 f3bd
00000290: b597 453c 4cfb cbbd b9c4 31be e181 2fbd
000002a0: ee0d 32be 1a81 b2bd 0a6b c03d 9b7c 453d
000002b0: bf6e d3bd 9176 f13d f2ba 373e b79d ea3d
000002c0: f89c cbbd 6b23 673d 51b7 27bd 2325 10be
000002d0: c6d4 e7bd e9ed a7bd 9682 c2bd 47d2 8b3d
000002e0: 2f82 983c a541 fdbd 44a3 213e cdae cf3e
000002f0: 41b8 003e 00fc d8bb 727c f53d 84ef 0a3e
00000300: 26ff d33d 5135 d43d d6e1 d93d b042 7fbd
00000310: 2fe2 a9bd addf ddbc 997e 443b 1379 373d
00000320: 6622 89bb d6f6 503e e81e 433e bdd0 bb3d
00000330: 70d1 55bd 6eb1 0a3c f3c7 5fbc 445d e6bd
00000340: 8ad7 11be 5712 56bd cb15 f43d 1a50 ad3d
00000350: bb71 17bd 94be 953e aad6 483e 61d7 193c
00000360: 3382 93be 6b0c 6fbe d994 3bbe 11d3 78be
00000370: 1109 9bbe d4fc 10be fcd3 d23d bdc6 813e
00000380: 5af2 0d3e 575c 013e 4640 9f3d c368 ce3c
00000390: 9d71 df3c c810 203e af5a ff3d 3b79 ecbd
000003a0: bb54 bebd a057 9c3d e0d1 083e a3a2 553e
000003b0: 5663 2a3d 8f4d a5bc 41ff b1bc 911a 2fbc
000003c0: 9193 37be f02e 6dbe 6456 4abe 8545 bfbc
000003d0: 028b eabd 929e b2bd a1e1 bc3e 959e a43e
000003e0: 7dd2 203e 066b 9fbc 3a09 9a3d f415 f3bd
000003f0: 4d6e ae3d 0bb6 ab3c 010d 68be e00c 973c

conv4.bn.weight f4 [32]
1.3352132 1.9844984 2.8801024 1.7191948 2.266633 1.6690737 2.151059 2.060185
2.238216 1.9009225 1.6633565 1.2403382 1.7479875 1.9279104 1.8913461 1.9264362
1.6413558 2.2482965 2.202965 1.4677811 2.5622053 1.6316524 1.8605767 2.4604096
1.6196413 2.7352068 1.9832039 2.5087678 2.3928466 2.1124308 2.32595 1.7003859
00000000: 44e8 aa3f 0b04 fe3f 9953 3840 930e dc3f
00000010: 8410 1140 35a4 d53f f3aa 0940 12da 0340
00000020: ee3e 0f40 6e51 f33f dee8 d43f 67c3 9e3f
00000030: 0ebe df3f c5c5 f63f a117 f23f 7695 f63f
00000040: f217 d23f 17e4 0f40 61fd 0c40 40e0 bb3f
00000050: 2cfb 2340 fcd9 d03f 6127 ee3f 5a77 1d40
00000060: 6850 cf3f a10d 2f40 a0d9 fd3f a78f 2040
00000070: 6624 1940 1132 0740 5ddc 1440 3fa6 d93f

conv4.bn.bias f4 [32]
0.7226667 0.09433949 -1.7840176 -0.3294217 -2.1802132 -0.28204456 -1.4435185 0.39376268
-0.60295147 -0.2221617 0.12703197 0.6702857 -0.61996496 -0.045934442 -0.13930571 -0.30710036
-0.2185654 -0.54026675 -0.87244445 0.48994833 -1.7491539 0.48462835 -0.49122578 -0.63663685
-0.21268758 -1.7062505 -1.0186658 -1.5913295 -0.7880313 -0.51401865 -0.92234915 0.18970679
00000000: af00 393f 1035 c13d b05a e4bf f6a9 a8be
00000010: 9d88 0bc0 2568 90be 37c5 b8bf 439b c93e
00000020: 075b 1abf 5b7e 63be ab14 023e d897 2b3f
00000030: 06b6 1ebf c125 3cbd 28a6 0ebe 423c 9dbe
00000040: 9ccf 5fbe ec4e 0abf 8558 5fbf 82da fa3e
00000050: 46e4 dfbf 3521 f83e f281 fbbe a2fa 22bf
00000060: c6ca 59be 6b66 dabf a463 82bf afb0 cbbf
00000070: 6bbc 49bf ba96 03bf 131f 6cbf 7f42 423e

conv4.bn.running_mean f4 [32]
1.9275324 -1.3295588 -0.7336223 -1.2457815 -0.87634605 -1.1620412 -1.9018228 -0.21196666
-1.3593656 -1.0481583 -2.680861 -1.2705015 -1.3981138 -1.501369 -1.1277364 -1.974021
-1.4838623 -0.60799795 -0.58355176 0.45634237 -0.3364648 -0.35519865 -1.1489525 0.2029691
-0.52501184 -0.31314805 -1.6535581 -1.7798818 -0.27395406 -1.0966276 0.07513742 -1.5026888
00000000: 62b9 f63f fc2e aabf acce 3bbf c575 9fbf
00000010: 3758 60bf c4bd 94bf ee6e f3bf ca0d 59be
00000020: b1ff adbf 0d2a 86bf 3a93 2bc0 cb9f a2bf
00000030: 65f5 b2bf dc2c c0bf ab59 90bf b8ac fcbf
00000040: 33ef bdbf c1a5 1bbf a663 15bf b5a5 e93e
00000050: 1d45 acbe 99dc b5be e010 93bf 22d7 4f3e
00000060: 2d67 06bf f154 a0be cba7 d3bf 2bd3 e3bf
00000070: b543 8cbe 4b5e 8cbf a6e1 993d 1b58 c0bf

conv4.bn.running_var f4 [32]
2.3407812 2.5661075 1.7989647 1.7174383 1.0871593 2.2574477 1.385666 3.2511446
2.8018718 1.7533658 2.1023288 1.727071 1.3414316 2.5953743 2.303718 2.3301697
1.772612 2.3347888 1.9554546 2.2325492 1.6011084 3.0282948 1.9687909 2.7417667
1.555692 1.8120308 1.5768899 2.1672509 2.1258612 1.6669192 1.7229779 2.478872
00000000: 5ccf 1540 1b3b 2440 7a44 e63f 05d5 db3f
00000010: 0928 8b3f 067a 1040 815d b13f c112 5040
00000020: de51 3340 4a6e e03f 8e8c 0640 aa10 dd3f
00000030: 08b4 ab3f 9d1a 2640 1e70 1340 8021 1540
00000040: f3e4 e23f 2e6d 1540 564c fa3f 16e2 0e40
00000050: 1ff1 cc3f 95cf 4140 5701 fc3f 1b79 2f40
00000060: ea20 c73f a0f0 e73f 87d7 c93f 3db4 0a40
00000070: 1c0e 0840 9c5d d53f 8a8a dc3f d7a5 1e40

conv5.conv.weight f4 [32, 32, 3, 3]
-0.018437512 -0.019866021 -0.012935538 -0.005205336 0.052624065 0.060127188 -0.029466562 -0.007968027
0.0035968248 0.0071520344 0.053536683 0.052334215 -0.08320373 -0.10941684 -0.042424817 -0.055233132
-0.13955645 -0.06158775 -0.032600358 -0.05016493 -0.016086096 -0.022324257 -0.037461016 0.020550827
-0.036558125 -0.024470044 -0.00010152638 0.059524957 0.017410025 0.012166537 0.07226787 0.08959177
0.10693776 0.03505279 0.04403512 0.011947243 -0.019184329 -0.040700722 -0.0714374 0.0092483945
-0.13312206 -0.12161287 -0.007106751 -0.06353896 -0.06803133 -0.030085094 -0.11234676 -0.10785415
-0.052116547 -0.11637564 -0.17213139 0.016500274 -0.044335503 -0.09146489 0.08357902 0.095114246
0.018705726 0.050990134 0.045591805 -0.032799397 0.03665389 0.023361074 -0.011712618 -0.008171304
0.030546643 0.03248547 0.03484228 0.08225954 0.094935246 -0.0071666073 -0.07378319 -0.046519022
0.021141374 0.0113224415 0.02155865 -0.07786304 -0.032861505 0.038652975 -0.11470701 -0.07604107
0.0018675434 0.11384673 0.19837579 0.1174459 0.103274584 0.16296281 0.090544865 0.04141078
0.03546107 -0.009336853 -0.047414917 -0.000610108 -0.015068764 -0.19994004 -0.22334208 -0.08249819
-0.13317458 -0.21476515 -0.13348296 0.039956033 0.0011307395 -0.018906433 0.12265326 0.11322061
0.036649317 0.05793862 0.09123939 0.07173385 0.041531205 0.0052722837 -0.0039422456 0.048796088
0.09445706 0.099032655 -0.008534484 0.056399234 0.08645928 0.009026114 -0.03388625 -0.023381442
-0.09266261 -0.14373916 -0.11396756 -0.050836507 -0.14357889 -0.14701973 0.033308968 0.053911887
0.018898752 -0.0033440196 -0.0226858 0.00409609 -0.02732591 -0.1327325 -0.11814816 0.052213375
0.0029122282 -0.079784006 0.008823865 -0.10238406 -0.07971124 -0.04307393 -0.09096486 -0.003580125
-0.076449744 -0.12496643 -0.045449927 -0.030254928 -0.10887853 -0.028645745 0.09874374 0.10497429
0.11384618 -0.07607652 -0.020252537 0.1023504 -0.10187045 0.013103878 0.13889089 0.009895343
0.054840423 0.12547882 0.018232683 0.05490775 0.07369539 -0.007498447 0.041840877 0.01948563
-0.04561131 -0.07386507 -0.041667346 0.07799271 0.107347354 0.031356912 0.17951956 0.34040457
0.18921024 0.220172 0.349505 0.20981202 0.051524706 0.047156643 -0.010696001 0.09341198
0.08905384 0.07814297 0.033774316 0.040515758 0.026912028 0.023595016 0.09262729 0.02161158
0.08757001 0.073246755 0.030594822 0.1252295 0.07443411 0.011458442 0.04824591 0.101655364
0.12640612 0.044832967 0.07002181 0.13480821 -0.036617573 -0.07314917 -0.012876974 0.14133228
0.31165722 0.2089869 0.24458444 0.45315492 0.27433482 0.09473951 0.15054986 0.109755285
0.018458927 0.08107375 0.053504135 0.06755268 0.1337843 0.05929448 0.017827017 0.026741697
0.0059364014 0.13102031 0.0995429 -0.019405592 0.104858436 0.15566987 0.007847844 -0.03903791
0.100071 0.04722574 -0.06988678 -0.06897549 0.010271973 -0.107551426 -0.18053147 -0.102293774
-0.04986418 -0.17364475 -0.12133394 0.053834584 0.10388217 0.10032973 0.04741615 0.10602419
0.109041885 0.053367615 0.03941912 -0.01796429 0.006450045 -0.051508762 0.029739235 0.043911718
00000000: 440a 97bc 11be a2bc 94ef 53bc 8691 aabb
00000010: 558c 573d ed47 763d dc63 f1bc 548c 02bc
00000020: b5b8 6b3b 9d5b ea3b 4849 5b3d 675c 563d
00000030: b866 aabd f015 e0bd a5c5 2dbd 233c 62bd
00000040: e3e7 0ebe 7043 7cbd f487 05bd be79 4dbd
00000050: fdc6 83bc 5ce1 b6bc b970 19bd 355a a83c
00000060: f9bd 15bd 6775 c8bc 8fea d4b8 71d0 733d
00000070: 789f 8e3c 2856 473c 2d01 943d e47b b73d
00000080: 2f02 db3d 8493 0f3d 2c5e 343d 5ebe 433c
00000090: 7428 9dbc cdb5 26bd c64d 92bd 9486 173c
000000a0: 2651 08be 2b10 f9bd c0df e8bb b720 82bd
000000b0: 0354 8bbd 0475 f6bc 0f16 e6bd a3e2 dcbd
000000c0: 2978 55bd 5a56 eebd 3643 30be 952b 873c
000000d0: 2599 35bd f251 bbbd 7a2b ab3d 42cb c23d
000000e0: c03c 993c 08db 503d 79be 3a3d a958 06bd
000000f0: 6422 163d b95f bf3c 48e6 3fbc efe0 05bc
00000100: f43c fa3c 7c0f 053d c7b6 0e3d b177 a83d
00000110: 696d c23d dcd5 eabb a41b 97bd bb8a 3ebd
00000120: ad30 ad3c c381 393c c49b b03c a876 9fbd
00000130: c999 06bd 9552 1e3d 82eb eabd 6cbb 9bbd
00000140: 5cc8 f43a 7928 e93d 0623 4b3e 7a87 f03d
00000150: a081 d33d b9df 263e 966f b93d 5a9e 293d
00000160: a03f 113d 9af9 18bc 2536 42bd a8ef 1fba
00000170: fae2 76bc 15bd 4cbe c9b3 64be d0f4 a8bd
00000180: eb5e 08be 65eb 5bbe c2af 08be f0a8 233d
00000190: 5235 943a aae1 9abc a231 fb3d 35e0 e73d
000001a0: 981d 163d 0c51 6d3d b8db ba3d 32e9 923d
000001b0: a01c 2a3d 1fc3 ac3b f42d 81bb 68de 473d
000001c0: b472 c13d a2d1 ca3d 38d4 0bbc e202 673d
000001d0: 9011 b13d 44e2 133c 4fcc 0abd 708a bfbc
000001e0: e5c5 bdbd 5c30 13be d367 e9bd f139 50bd
000001f0: 5806 13be 578c 16be fc6e 083d b6d2 5c3d
00000200: 8ed1 9a3c 5727 5bbb 92d7 b9bc 7e38 863b
00000210: 96da dfbc 07eb 07be aaf7 f1bd b1dd 553d
00000220: 15db 3e3b cc65 a3bd f991 103c bcae d1bd
00000230: a63f a3bd 4a6e 30bd c94b babd 88a0 6abb
00000240: af91 9cbd 66ee ffbd b429 3abd 2fd9 f7bc
00000250: b5fb debd 7baa eabc 283a ca3d c3fc d63d
00000260: 3028 e93d 02ce 9bbd a6e8 a5bc 169d d13d
00000270: 74a1 d0bd a6b1 563c 6a39 0e3e 1420 223c
00000280: 5aa0 603d 857d 003e b55c 953c f3e6 603d
00000290: 9ced 963d 88b5 f5bb 5761 2b3d 54a0 9f3c
000002a0: edd2 3abd 9246 97bd 61ab 2abd a4ba 9f3d
000002b0: eed8 db3d 1b70 003d fad3 373e 8249 ae3e
000002c0: 54c0 413e c574 613e 52f2 b23e f6d8 563e
000002d0: 920b 533d 5327 413d 483e 2fbc c84e bf3d
000002e0: dc61 b63d 6c09 a03d f056 0a3d daf3 253d
000002f0: 9d76 dc3c 564a c13c 60b3 bd3d c50a b13c
00000300: e857 b33d 6502 963d fea1 fa3c 293c 003e
00000310: e970 983d 30bc 3b3c 819d 453d b030 d03d
00000320: 9b70 013e c6a2 373d 9867 8f3d 2a0b 0a3e
00000330: 4ffc 15bd 3bcf 95bd f2f9 52bc 69b9 103e
00000340: 8991 9f3e a900 563e 5874 7a3e ec03 e83e
00000350: 9d75 8c3e ca06 c23d be29 1a3e 61c7 e03d
00000360: 2d37 973c ff09 a63d 2727 5b3d 0f59 8a3d
00000370: c0fe 083e c5de 723d f709 923c 6711 db3c
00000380: 2586 c23b 302a 063e 26dd cb3d 7af8 9ebc
00000390: 05c0 d63d ec67 1f3e 3e94 003c 37e6 1fbd
000003a0: 06f2 cc3d c76f 413d cd20 8fbd 0643 8dbd
000003b0: c74b 283c ec43 dcbd 3edd 38be 667f d1bd
000003c0: 623e 4cbd eecf 31be ee7d f8bd a781 5c3d
000003d0: 2dc0 d43d ac79 cd3d 7037 423d 3623 d93d
000003e0: 5a51 df3d 0098 5a3d f175 213d d929 93bc
000003f0: e65a d33b dafa 52bd b29f f33c c6dc 333d

conv5.bn.weight f4 [32]
2.1714792 3.440786 2.3992891 2.9742491 2.5786548 2.1901705 2.3777835 2.5194755
3.768829 2.2132988 2.663379 2.1234002 2.083712 2.6469471 4.4314284 2.7272794
3.028515 2.5923028 2.4564621 2.2033048 2.4036307 2.4367685 2.9877927 2.3489487
2.3131497 1.9248216 1.7700406 2.2929063 1.9752278 2.5286245 2.6837585 2.6424406
00000000: 84f9 0a40 d635 5c40 f48d 1940 195a 3e40
00000010: ae08 2540 c12b 0c40 9b2d 1840 163f 2140
00000020: 7f34 7140 b0a6 0d40 cd74 2a40 cae5 0740
00000030: 8a5b 0540 9567 2940 43ce 8d40 bf8b 2e40
00000040: 31d3 4140 4ae8 2540 ad36 1d40 f202 0d40
00000050: 16d5 1940 04f4 1b40 ff37 3f40 2d55 1640
00000060: a50a 1440 8e60 f63f b190 e23f fabe 1240
00000070: 44d4 fc3f fcd4 2140 b3c2 2b40 bf1d 2940

conv5.bn.bias f4 [32]
1.5229712 0.51102793 1.9559957 0.85778177 0.25167927 0.60745054 0.42213744 1.4535282
0.9469251 0.94287723 0.22813873 1.8698547 2.4683778 0.9569672 -0.9230487 1.9054631
1.1408437 0.9445978 2.5972004 0.113476254 0.27880585 2.08705 1.6005394 2.3244014
0.76764154 2.1403146 3.1877315 1.8151337 1.6651708 2.0909462 0.7345657 1.7369652
00000000: b8f0 c23f bad2 023f 115e fa3f 9697 5b3f
00000010: 1bdc 803e e181 1b3f 6622 d83e 360d ba3f
00000020: af69 723f 6760 713f 339d 693e 6657 ef3f
00000030: e7f9 1d40 cdfb 743f eb4c 6cbf 37e6 f33f
00000040: 2b07 923f 29d1 713f 8838 2640 3d66 e83d
00000050: a4bf 8e3e 3a92 0540 7ade cc3f fec2 1440
00000060: 2884 443f eafa 0840 cb03 4c40 4d56 e83f
00000070: 5124 d53f 10d2 0540 7f0c 3c3f e054 de3f

conv5.bn.running_mean f4 [32]
3.0920057 -1.7576709 -0.4717567 1.0755619 1.3063301 -0.101359345 -3.5148206 2.3206537
3.3717391 0.35794398 -1.5623654 -1.4720259 -1.7485522 0.9187386 -4.3292136 -1.1090027
-0.6218584 -1.7407539 -0.38201758 2.356169 1.6848758 -0.75572723 1.0512488 -1.4218912
1.0349274 -2.7480853 0.1424716 -2.2992382 -0.58632016 2.1528761 -0.41699487 -0.32306793
00000000: 6ce3 4540 5cfb e0bf 188a f1be 03ac 893f
00000010: d335 a73f 7d95 cfbd d2f2 60c0 9785 1440
00000020: 93ca 5740 6f44 b73e 97fb c7bf 586b bcbf
00000030: 8fd0 dfbf 7432 6b3f eb88 8ac0 cdf3 8dbf
00000040: 1d32 1fbf 06d1 debf cf97 c3be 79cb 1640
00000050: 03aa d73f 5777 41bf 528f 863f 8800 b6bf
00000060: 8078 843f a1e0 2fc0 13e4 113e b826 13c0
00000070: 1419 16bf b9c8 0940 5a80 d5be 2969 a5be

conv5.bn.running_var f4 [32]
6.524504 6.3146563 6.684259 4.2273808 4.798791 4.363256 4.0988245 5.430817
6.8428764 5.761572 5.27849 5.686033 4.373577 4.571987 7.6894984 5.5779176
7.4139853 5.599561 5.769012 6.8871207 4.60816 6.4956336 4.802647 5.473141
5.2381654 4.140549 4.2270327 4.163961 4.2860622 5.5409064 4.325016 6.8405538
00000000: bdc8 d040 aa11 ca40 73e5 d540 b446 8740
00000010: b28f 9940 cb9f 8b40 9229 8340 41c9 ad40
00000020: d8f8 da40 cc5e b840 64e9 a840 fbf3 b540
00000030: 58f4 8b40 b84d 9240 5f10 f640 4d7e b240
00000040: 5e3f ed40 9b2f b340 bf9b b840 4b63 dc40
00000050: 0c76 9340 3bdc cf40 49af 9940 f923 af40
00000060: 0d9f a740 617f 8440 da43 8740 2b3f 8540
00000070: 6c27 8940 1b4f b140 8866 8a40 d1e5 da40
